models2/weights_best_val_acc.pt (torch, 133817 bytes, 36 tensors)

encoder.encBlocks.0.conv1.weight f4 [4, 1, 3, 3]
000000 00 07 3b 3e 61 7a d9 3d cf 54 39 3d f8 f7 09 3e
       0.18264389 0.10619045 0.045246895 0.13473499
000010 ba 29 3a 3e 6a 7e 03 be 5e 4a 55 be 33 62 86 bd
       0.1817998 -0.12841192 -0.2082915 -0.06561699
000020 21 64 a2 be a4 9b 86 be 0f 1c 73 3d dc 00 98 be
       -0.31717017 -0.2629062 0.05935293 -0.29688156
000030 29 40 34 be 98 13 e0 bb 78 61 a3 be 59 18 a2 bd
       -0.176026 -0.0068382733 -0.319103 -0.079148
000040 8d e0 8f be 5c a8 99 be 33 aa 82 3e 69 5a 01 be
       -0.28101006 -0.3001126 0.25520477 -0.12632145
000050 7f 1a 4c 3e 0d da e4 bd 9f 93 90 3c f4 54 7f be
       0.19931982 -0.111744024 0.017648516 -0.24934751
000060 1c 15 86 3e 63 aa 7d be ed a9 01 3e a2 22 27 bd
       0.2618798 -0.24772029 0.12662478 -0.040804513
000070 f7 f6 14 bf 98 84 fa 3d 1f e5 d1 3d 58 70 df bb
       -0.5818934 0.122323215 0.102487795 -0.0068188123
000080 54 7c b4 3e e6 df a4 bb 1a 94 07 be 4c b2 3d 3e
       0.35251105 -0.0050315736 -0.1324009 0.18525046

encoder.encBlocks.0.conv1.bias f4 [4]
000000 7d b0 4b 3e e9 28 61 3e 51 5d a9 3d 24 27 00 3e
       0.19891544 0.21988262 0.08269752 0.12514931

encoder.encBlocks.0.conv2.weight f4 [4, 4, 3, 3]
000000 29 45 ad 3d f0 3f 14 3e 17 35 94 3b d4 c3 0b 3d
       0.08460457 0.14477515 0.0045229304 0.034122303
000010 77 39 6a 3d 05 92 e1 bd 61 80 30 3e 9f 38 83 bd
       0.05718371 -0.11014179 0.17236473 -0.06407284
000020 42 a8 fd 3d 66 54 86 bd 30 e8 85 3d fb 65 66 3e
       0.12385608 -0.065590665 0.06538427 0.2249984
000030 70 8a 33 3e 36 87 10 3d b2 65 60 3d b6 8d 88 3e
       0.17533278 0.035285197 0.054784484 0.26670617
000040 b5 b5 8b 3e 78 f5 9d 3e d9 a9 5b 3e 6d c7 cb 3d
       0.2728707 0.3085134 0.2145151 0.09950147
000050 90 8c 09 3e ce c6 81 3c 70 81 e3 bc a6 40 c1 bd
       0.13432527 0.015841868 -0.027771682 -0.09436159
000060 45 aa e8 bd 96 c2 99 bd 08 68 d2 3d 66 b6 3e bd
       -0.11360601 -0.075078174 0.10273749 -0.046560667
000070 6a e2 4f bd 14 cd ce bc 6a 4a 24 be 7f 17 86 be
       -0.050753035 -0.025244273 -0.16044012 -0.261898
000080 da a9 9f be 5a 09 5a be c8 5c 84 be ac 7a c1 be
       -0.31184274 -0.2129263 -0.25852036 -0.37788904
000090 66 be 4c 3d ea ac 0b 3c 06 8f 89 bd 37 b6 84 bd
       0.049986266 0.008525113 -0.06716733 -0.06480067
0000a0 79 ce 09 3d 41 f2 27 be e3 21 cc bc 1a a4 9f bd
       0.033644173 -0.16401006 -0.024918502 -0.07794972
0000b0 9e a7 3f bd d6 f4 3b 3d 7d 98 fa bd 1f b6 d1 3d
       -0.04679071 0.04588779 -0.12236116 0.10239815
0000c0 96 00 0c be 6d 3d 02 bd b2 65 fe 3c b5 f4 af bc
       -0.13672099 -0.03179686 0.031054351 -0.02147899
0000d0 1e 74 be 3d 54 f9 02 3d f4 2f 41 be c7 db 63 bd
       0.09299491 0.03197606 -0.18865949 -0.055629518
0000e0 96 fa 8f bd 33 25 e2 bd 29 24 61 bd f5 f7 3b be
       -0.07030217 -0.110422514 -0.054966126 -0.18356307
0000f0 6b 9a 15 be 0c 61 9d 3c 31 b9 fa 3c 66 2b d7 bd
       -0.14609687 0.019211315 0.030605884 -0.105063245
000100 45 9a 59 bd 6a fb 94 bd c1 65 a5 bd 01 bb d5 3c
       -0.05312564 -0.07274516 -0.08076049 0.026090147
000110 a1 f7 0e 3d 2a eb 45 bc 5e ca 01 3d 39 de 84 3d
       0.034904126 -0.012079993 0.031687133 0.06487698
000120 b2 6f 7b bb 29 77 59 3d 1c 3f 20 be 07 bd 09 be
       -0.0038366136 0.053092156 -0.15649074 -0.13451014
000130 ae 21 25 3e ff 93 0b be b0 34 bd bd c7 50 41 bd
       0.16126129 -0.13630675 -0.09238565 -0.047196176
000140 f9 80 a0 bd 3b fa e9 bd 79 7d b8 3d 05 63 30 be
       -0.078370996 -0.11424681 0.09008307 -0.17225273
000150 8c 8e 09 3d 4f 0b b6 3d 1b bc c9 3d 21 86 23 be
       0.03358321 0.08888876 0.098503314 -0.15969135
000160 9e cd 08 be 22 eb ef 3c 07 cd 6f 3d a0 07 17 be
       -0.13359687 0.029286925 0.05854514 -0.14749002
000170 bf 5a e3 bd aa 66 1c be 9b 32 2f bd e4 e8 18 3d
       -0.11101293 -0.15273538 -0.04277287 0.037331477
000180 f6 27 19 be 9a 85 12 3e dc 3d a5 bc 4b 43 84 3c
       -0.1495665 0.14308777 -0.020171098 0.016145369
000190 49 a3 0d be 9d 4d c9 3d 16 9f 1d 3e 6d 81 11 bd
       -0.1383182 0.09829257 0.15392718 -0.03552382
0001a0 5d 24 42 bc 33 9f cf 3d d8 81 f5 3c 38 dc 3c bd
       -0.01184949 0.10137787 0.02996914 -0.046108454
0001b0 9c 54 15 be 5e 47 1f be 9b ff d1 bd ae cd 09 be
       -0.14583057 -0.15554568 -0.10253831 -0.13457367
0001c0 98 0b 81 bd 70 1e 40 bc 79 15 a9 bd e3 f7 ce bc
       -0.063010395 -0.011726007 -0.08256049 -0.025264686
0001d0 cf d7 2d 3e 72 46 5e 3d f0 cc 73 3d 7b ed 35 3e
       0.16976856 0.0542664 0.059521616 0.17766373
0001e0 64 29 15 3d fd 52 a9 3d 37 dc f9 3d 90 d2 85 bd
       0.036416426 0.08267782 0.12200206 -0.06534302
0001f0 0e f1 d3 bd 5d e6 4e 3e 95 18 af 3d b8 39 67 bc
       -0.10348712 0.20205064 0.085496105 -0.014112882
000200 1b 39 fe 3d 3b 62 1a bc 1b 4a 4e bd 78 9f 1e 3e
       0.12413236 -0.009422834 -0.05036364 0.1549052
000210 f6 01 2b 3e eb 4d a8 3d 93 4b 07 3e 92 ab 86 3d
       0.16699967 0.08217987 0.13212423 0.06575693
000220 c7 a8 28 be 30 49 f9 3d cf 8d 48 3d d2 8f e2 3d
       -0.16470633 0.121721625 0.048963364 0.11062588
000230 7b 29 9b bc 62 eb 72 3d f8 b2 a4 3d 2e a6 8d bd
       -0.018940678 0.05930651 0.08041948 -0.06916462

encoder.encBlocks.0.conv2.bias f4 [4]
000000 7d 19 cd bc db b8 26 be da 8a fe 3c 95 b9 df bd
       -0.025036568 -0.16281454 0.031072069 -0.10924069

encoder.encBlocks.1.conv1.weight f4 [8, 4, 3, 3]
000000 64 84 85 3d a6 4f b8 bd b6 20 08 3e b3 8a be 3d
       0.06519392 -0.08999567 0.13293728 0.093037985
000010 b7 23 2f 3e 85 87 6f 3e cd 99 6e 3e e8 00 8f 3e
       0.17103468 0.2339154 0.23300858 0.2793038
000020 a0 3a 93 3e 6d 67 39 be 7e d7 81 3d 82 4d 0e 3e
       0.28755665 -0.1810586 0.0633993 0.13896754
000030 46 61 87 3d ca 09 7b 3c af b9 18 3d ad cc 88 bc
       0.0661035 0.015322158 0.037286457 -0.01669916
000040 83 18 f3 bd dc 4d 84 3d 1c 3c 83 bd 85 b6 70 3d
       -0.118699096 0.06460163 -0.06407949 0.058767814
000050 24 50 01 3e e0 7c 8d bd 6a 2f 39 3d 5c 50 ca bd
       0.12628227 -0.06908584 0.045211233 -0.098786086
000060 0f f3 1f 3a 44 4f 37 be 2e 50 65 3d e7 f8 14 3c
       0.0006101587 -0.17901331 0.05598467 0.009092546
000070 13 c4 bc 3d a9 d9 9a bd d5 21 23 be fa f6 0a be
       0.09217086 -0.07561047 -0.15930875 -0.13570777
000080 8e da fa 3d 2c ac ea 3d b2 b7 8d 3d 87 18 0a be
       0.12248717 0.114586204 0.06919803 -0.13485919
000090 e7 07 35 bc dc ad 3c 3c 2a b6 b9 bd 81 28 33 bb
       -0.011049247 0.011516061 -0.09067948 -0.0027337375
0000a0 b0 da ad 3d 91 95 4a 3c 90 a0 75 3d f7 73 1c 3e
       0.08488977 0.012364761 0.059967577 0.15278612
0000b0 5c d8 1d 3e f4 a3 c8 3c 93 96 0d 3b 78 a0 e3 bc
       0.15414566 0.024492241 0.0021604642 -0.027786478
0000c0 e9 1b 1b 3d ce 43 0c 3e 09 6d a7 3d bb a5 a6 3d
       0.037868414 0.1369774 0.08175094 0.08137079
0000d0 6e 06 07 be f8 91 0a 3e 2d e0 8d bc a2 77 19 3d
       -0.13186046 0.13532245 -0.01731881 0.037467606
0000e0 31 e1 01 3e 8f 01 c3 3d c7 58 3a 3d d5 37 16 bc
       0.1268356 0.09521782 0.04549482 -0.009168585
0000f0 17 c7 8a 3b da a9 f9 bd 88 e4 63 3d 62 13 18 be
       0.004235159 -0.121906 0.055637866 -0.14851144
000100 53 67 a5 3d e3 70 f4 bc 8f 8e 23 3d 7e cf 92 bb
       0.08076348 -0.029838985 0.039930876 -0.0044803014
000110 15 49 88 bd ea e6 a5 bd 42 3d b5 bd d5 f9 07 be
       -0.06654564 -0.08100684 -0.088495746 -0.13278897
000120 6c 1b 9d bd 41 81 6c 3d f5 34 4c 3d 2e 42 de 3c
       -0.07671246 0.057740454 0.04985519 0.027131166
000130 af e0 29 3e cd 95 dd 3c ab de a7 3c 29 27 15 3e
       0.16589616 0.02704897 0.020491919 0.1456572
000140 96 85 5a 3e 7e ca 28 3c 72 5c b7 bd b6 e8 f7 3d
       0.21340021 0.010302184 -0.089531794 0.12104933
000150 dc b9 06 3d 37 b5 4f 3d 94 f6 0e bd b4 87 0c 3e
       0.032892093 0.05070993 -0.034903124 0.13723642
000160 c2 0f 77 3c cb ab c7 bd ed 9a ce ba 91 5a 00 3e
       0.015079441 -0.09749564 -0.0015762724 0.12534548
000170 d6 fa b6 bc a5 67 0b be 27 98 df 3b 9a 96 74 bd
       -0.022336405 -0.13613756 0.006823558 -0.059713937
000180 6b da 6d 3d 44 14 fe 3b 18 b6 48 be 15 66 35 be
       0.058069628 0.0077538807 -0.19600713 -0.17714722
000190 8c 74 2f 3d 4a ec aa bd 08 41 01 be 34 f8 05 be
       0.042835757 -0.0834585 -0.12622464 -0.13082963
0001a0 bf 6f 1d 3e eb 8b 15 3e 3b 32 02 3e 88 bf a2 3d
       0.15374659 0.14604156 0.12714474 0.07946688
0001b0 c2 b6 6a bd d7 76 e7 3d 70 73 e6 3d d3 b2 36 be
       -0.057303198 0.11301964 0.11252487 -0.17841654
0001c0 02 21 11 3e 91 80 1a be 98 e4 ba bd 03 36 9b 3c
       0.14172748 -0.15088107 -0.09125632 0.018946653
0001d0 c3 57 88 bd d6 62 36 3d d4 5e 04 3e 41 c8 ad 3c
       -0.06657364 0.04452785 0.12926799 0.021213653
0001e0 33 75 ea bd 39 9f 08 be 54 fe c6 3c b0 aa 2e 3e
       -0.11448135 -0.13341989 0.024291195 0.170573
0001f0 80 26 35 3d 1a d1 f5 bd f0 68 21 be bc dd ca bd
       0.04422617 -0.120027736 -0.15762687 -0.09905574
000200 1f a2 b1 3d 59 2a 04 be b6 5a 11 3e 83 0c 30 be
       0.086735 -0.1290678 0.1419476 -0.17192273
000210 92 77 9f 3c 34 bc 00 3e 0f 76 02 3e ed 30 23 be
       0.019466195 0.12571794 0.12740348 -0.15936632
000220 cc 55 c0 bb af 6a 1b 3e e8 5a 3a be 6e 85 0e bd
       -0.005869603 0.15177415 -0.1819874 -0.034795217
000230 be b8 c8 bd 61 4b c5 bd 5a ec 16 3e 87 4f de 3d
       -0.09800862 -0.09633518 0.14738598 0.108550124
000240 f4 0b 36 be 30 37 1e 3e 7e 45 00 3e d7 7e 0f 3d
       -0.17777997 0.1545074 0.12526509 0.035033073
000250 88 3a d1 bd 25 bb a2 3d a5 41 f7 3d 48 18 59 3e
       -0.10216242 0.07945851 0.120730676 0.21200669
000260 22 6f 10 3c 75 90 2b 3d f0 30 dc bd e2 1a 89 3c
       0.008815559 0.04188581 -0.107515216 0.016736452
000270 05 db 0e 3d b9 42 1f be 40 43 bd 3d 71 5b d7 3c
       0.034876842 -0.15552796 0.092413425 0.02628872
000280 b4 dc 86 3d f8 fc 36 bd 59 9c cc bd 65 33 52 bd
       0.065850645 -0.044674844 -0.099907584 -0.051318545
000290 2d 5f c3 bd 32 d9 e6 3d e7 81 05 3c 89 51 b5 3c
       -0.09539638 0.112718955 0.008148647 0.022133606
0002a0 b3 d3 f4 3d e3 1f 6a 3d d7 7a 29 bd 8d 5e 05 3d
       0.11954441 0.057159316 -0.041376915 0.032560874
0002b0 43 c0 3d 3d 1b 37 24 3d b3 05 f3 bd 62 e7 0e bc
       0.046325933 0.040091615 -0.118663214 -0.008722158
0002c0 61 57 aa 3d 36 5c f0 bc ac 40 1d be 90 12 98 bd
       0.083174475 -0.029340845 -0.15356702 -0.074254155
0002d0 5f cb f6 3d b7 ba 07 be 3a e0 5d 3d 81 b6 97 3c
       0.12050509 -0.1325482 0.054168917 0.018519642
0002e0 87 07 42 3d b3 02 f8 bd dc d9 05 3e 28 75 1f be
       0.04737046 -0.1210989 0.13071388 -0.15572035
0002f0 b5 6e 14 be 72 62 9d 3d bb f3 b4 bd 72 50 22 3e
       -0.14495356 0.076847926 -0.088355504 0.15851
000300 01 dd 2e be 74 a2 b9 bd e0 8e 9c 3d 75 21 0a be
       -0.17076494 -0.090641886 0.07644439 -0.13489325
000310 b2 ab 20 be cd 35 eb bd af 2e 2a be 2d 58 d2 3c
       -0.15690497 -0.11484871 -0.16619371 0.025676811
000320 91 e4 21 3e 55 be bd bd e9 de fc 3d 14 b8 84 bd
       0.15809847 -0.092648186 0.12347204 -0.064804226
000330 45 06 05 3e b9 31 32 bd 19 36 8d 3d c4 3f c1 3d
       0.12990673 -0.04350445 0.06895084 0.094359905
000340 15 52 76 bd db 62 1d bd 6f b7 22 be 4a 39 24 be
       -0.060136873 -0.038424354 -0.15890287 -0.16037479
000350 c8 d2 d7 bd 3d 6b fd bd 51 ae ef 3d 1e ef 8a bd
       -0.1053825 -0.1237397 0.1170317 -0.06783889
000360 d0 bf b2 bc f7 94 0e be 2d 71 a8 bd 2b 42 c2 3d
       -0.021819979 -0.13924013 -0.082247116 0.09485277
000370 c9 e5 d7 bd 9f 32 54 3b 28 ee 08 be 2d 00 e0 bd
       -0.10541875 0.0032378805 -0.133721 -0.109375335
000380 4e 55 03 3e c0 e6 08 be 63 da 1a 3d 38 8e dc 3d
       0.1282551 -0.13369274 0.037805926 0.107693136
000390 e8 39 d8 bc 3c 9d 0d be 04 5c ad bd fb b3 e6 3d
       -0.0263948 -0.13829511 -0.08464816 0.11264797
0003a0 58 61 18 3e db 51 19 bc 0f 02 d6 3d 6a cc 7a bc
       0.14880884 -0.009357895 0.104496114 -0.015307525
0003b0 91 62 81 bd e1 ce 0a be ca 62 4b bd 09 34 09 bc
       -0.06317628 -0.1355548 -0.04965476 -0.008374223
0003c0 61 eb 1a 3e a0 c2 c5 bc 73 04 1a bc ec d3 0a 3e
       0.15128852 -0.024140656 -0.009400475 0.13557404
0003d0 4a 4a ee bd 29 60 f6 bc 78 90 ef bd 45 d7 04 be
       -0.11635263 -0.03007515 -0.11697477 -0.12972744
0003e0 28 d3 c6 bd 5f 84 e3 bd f7 91 fa 3d 38 2f c7 bd
       -0.097082436 -0.11109232 0.12234872 -0.09725803
0003f0 53 5c 88 3c 29 7e 13 3e c1 2a 2c bd 45 ba b4 bc
       0.016645586 0.14403595 -0.04203296 -0.022061476

encoder.encBlocks.1.conv1.bias f4 [8]
000000 ee a3 ef bd fc 9c d0 bb 3d ff d3 3c e6 9d 7d 3d
       -0.11701189 -0.0063663702 0.025878543 0.06191816
000010 d8 1a 37 3d 32 08 84 bc 42 f0 3d bd 45 85 c8 3d
       0.044703335 -0.01611719 -0.046371706 0.09791044

encoder.encBlocks.1.conv2.weight f4 [8, 8, 3, 3]
000000 0c de 52 bc e1 71 46 bc 6c c8 d9 3d eb 81 9e 3d
       -0.012870323 -0.012112112 0.106339306 0.07739624
000010 e7 49 77 bd cf 87 a2 bd 44 f0 d1 3d 1c 80 e6 3d
       -0.060373213 -0.0793606 0.10250905 0.11254904
000020 c2 85 07 3e f0 51 aa 3d da 5c d3 3d 44 62 a9 3d
       0.13234618 0.083164096 0.103204444 0.08270696
000030 9b f9 22 bd 07 d4 ca bd 92 8c 75 bd f7 a2 34 bd
       -0.039788824 -0.09903722 -0.05994851 -0.044100728
000040 17 74 4b bd 69 77 be bd 33 ed b2 3d 5d 9e 05 bc
       -0.04967126 -0.093001194 0.087366484 -0.0081554325
000050 45 fe 35 bc 35 08 07 3c 8f f6 18 bc c9 4e 00 3e
       -0.011107986 0.008241703 -0.009336128 0.12530054
000060 ec df e6 bc 8d 56 c8 bb 34 56 4d 3d 73 b6 b1 3d
       -0.028182946 -0.0061138333 0.050131038 0.086773776
000070 1b ae f4 3d b8 1b ef bb ea 3d f0 3d ea 8c 50 bc
       0.119472705 -0.0072970055 0.11730559 -0.012728909
000080 3b 8b e9 3d 75 28 92 3d d1 a0 92 3c 47 62 9c 3d
       0.11403509 0.07136623 0.017898949 0.076359324
000090 2a 67 e8 bb 01 78 08 bd 50 d0 48 bd 9d 8b f2 bc
       -0.0070923762 -0.03331757 -0.049026787 -0.029607588
0000a0 8e ed c6 bd cd 05 a8 3d b0 42 c1 3d 4a 0c eb 3d
       -0.09713279 0.082042314 0.09436548 0.11476953
0000b0 89 88 20 3d ae 68 90 bd c4 fe a2 bd 1a 02 d2 3d
       0.03919271 -0.07051216 -0.07958749 0.10254307
0000c0 aa af 29 bd d7 2d b7 bd d0 3b 71 3d 74 98 ba 3d
       -0.041427292 -0.0894429 0.058894932 0.091111094
0000d0 1c 6c 9f 3d a8 fb dd bd d7 74 13 3d e6 e9 03 3c
       0.07784292 -0.10839015 0.0360001 0.008051371
0000e0 40 6e 7d 3d c0 d8 83 bd 6d c5 34 3d d9 af ac 3c
       0.06187272 -0.06437826 0.044133592 0.021079944
0000f0 ab 8a ad bd 18 3b 0d bd 17 52 90 3c 53 cb ea bc
       -0.084737144 -0.034480184 0.017617268 -0.028661406
000100 eb f2 d0 bc 73 fc 66 3d 51 3b 9e bd c7 1d bb bd
       -0.025506457 0.056393098 -0.077261575 -0.09136539
000110 80 12 7a 3d 31 3a b8 bd 7e 80 e0 3d db ac c2 bd
       0.0610528 -0.08995474 0.10962008 -0.09505626
000120 dc 57 2b 3d a2 32 b1 bd ac 82 f9 bd 69 dc d2 bd
       0.041831836 -0.086522356 -0.12183127 -0.10295946
000130 34 30 82 3c 5d d8 ee 3c 58 63 36 3e 08 00 1f 3e
       0.015892126 0.029155904 0.17811334 0.15527356
000140 c2 6b 84 3d 62 51 4e bc d9 2d 8e 3d ea 3e 05 3d
       0.06465866 -0.012592645 0.069423385 0.032530703
000150 1c fe 1d 3d ff 6d ac bd 8b f4 81 3c 0e f1 a4 bd
       0.038572416 -0.084194176 0.015863677 -0.0805379
000160 ac 33 ce 3d 03 46 fa 3d 76 d4 8c bc 0e d5 3f bd
       0.100684494 0.12220385 -0.017191153 -0.046834044
000170 3b c1 e2 bd a4 22 18 bd f1 e1 ca bd fd 09 4e bc
       -0.11072012 -0.03714241 -0.09906376 -0.012575624
000180 73 e2 00 3e f4 d0 28 3d c8 c5 e3 3d 49 5c 37 bd
       0.12586384 0.0412149 0.11121708 -0.044765744
000190 95 50 5d bc 2b ae 1c bd 98 a2 b5 bd 63 fb 93 bc
       -0.013507982 -0.038252037 -0.08868903 -0.018064206
0001a0 c2 83 59 3d 15 35 b0 3d 58 bf 39 3d bc 17 bb bc
       0.05310417 0.086038746 0.045348495 -0.022838466
0001b0 7f 2d 05 3d 6c 03 25 bd 29 76 d0 b9 55 f9 85 3b
       0.03251409 -0.040286466 -0.00039760888 0.0040885606
0001c0 0f 18 88 bb cc bd f8 3d 8d 5d 05 3e 7e 62 45 bc
       -0.0041532586 0.12145576 0.13023968 -0.012047408
0001d0 dc 9a 88 3d 61 53 91 bd af 3d 7d bd 52 4b 94 3c
       0.06670162 -0.070959814 -0.061826404 0.018102322
0001e0 a6 4b 8b 3d ec ce eb 3d 14 df 87 3d a1 e5 41 bd
       0.06801538 0.115140766 0.06634346 -0.04733813
0001f0 4f 90 dc bd 7a 8e cd bd ee c9 e1 bd 36 b0 70 bd
       -0.10769712 -0.10036941 -0.11024843 -0.058761798
000200 f3 55 0d bd b4 7d 08 3d 3d 6d a7 bc d1 4e 1e bd
       -0.034505796 0.033323005 -0.020437831 -0.038649384
000210 c4 d7 98 3d 28 80 14 3c dd 43 c6 3c d4 db b6 3d
       0.07463029 0.009063758 0.024202282 0.08928648
000220 a2 ff d9 39 a6 44 62 bd 62 54 6c bd b3 06 c6 3d
       0.00041579927 -0.05524125 -0.05769766 0.096692465
000230 ce 23 a1 bc 5a 89 9d 3d 61 ed b5 bc c6 e5 8a bd
       -0.019670393 0.07692213 -0.022207918 -0.06782107
000240 ae da bc 3d bc 6b 41 3d 9e 1e 9e 3d c6 79 ec bc
       0.09221397 0.047221884 0.077206835 -0.02886666
000250 7b 76 98 bd 1d a8 5f 3d ab ea 17 bd 50 45 bb bb
       -0.07444473 0.054603685 -0.03708903 -0.00571505
000260 86 a1 ba 3c d2 ea 66 3d c2 f0 9b 3d 22 c6 d1 3a
       0.022782099 0.056376286 0.0761428 0.0016004483
000270 14 93 e0 bd 85 42 ed bd 4c bc 91 3c 56 06 20 3c
       -0.10965553 -0.11584953 0.017789982 0.009767136
000280 12 ef 94 3d 03 44 be 3c 25 d5 8c 3c c1 e1 80 bd
       0.072721615 0.02322579 0.017191479 -0.06293059
000290 f9 88 48 bd 4a c8 98 3d 9d aa 08 3c fe 4e 42 bd
       -0.048958752 0.07460077 0.008341459 -0.047438614
0002a0 22 eb c4 bd 4c 13 bd bd 19 a4 e2 bd ed 08 62 bd
       -0.096151605 -0.09232196 -0.110664554 -0.055184294
0002b0 8d d5 76 bc ad a0 1f bd 06 72 01 bd 9b 71 e8 bd
       -0.015065563 -0.03897159 -0.03160288 -0.113497935
0002c0 90 24 97 3d ec be 0d 3d db 14 eb 3c 75 00 c6 bd
       0.073800206 0.034605905 0.028696468 -0.09668056
0002d0 18 78 c8 3c 88 88 54 bd 11 36 ce bd 9c da 1f bd
       0.024471328 -0.05188802 -0.10068906 -0.03902684
0002e0 bf 42 06 3c 11 a1 c9 3d c2 ca f0 bd 76 62 15 3d
       0.008194624 0.09845174 -0.11757423 0.036470853
0002f0 62 49 93 bd a1 22 1c bd a1 6b dd bd 4e e8 9f bd
       -0.07191731 -0.038118962 -0.10811544 -0.078079805
000300 db ea d4 bd 7e ef a1 bd 85 e6 1e bd 97 fb 00 3b
       -0.103963576 -0.07907008 -0.03879406 0.001968121
000310 0e 73 df bd 97 03 02 bc 2e ae ba bd d0 2f 33 bd
       -0.10910617 -0.007935426 -0.091152534 -0.04374677
000320 c9 d5 a2 3d f8 d2 31 bd 43 09 1c 3d 55 7a db 3d
       0.079509325 -0.043414086 0.03809477 0.10716692
000330 d8 d8 ab 3d 87 cd a6 bd 74 ac 3c bd 4a e7 55 bd
       0.08390969 -0.0814467 -0.0460629 -0.052222528
000340 08 d2 73 3d c9 07 45 3d 8d 2d a5 3d be eb 13 3d
       0.059526473 0.048103128 0.08065329 0.036113493
000350 70 a9 af bd 45 2d cd 3c b3 04 e1 bc 7c 28 92 3d
       -0.085772395 0.025046 -0.027468061 0.07136628
000360 ae 52 61 3d 63 8a 3f bd c6 f9 02 be ff 28 24 3d
       0.05501049 -0.046762835 -0.12790594 0.04007816
000370 f2 a2 75 3d 58 de f1 bd a6 57 be bd de f8 d4 bd
       0.05996985 -0.11809987 -0.09294061 -0.1039903
000380 52 21 17 3d bb 73 e3 bd 1f c6 c3 bd da 78 5f 3d
       0.03689701 -0.11106058 -0.09559273 0.054558612
000390 63 20 aa 3d 53 ac a6 bd f4 38 b1 3b 75 81 03 3d
       0.083069585 -0.08138337 0.0054084007 0.03210588
0003a0 e0 84 f9 bd 83 1d 96 bd 40 30 d6 bd 8b 60 ea bd
       -0.12183547 -0.07329848 -0.10458422 -0.11444195
0003b0 ae ec 45 bc 0d b9 49 bc 7f 4c be bd a0 98 31 3d
       -0.012080355 -0.012312186 -0.09291934 0.043358445
0003c0 34 50 ed 3c a7 30 bb bd 95 e3 63 3c ac f6 17 bd
       0.028968908 -0.09140139 0.01390924 -0.03710048
0003d0 19 c2 9f 3d 16 47 06 bd 1b 65 cb 3d dc 03 8c 3d
       0.07800693 -0.032782637 0.09931394 0.068366736
0003e0 6a d6 69 bd 36 84 e0 3d e6 2e b0 3d 35 7e e3 bb
       -0.057089247 0.10962717 0.08602695 -0.0069425353
0003f0 41 5d 92 3d 57 e2 d2 3d bf fa ea bd 6f e5 88 3d
       0.07146693 0.10297077 -0.11473607 0.06684386

encoder.encBlocks.1.conv2.bias f4 [8]
000000 5a 4c 54 3d 6c c9 bb bc f2 46 db 3c ae dd 6c 3d
       0.051830627 -0.022923194 0.026767228 0.057828598
000010 ff 93 e1 3d c0 d8 76 bd 20 dc b1 bd 15 eb 3b 3d
       0.11014556 -0.060265303 -0.08684564 0.04587849

encoder.encBlocks.2.conv1.weight f4 [16, 8, 3, 3]
000000 59 fa 9e bc 83 d6 e6 bd b4 7b fb ba 47 fc 97 bd
       -0.019406484 -0.112713836 -0.0019186647 -0.07421165
000010 2e b8 b6 3d 74 6d 51 bd 3f 44 23 ba b8 89 06 3c
       0.08921848 -0.051129773 -0.0006228126 0.008211546
000020 55 32 18 3d f4 42 85 bd c0 47 b0 3c ea 66 30 3d
       0.037157375 -0.06506911 0.021518588 0.043066896
000030 ec bc 84 bd 6b 45 f3 3c 48 e8 19 3c f3 f4 3b 3d
       -0.064813465 0.029696187 0.009393759 0.0458879
000040 75 69 f6 3d 12 10 24 bd 9a 18 d6 3d 04 44 3d 3d
       0.12031833 -0.04005439 0.10453911 0.046207443
000050 f7 23 b8 3d 05 9d e0 bc 1c 6d dc 3d 6d 0a 64 bd
       0.08991235 -0.027418623 0.107629985 -0.055674005
000060 52 50 22 bd b4 27 af bd 4a c8 fc 3b dc 79 a4 bd
       -0.03962738 -0.08552495 0.007714306 -0.08031055
000070 af 49 98 bd 5b 19 21 bc 76 81 85 bd a0 e6 e5 bd
       -0.07435929 -0.009832705 -0.06518833 -0.11225629
000080 93 48 dd bd 73 20 ef bd c0 b2 d5 bd 94 f4 c2 bd
       -0.10804858 -0.11676111 -0.104344845 -0.09519306
000090 d1 35 19 3d ad 68 bf bd 47 34 20 3d bc 55 54 3d
       0.03740484 -0.09346137 0.039112356 0.051839575
0000a0 77 13 b9 bd 75 20 6e bc 35 cf 4d 3d e8 75 1f bd
       -0.09036916 -0.014534106 0.050246436 -0.038930804
0000b0 47 64 78 3d cf 16 e1 bd 34 64 a9 3d a0 37 c3 bd
       0.060642507 -0.109906785 0.08271065 -0.09532094
0000c0 b3 86 8f bc 76 0d 01 3d a5 e0 89 bd 14 2e 25 3d
       -0.017520284 0.031506978 -0.06732301 0.040327147
0000d0 8d af 77 bd 64 a2 39 bc cf 59 24 3d d5 af d0 3d
       -0.060470153 -0.011330221 0.04012471 0.10189787
0000e0 d0 18 86 3c 40 9a b9 3c b7 b8 28 3d f8 48 dd bd
       0.016369253 0.02265656 0.041191783 -0.10804933
0000f0 1a e0 c1 3d 68 02 b6 3d 8e 90 9c bd 01 27 86 bc
       0.09466572 0.08887178 -0.07644759 -0.01637602
000100 e6 22 b7 3c d4 4f d0 bd ac b7 fa bc 0d dc ed bd
       0.022355508 -0.10171476 -0.03060516 -0.11614237
000110 30 52 8f 3d 1f 38 82 bd 93 e8 0f bd e9 51 c6 3d
       0.06998098 -0.063583605 -0.03513391 0.09683592
000120 3a 74 96 bd 83 07 46 3d c7 77 ef 3b 63 18 53 bd
       -0.07346387 0.048347007 0.0073079797 -0.05153693
000130 da 99 65 bd 20 9e bb bd b1 e5 ec 3d 9e e6 90 3d
       -0.056054927 -0.09161019 0.11567248 0.07075237
000140 10 15 da bd 31 7b 9c bd f7 e4 a5 3d f8 57 a7 bd
       -0.106485486 -0.076406844 0.08100312 -0.081710756
000150 bb 80 cc 3c df f0 e0 3c 69 19 c4 bd fb 6e 2c bd
       0.024963727 0.027458606 -0.09575159 -0.042098027
000160 b4 09 b9 3d bf 35 01 bd 73 5c 59 bb 2b cd e1 bc
       0.09035054 -0.031545397 -0.0033166676 -0.027563652
000170 1e 16 9b bd 7f 93 24 bd fe 18 88 bb 52 43 30 bd
       -0.07572578 -0.040179726 -0.00415337 -0.04303295
000180 8c fa 4a 3d bf ba 9f bd 56 da 5d 3d 53 90 38 bd
       0.049555346 -0.07799291 0.0541633 -0.045059513
000190 1f 0d ac 3d 2d ac 3b 3d 76 b0 c1 bc 89 a5 81 3d
       0.0840094 0.045818496 -0.023643713 0.063304015
0001a0 2b 3a 87 3a b1 31 9a 3d 51 28 9e 3a bd 68 3f 3d
       0.0010317018 0.07529009 0.0012066459 0.046730746
0001b0 af 4e 95 3d 82 69 9a bd 07 2d 66 3c c6 0a 75 bd
       0.07290398 -0.07539655 0.014048821 -0.059824727
0001c0 c5 a7 7a bc 01 97 e1 bd d1 a7 7e 3d 55 71 b9 3d
       -0.015298788 -0.1101513 0.06217176 0.090548195
0001d0 57 79 ce 3c e0 13 11 bd 91 50 89 3d 03 a4 aa bc
       0.025204344 -0.035419345 0.0670482 -0.02083016
0001e0 f3 83 a5 3d ec e7 c7 3d fc a5 c3 3d c4 92 4e bd
       0.08081808 0.097610325 0.095531434 -0.050432935
0001f0 da cf 95 bc af 72 ca bc f5 17 71 3d 9f 8a 4f bd
       -0.018287588 -0.024712889 0.058860738 -0.05066931
000200 5e da b4 3a ef 90 d3 3d 37 1b de 3d d6 c7 e6 3c
       0.0013797989 0.10330378 0.108450346 0.028171461
000210 27 d3 b6 3d fa a1 bc 3d 9b 5f 07 3d 15 98 cc 3d
       0.08926993 0.09210582 0.03305016 0.09989945
000220 64 c4 d0 bd f8 db b5 b9 32 a0 b1 bc a8 a2 8f bd
       -0.101937085 -0.000346869 -0.021682832 -0.07013446
000230 e4 8e e8 bd ba ba d9 bc 21 cd 86 3c c6 6c 9e 3d
       -0.11355379 -0.026578296 0.016455235 0.07735591
000240 58 02 01 3c 8b 4a 2d 3d 5b cc b3 3d 64 22 11 bd
       0.007874094 0.042307418 0.08779212 -0.035433188
000250 a8 05 c5 b9 79 9e c7 bd 19 be d6 bd 9e d4 26 bd
       -0.00037578982 -0.09747023 -0.10485477 -0.04073011
000260 95 e2 e6 bd ff 5a ce 3c 42 9b e4 ba 21 51 e4 3d
       -0.11273686 0.025189875 -0.001744129 0.111482866
000270 ec 1a 5c 3d 51 be 2d bd d6 1e cf bd 8b 9f 0e bc
       0.053736612 -0.042417828 -0.10113303 -0.00870503
000280 98 a0 8a 3d b0 29 c8 3d 44 c0 9f 3c 0a 98 ad bd
       0.06768912 0.09773576 0.01950086 -0.08476265
000290 83 7a e9 3d a0 85 a5 bd eb ab ba 3d 07 56 bc 3c
       0.114003204 -0.080821276 0.09114822 0.02299024
0002a0 ee dd bc 3d ed d9 ba 3c 46 ad e3 bd 93 a3 55 bd
       0.09222017 0.022808993 -0.11117034 -0.05215795
0002b0 49 3e 20 bd dc 9b 8a bd 4b 0b 9e bd af 6d 9e 3c
       -0.0391219 -0.06768009 -0.07716998 0.01933941
0002c0 5c 46 92 bc 60 f2 18 3d aa 27 d0 bd 83 65 b0 3d
       -0.017855816 0.03734052 -0.10163815 0.08613112
0002d0 d4 9d 72 bd 99 97 ac 3d fe f4 c6 3d 1c 75 3e bc
       -0.059232548 0.084273525 0.09714697 -0.011624601
0002e0 3c af 99 3d 35 75 7d bc 96 49 46 bc d3 55 a1 bd
       0.075041264 -0.015469839 -0.012102505 -0.07877698
0002f0 2c 7d e2 3d 98 64 84 3d a3 c2 28 3b df 06 b4 3d
       0.11059031 0.06464499 0.0025750778 0.08790373
000300 b1 d7 01 bd d2 0a c4 bc 15 88 11 bc 8d 39 ee bd
       -0.03169984 -0.02393094 -0.008882542 -0.11632071
000310 e5 32 9e bb d6 07 0b 3d 25 c3 9d 3d 09 75 d7 bc
       -0.0048278444 0.03394302 0.077032365 -0.026300924
000320 cf dc 0b bd f6 a0 93 3d 4e 5e d4 3d 9e 48 48 bd
       -0.034146126 0.07208435 0.1036955 -0.04889738
000330 25 ec 5e bd 41 9e 11 bd 4c 5c 98 3c 1b ee 60 3d
       -0.054424424 -0.035551313 0.018598698 0.054914575
000340 74 ed 34 bd 2e 85 e2 bd 38 ef 9f bd ec c5 93 bd
       -0.044171765 -0.11060558 -0.07809299 -0.07215485
000350 26 ad 9e bd aa 7a a7 bc 62 8c 99 bd d6 49 c3 bc
       -0.07747869 -0.020444233 -0.07497479 -0.023838919
000360 ea 11 38 3c bf 4a b4 3d 89 0d 69 bd 79 58 e2 bd
       0.01123474 0.08803319 -0.056897674 -0.11052031
000370 71 1f 2a bd 3e fb 1f bd df 67 75 3d 62 9c b6 3c
       -0.04153389 -0.039057963 0.059913512 0.022291366
000380 a1 f9 37 bd a5 a3 34 bd e4 31 e7 bd c5 9a 7a 3d
       -0.0449158 -0.044101376 -0.11288813 0.061182756
000390 f8 d7 b8 bd da 12 e4 bd b2 07 80 bb 16 8d 6f bd
       -0.09025568 -0.11136408 -0.0039071674 -0.05848416
0003a0 0b b4 a6 bd 1f 80 76 3d cc dc 6a 3b af fd 77 3d
       -0.08139809 0.06018078 0.0035837172 0.060544666
0003b0 96 0c 10 3d c5 3b b8 bd 33 25 d3 3d d4 ab 62 3d
       0.035168253 -0.08995775 0.103098296 0.05533965
0003c0 91 0f 44 bc 32 8a e6 3d 59 e0 82 3d 22 fc 6c 3d
       -0.011966602 0.112568274 0.06390447 0.05785764
0003d0 20 db 85 bd 5f e4 b6 3c f0 d2 65 bd 6c 03 e2 bd
       -0.065359354 0.022325693 -0.05610937 -0.11035809
0003e0 43 d1 10 3c 07 83 d0 3d 8d ee c3 3d c4 ef 82 bd
       0.008838954 0.101812415 0.09566984 -0.06393388
0003f0 52 bf d9 bd ec 03 ce bd 8e 78 9a bc 09 1f f1 3b
       -0.106321946 -0.10059342 -0.018856313 0.007358436

encoder.encBlocks.2.conv1.bias f4 [16]
000000 eb 0d ae 3d 8b 89 ac 3c d4 33 ef 3d 02 ac 3a bd
       0.084987484 0.02106168 0.11679807 -0.045574196
000010 53 c8 5b 3d 0c 70 86 bd bb 38 ba bd ef f7 97 bc
       0.05365784 -0.0656434 -0.09092852 -0.018550841
000020 c2 e7 9f bd db 18 b7 3d 53 ff e2 3c bd 8c 86 3d
       -0.07807876 0.08940288 0.027709639 0.065698124
000030 27 88 9f 3d 67 d9 5b 3c 46 42 d0 bd 64 19 20 3d
       0.07789641 0.013418532 -0.10168891 0.039086714

encoder.encBlocks.2.conv2.weight f4 [16, 16, 3, 3]
000000 86 a1 a9 bd df 57 37 bd 6b 09 65 3b 92 66 53 bd
       -0.08282761 -0.044761535 0.003494824 -0.05161149
000010 9d 44 70 3d 28 55 07 bc b5 db ce bc c0 e3 c7 bb
       0.058659185 -0.008260049 -0.025251249 -0.006100148
000020 89 93 04 bd 22 57 98 bc 38 c0 28 3d 3e 42 52 bd
       -0.032367263 -0.018596236 0.04119894 -0.051332705
000030 4e 22 0b bd fb f9 74 bd 73 23 59 3d f4 13 8d bd
       -0.033968262 -0.059808712 0.053012323 -0.068885714
000040 1c d7 82 3d fb 74 70 3d 85 74 a9 3d 42 5d b3 bc
       0.06388685 0.05870531 0.082741775 -0.021895055
000050 98 20 bb bc 82 cf 3d bd c8 d1 22 bd cf de 8b bc
       -0.02284269 -0.046340473 -0.039750844 -0.017074017
000060 fb 9d 72 bd ce bf f4 3c 6a fc b8 3c 15 0d 84 bd
       -0.059232693 0.029876616 0.022581298 -0.06447808
000070 13 27 89 3d f6 ed 17 3d 19 4e 6c bd ef 60 9e 3d
       0.06696906 0.03709217 -0.057691667 0.07733332
000080 d6 9d 90 3d f5 df a5 3d c4 f6 3d bd 41 28 83 3d
       0.07061355 0.08099357 -0.046377912 0.06404162
000090 d2 98 d0 bc 0b d1 0a bd 5d e8 59 bc 5a 2a f0 3c
       -0.025463495 -0.033890765 -0.013300029 0.02931707
0000a0 68 0c a3 3d a6 83 96 bd 3f 0e 2c 3d 8c d7 25 bd
       0.07961351 -0.07349329 0.042005774 -0.040488765
0000b0 35 ce 8a bd d5 47 a3 bd 67 98 84 bd 45 2f e3 3b
       -0.06777612 -0.07972685 -0.06474381 0.006933125
0000c0 9e 64 f8 3c 57 a6 ee bc 9b 9d 03 bd d8 27 82 bd
       0.030321416 -0.029132051 -0.032132726 -0.06355256
0000d0 b3 b3 46 bc 58 93 00 ba 24 9c 2d bd bf 08 6a bc
       -0.012127805 -0.00049047684 -0.042385235 -0.014284312
0000e0 29 c4 61 3c 73 7a 87 bd 52 d1 38 3d da e2 aa bd
       0.013779678 -0.06615152 0.0451215 -0.0834405
0000f0 80 a5 74 3d da 6a a3 bd 97 0b 62 bd c7 3c a9 3c
       0.059728146 -0.07979365 -0.055186834 0.020658864
000100 8e 41 85 3c ca ab 01 bd 43 9b 6d 3d ca b6 2f bd
       0.01626661 -0.03165797 0.058009397 -0.04289893
000110 4b f0 84 3d 4c 35 9d 3d 54 29 20 3c 90 25 81 bd
       0.06491145 0.07676181 0.009775478 -0.063059926
000120 c8 65 0d bd c3 43 38 bc 66 3d 4b 3d 2f f6 d2 3c
       -0.034520894 -0.011246624 0.0496191 0.025752155
000130 04 25 06 3d 30 fe 9a bd ee 10 2b 3c be 97 9a bd
       0.032750145 -0.07568014 0.010441048 -0.07548474
000140 f5 99 37 3d d6 51 24 bd cd 03 a1 bc 1b 0b 92 3d
       0.04482456 -0.040117107 -0.019655133 0.071310245
000150 47 0f 6b 3c 70 5d 83 3c 2d 5a 71 3d 31 2b aa bc
       0.014346904 0.016035765 0.05892389 -0.020772548
000160 b9 09 8c bd f3 50 fe bc c8 06 9b 3d 31 0b 9b bd
       -0.06837792 -0.031044459 0.07569653 -0.07570494
000170 5c 51 30 3d e2 d3 91 3d 60 57 4e bd 07 4d 6a 3c
       0.04304634 0.071204916 -0.050376296 0.014300591
000180 9a 8f 01 3d 28 3b 91 3d 33 5b 39 3d ba eb a2 bc
       0.03163109 0.07091361 0.04525299 -0.019887794
000190 77 f3 1f bd b5 ee 72 bc 09 2f 1e bd c5 23 61 3c
       -0.039050546 -0.01482742 -0.038619075 0.013741438
0001a0 0f aa b3 bd e0 b5 79 3c d0 9e e4 bc 48 a3 8e bd
       -0.087726705 0.015241116 -0.027907759 -0.06964737
0001b0 9e 1f 3f bc 31 81 cd bc 83 84 cb 3b b3 7a 16 bd
       -0.011665253 -0.025086017 0.006210865 -0.03673811
0001c0 14 f1 88 bd fb 79 5f 3d a0 2b e6 bc 2b 0f 5f 3c
       -0.06686607 0.05455969 -0.028096974 0.013614456
0001d0 92 6a cb bd d4 60 87 bd f9 49 d8 bb 3f fc 8e bd
       -0.09932436 -0.066102654 -0.006600615 -0.06981706
0001e0 eb ae 79 bd 62 df a4 b9 ad 00 63 bb 52 49 23 bd
       -0.06095783 -0.0003144695 -0.0034637854 -0.039864846
0001f0 d5 6f a2 bd f8 c6 22 bc 8e 00 61 bd fc db 8a bd
       -0.079314865 -0.009935133 -0.05493217 -0.0678024
000200 34 3c 79 bd 18 74 3b 3d 09 a7 a2 bd 6d c6 05 3d
       -0.06084843 0.045765013 -0.07942016 0.032659937
000210 83 04 65 3c f1 19 bc bc 12 75 61 bd 50 eb fb bc
       0.013978126 -0.022961589 -0.055043288 -0.030751854
000220 f8 3a 5d 3d 9a ec 83 3d 65 80 99 bc 64 b5 8d bd
       0.054011315 0.064416125 -0.018737981 -0.06919363
000230 1b c6 74 bb 91 1d 9b 3b 4b a8 74 3d e3 0b b0 bc
       -0.0037349525 0.004733749 0.05973081 -0.021490043
000240 94 db 83 3d 89 81 91 bd 3b 1f 9a 3c 6a 25 a0 3c
       0.064383656 -0.07104785 0.01881372 0.01954909
000250 99 ce a5 bc 0e de ca bc 5a 0c 81 bc 47 8c cc bd
       -0.020240115 -0.024764087 -0.01575296 -0.09987693
000260 26 6f 71 bd 63 54 d0 3c 89 a0 92 3d 96 83 32 3d
       -0.05894389 0.025430864 0.07159526 0.04358252
000270 2b 46 32 bd fe 02 7c bd 2b fc a7 bd 37 b0 86 bd
       -0.04352395 -0.06152629 -0.08202394 -0.06576579
000280 20 dc fa 3c dd 5d c5 3c f0 a2 81 bd ac 34 b4 3b
       0.030622542 0.024092609 -0.06329906 0.005499443
000290 a7 3a 1d bd e2 58 39 3d 5e 9c 70 3d 9c bc 3e bd
       -0.038386013 0.04525078 0.058742873 -0.04656659
0002a0 fa a2 49 bc 60 fc 9e bd 24 50 a2 bd 0f cc 8e bd
       -0.012306923 -0.077629805 -0.07925442 -0.06972515
0002b0 5c 18 db 3c 6f 8d 49 bd 27 bb 89 bb 39 09 90 bd
       0.026745014 -0.049207147 -0.0042032185 -0.07033009
0002c0 be 6b 3f bb 9a 63 7f 3c 86 c7 22 3d 51 08 7e bd
       -0.0029208506 0.015587712 0.03974106 -0.06201965
0002d0 9d 39 83 3d 83 87 e6 3b 90 b5 cb 3c b2 ba 33 bd
       0.06407473 0.007035197 0.02486685 -0.04387922
0002e0 df 58 94 bd cd b1 c2 bc d8 85 36 bd 85 7a 8f bd
       -0.07243513 -0.023766423 -0.044561237 -0.070057906
0002f0 20 ea 30 3d 27 d8 9a bd ba c7 9c 3d 8f 0f e4 bc
       0.04319203 -0.07560759 0.07655282 -0.02783945
000300 02 77 cb bc f4 24 81 3d e3 4a 07 3d 1a 7e ca bd
       -0.02483702 0.063058764 0.033030402 -0.09887333
000310 e0 ff c3 3c 26 b4 75 bb 40 cf 52 bd 4a c3 86 bd
       0.023925722 -0.003749141 -0.05146718 -0.06580217
000320 41 1c d1 bc 25 42 78 bd a7 dd 40 bd 6b 78 11 bd
       -0.025526168 -0.060609955 -0.047086384 -0.03551523
000330 b4 e4 9e bd 62 b5 c2 bd 89 cd 4e bc 86 45 a0 bd
       -0.077584654 -0.09507252 -0.012622246 -0.078257605
000340 f8 a8 0e bd 70 e7 2b 3d d2 1f 38 bc fc fe 72 bd
       -0.03482911 0.041968763 -0.011238055 -0.059325203
000350 10 de 92 3d 47 22 ac bd 02 e5 2e 3d 04 ad 2b 3c
       0.07171261 -0.084049754 0.042698868 0.010478262
000360 29 15 f5 bc 38 a5 1c 3d 34 00 ef 3a 07 76 03 bd
       -0.029917317 0.038243502 0.0018234313 -0.03209498
000370 ab 71 5a bd df 26 6f 3d 72 55 06 3d 10 9c 9a bd
       -0.05333106 0.05838668 0.03279633 -0.07549298
000380 d8 fb 13 bd 30 96 aa bc f7 ec 68 3c c6 01 4a 3d
       -0.03612885 -0.020823568 0.014216653 0.049318098
000390 3c 60 11 bd 87 f9 8f 3d 96 07 9e bc 28 75 41 3d
       -0.035492167 0.070300154 -0.019290727 0.04723087
0003a0 18 d7 66 bc 7b 79 47 bd 4a 3c 42 3c 33 a0 0b bd
       -0.014089368 -0.048699837 0.011855194 -0.034088325
0003b0 25 44 6a 3d d6 66 f7 bb ac c5 b2 bc ef f3 74 bd
       0.057193894 -0.007550101 -0.021822773 -0.059802946
0003c0 d7 c5 a8 bd 5d 80 5c 3d 0e 5c 17 bd f7 ad 9b 3d
       -0.0824086 0.053833354 -0.036953025 0.076015405
0003d0 12 8c 13 3d 0d b5 80 3d 17 2e 9e 3d 07 08 55 bc
       0.036022253 0.06284533 0.07723635 -0.013002402
0003e0 56 bd 54 bd 70 6f c0 bd 58 50 0e bd 25 ff c1 bd
       -0.051938377 -0.09396255 -0.03474459 -0.09472493
0003f0 a8 65 02 bd ef 8b 9a 3d b2 b3 e1 3c 84 bd d7 bc
       -0.03183523 0.075462215 0.027551506 -0.026335485

encoder.encBlocks.2.conv2.bias f4 [16]
000000 53 80 42 bb e0 4d 52 bd 44 13 a1 bd d3 46 bc bc
       -0.0029678538 -0.0513438 -0.07865003 -0.02298299
000010 1f 00 a9 3d 2b 00 a8 3d 35 3f 6b bd 6c e9 89 bd
       0.08251976 0.08203157 -0.057433326 -0.06733975
000020 d3 38 7f 3d b3 12 b9 b9 c7 58 a1 3d 73 47 8a 3d
       0.06231005 -0.00035299882 0.07878261 0.06751909
000030 c4 27 b4 bc 67 ac 86 bc 72 a8 08 3d 09 10 62 3d
       -0.021991618 -0.01643963 0.033363767 0.055191074

encoder.encBlocks.3.conv1.weight f4 [32, 16, 3, 3]
000000 54 fb 94 bd 68 e7 2d 3d 7e 50 63 bd af f2 73 3d
       -0.072744995 0.042457014 -0.055496685 0.059557613
000010 3b 04 06 bd 64 ba 76 bd c4 fa 9b bd 56 8d a3 bd
       -0.03271888 -0.06023635 -0.07616189 -0.07985942
000020 f3 69 14 bd 02 da 9c bd 6d 5c a2 3c 20 90 80 3d
       -0.036233854 -0.07658769 0.019819463 0.0627749
000030 2c 2a 73 3d 7c b8 59 bc 92 9a 44 bd 39 ec 97 bd
       0.05936639 -0.013288613 -0.047998972 -0.07418103
000040 14 d7 77 bb 50 25 05 bd 9f af 3c 3d 36 10 97 3d
       -0.0037817406 -0.032506287 0.046065923 0.07376139
000050 dc 1d 00 3d e0 48 9e bc 97 f5 f5 bc 1a 4a 12 3d
       0.031278476 -0.019321859 -0.030024333 0.0357152
000060 30 9d 58 bd 58 ac 8f 3d 38 6c 7e 3d 1a b1 86 bd
       -0.05288428 0.07015294 0.062114924 -0.06576748
000070 9d fa 85 3c 0d 87 09 bc db 8f 61 bd 90 25 f5 bc
       0.016354853 -0.008394015 -0.055068832 -0.029925138
000080 b4 8a 56 3c ea b8 7d bd 4c 4b 46 3d b2 86 75 3d
       0.013094593 -0.061943926 0.048411652 0.05994291
000090 5f a7 f3 3c 51 38 80 bc d9 dd 98 3d 37 ba a3 3d
       0.029742895 -0.015651854 0.07464189 0.07994502
0000a0 b9 db ea 3c bf 33 89 bd 79 58 8d bc e4 61 f5 bc
       0.028669225 -0.06699323 -0.017254101 -0.029953904
0000b0 5b 6e 31 3d 3f 66 26 3d d0 d4 0e bd 67 ef 8a 3d
       0.043318134 0.040624853 -0.034870923 0.067839436
0000c0 77 0f 21 3c dc 7d 50 3d 8c 62 55 bd 3f ca a4 bd
       0.009830347 0.05090128 -0.052095935 -0.08046388
0000d0 1e 42 7a 3d 58 ec a7 bd ad f4 e0 bc ea 6a 65 3d
       0.06109821 -0.08199376 -0.02746042 0.056010164
0000e0 a2 dd 06 bd fa 22 42 3d fb 0f 8d 3d 29 5c 3c 3d
       -0.03292621 0.047396637 0.06887814 0.04598633
0000f0 f8 dc 94 bb b4 f6 93 3d 6d ed ab 3c d4 47 f1 3c
       -0.004542943 0.07224789 0.020987237 0.029453196
000100 7f 76 dc bb 4a 06 45 bd 63 ae 3e bd 8a 60 2f 3d
       -0.006727993 -0.0481017 -0.046553027 0.042816676
000110 e2 ed 07 bc 4d 59 50 bc 11 9c a9 3d 7a 99 95 bc
       -0.008296462 -0.012716603 0.082817204 -0.01826166
000120 48 1e 7a 3d 75 47 71 3d 04 2e 8d 3d 94 de 6f 3d
       0.061064035 0.058906037 0.068935424 0.058561876
000130 01 f5 f8 3c 64 35 97 3d e3 ec ae 3b 9d 28 99 3c
       0.030390264 0.0738323 0.0053382977 0.018696124
000140 2f bd 9e 3c a8 f1 91 3d 6f 4e eb bc 1f 70 59 3d
       0.01937732 0.071261704 -0.028723923 0.053085443
000150 77 01 b5 3c a5 90 7c bd 56 e9 92 bb 6f 47 13 3d
       0.022095425 -0.06166138 -0.004483382 0.035956796
000160 43 32 57 3d 3a 6e 08 3d ff 97 0a bd 5e c0 79 bd
       0.052538168 0.033308245 -0.03383636 -0.06097447
000170 6a 2e 09 3d ad 82 b2 3b 07 e6 90 bb 1e 65 6b bd
       0.03349153 0.0054477067 -0.0044219526 -0.05746948
000180 3e 02 5b 3d 8d eb ef bc 77 0e b3 3b cf 0a 7a bc
       0.053468935 -0.029287124 0.005464371 -0.015261366
000190 e6 6f 0d 3c f6 81 a8 3c 60 6c 42 3d 01 61 63 3d
       0.008632636 0.020569783 0.047466636 0.055512432
0001a0 06 5b 65 bd 16 36 6b 3c 68 f4 2b bc c5 1d 8d bd
       -0.05599501 0.014356157 -0.010495283 -0.06890444
0001b0 cc b6 20 bd 58 1a 73 bb fb ec 1d bd b0 35 79 3a
       -0.03923683 -0.003709456 -0.03855608 0.0009506596
0001c0 ac 6a 0d 3d 49 2a 12 3d c3 c8 29 bd 80 1f 2e 3d
       0.03452556 0.035684858 -0.041451227 0.04251051
0001d0 91 76 a0 bc 59 ad 65 3d 04 4a d3 bc 6c 0b 73 3c
       -0.019587787 0.05607352 -0.02579213 0.014834266
0001e0 b6 dc b3 3a c4 1d a8 bd 53 4e af 3c 73 c0 9b 3d
       0.0013722393 -0.08208802 0.021399653 0.07605066
0001f0 e8 20 82 3d 38 94 38 bd 8f ec 4c bd b4 9d 8a bd
       0.063539326 -0.045063227 -0.050030287 -0.06768361
000200 87 ff a0 3d 80 36 5b 3c 6a e1 43 bd 03 d1 9c bd
       0.07861238 0.013379693 -0.047822393 -0.07657053
000210 d2 fb 2c bd a1 1e be 3c 57 22 98 3d 6d 61 91 3d
       -0.042232342 0.023207964 0.07428425 0.070986606
000220 de 7c 71 3d d0 76 6b bd a4 53 67 3c 01 ca 05 3d
       0.058956973 -0.057486355 0.014119063 0.03266335
000230 85 fd 76 3c 9c 91 af bc bc 72 13 3d 7c c5 85 bd
       0.015075092 -0.021431737 0.03599809 -0.06531808
000240 cf 23 ed bc ce 47 2e bd e9 9f a2 bd f1 54 1b bd
       -0.028947739 -0.042548947 -0.07940657 -0.037922803
000250 21 1f 6c bb 79 85 d5 bc 98 1d 1c bc be cb ab bd
       -0.0036029296 -0.026064621 -0.00952854 -0.0838847
000260 b0 f0 09 bd ae 70 5b 3c 36 21 b5 3c 37 a1 4e 3d
       -0.033676803 0.013393564 0.022110563 0.050446715
000270 5f 32 2c bd d2 43 92 3d a5 a9 88 3d 1b 8d 98 bc
       -0.042040225 0.07141842 0.06672982 -0.018621972
000280 c8 2f 88 bd 78 81 5c bd 5b 43 97 3c 0e 99 8b 3d
       -0.066497386 -0.05383441 0.018464735 0.06816302
000290 38 a0 8b bb 51 f2 fa bc 48 1f d5 3c 62 bc 33 bd
       -0.004261043 -0.030633124 0.026015893 -0.043880828
0002a0 6c 95 a4 bd 28 4c 2e 3d c0 36 72 bc 0a 53 92 3c
       -0.080363125 0.042553097 -0.014783561 0.017861862
0002b0 9f 47 61 bd 4e 37 58 3d be bc a0 bd a2 5f e3 3c
       -0.054999944 0.052787118 -0.078485 0.027755562
0002c0 69 39 c2 bb 7a 40 e0 3b e7 bb 8b 3d 37 e2 7c 3d
       -0.005927254 0.0068436237 0.06822949 0.061739173
0002d0 be 10 0b bd 1a 91 ec bc 55 a7 95 3d cd fa ce bc
       -0.033951513 -0.028877784 0.07307307 -0.025266076
0002e0 bb ad c7 bc 10 eb 39 38 f8 80 89 3c 0b 8e e8 bc
       -0.024374833 4.4326356e-05 0.01678513 -0.028388044
0002f0 67 5b d1 3c 86 21 c1 3b b2 ca 8f bd 77 88 64 bd
       0.02555628 0.005893889 -0.07021083 -0.055794206
000300 11 4c a0 3d 44 38 a4 3d 5d e1 05 3d 23 73 09 3d
       0.078270085 0.08018544 0.032685626 0.03355707
000310 73 86 84 bd 00 8a 95 bd 9a a6 85 3d 93 31 a1 3d
       -0.06470957 -0.07301712 0.06525917 0.07870784
000320 f9 9c 9f bc 59 32 72 bd 41 78 24 3c 5c e5 69 3d
       -0.01948403 -0.059130047 0.010038436 0.0571035
000330 05 a3 08 bd 64 28 f5 bb be c5 94 bd fb 29 c5 3c
       -0.033358593 -0.0074816216 -0.07264279 0.02406787
000340 99 f5 ac bb 97 2c 65 3d 28 c2 a4 bd fd e2 21 bd
       -0.005278301 0.055950727 -0.08044845 -0.039523114
000350 85 0e 72 3c 27 df a6 3c 40 50 4c ba a7 9c 6f 3d
       0.01477397 0.02037008 -0.00077939406 0.058499005
000360 94 09 60 3d 12 c8 31 3d 9b 80 64 bc ff 87 fc bc
       0.054696634 0.043403693 -0.013946678 -0.030826567
000370 51 b6 87 bc 5f 3d 46 3c 0d f0 e0 3c 06 d7 95 3c
       -0.016566427 0.012099593 0.027458215 0.018291008
000380 64 e1 26 bd 8b 0d 69 bb fd 70 51 bd f8 f7 69 bd
       -0.040742293 -0.003556105 -0.051133145 -0.057121247
000390 ff e2 8a 3d b5 42 98 bd 44 d0 cc bc 4c fb 3a bd
       0.06781577 -0.07434598 -0.025001653 -0.04564981
0003a0 f9 d9 e2 3c 97 29 03 bd 35 41 ea 3c 96 71 f3 bc
       0.027691828 -0.032022085 0.028595546 -0.029717248
0003b0 85 ca 6f 3d 1b d8 3c 3d c6 7f 50 bd 62 1d 31 3d
       0.058542747 0.04610453 -0.050903104 0.043240912
0003c0 65 76 55 bd 45 0d bb 3d 7d ce 84 bd 25 dc 10 bd
       -0.052114863 0.0913339 -0.06484697 -0.035366196
0003d0 7a 4c 57 3d 27 44 9f 3d 59 83 88 3d 6c f3 07 bd
       0.052563168 0.07776671 0.066656776 -0.03319113
0003e0 d7 28 af bd fd ce 68 bd 4d 89 aa bd c9 38 ed 3c
       -0.085527115 -0.056838024 -0.08326969 0.028957741
0003f0 5d 24 4e 3c fb 14 2e 3d 00 58 40 3c 39 a6 28 bc
       0.012581912 0.042500477 0.011739731 -0.010293537

encoder.encBlocks.3.conv1.bias f4 [32]
000000 34 b2 9b bd 42 79 78 bd cd 32 cc bc 6b 7f bd 3c
       -0.07602349 -0.060662515 -0.024926567 0.023132047
000010 ee 6a f3 3c 7f a7 d1 3c a9 a1 18 bd e0 e3 37 3d
       0.029714074 0.025592564 -0.037263546 0.044895053
000020 b8 b5 2f 3d db 16 9c 3b 59 08 8b 3c 5e cd b0 39
       0.04289791 0.004763467 0.016971754 0.00033722346
000030 b4 39 9a bd f5 fa 0a bd 85 a3 e0 3b 85 c0 91 3d
       -0.07530537 -0.033930738 0.0068554305 0.07116798
000040 00 7f 82 3c c8 d4 97 bd 3d 15 57 3d ee be a2 3d
       0.015929699 -0.07413632 0.05251049 0.07946573
000050 78 28 87 bd 3a fe 51 3d 66 46 0a 3d 4f de 1a 3c
       -0.06599516 0.05126784 0.033758543 0.009452417
000060 50 90 2b 3d c4 b1 0a bd 41 30 0e 3d 1b f7 a3 bd
       0.041885674 -0.033860937 0.034713987 -0.08006116
000070 5e 07 a2 3c 9c 41 9a bd 1b e7 7b bd 13 bc a2 3d
       0.019778904 -0.07532045 -0.061499696 0.079460286

encoder.encBlocks.3.conv2.weight f4 [32, 32, 3, 3]
000000 0e e2 42 bd c6 a7 0d 3c 8f ec 1c 3d a0 e6 2c bd
       -0.047578864 0.008645957 0.038311537 -0.04221213
000010 78 9f c7 bb e1 94 e7 3c 41 c4 a0 3c 16 f4 1f bc
       -0.006092008 0.028269233 0.019624831 -0.0097627845
000020 4f 1b 26 3d 26 fc 52 bd 9f d2 44 bb ae e9 24 3d
       0.040553387 -0.05151 -0.0030032767 0.040261917
000030 8d bd ba 3c 88 d3 db bc 02 ab 27 bd 78 e7 fc 3c
       0.022795463 -0.026834264 -0.04093457 0.030872092
000040 ac ba 5c bd 96 61 54 3d d0 c1 04 bd a0 df 59 bd
       -0.05388896 0.051850878 -0.032411397 -0.05319178
000050 50 d4 e9 3b 3d dc 93 bc 4c 74 1f 3c 9f bf bd 3c
       0.0071359053 -0.018049354 0.009732317 0.023162661
000060 b8 d8 41 3d 7a cb 2d 3d b4 72 fd 3c 64 4a 54 3c
       0.04732582 0.04243038 0.030938484 0.012957189
000070 c4 2e 30 3b a9 af 6c bc 89 31 18 3d d9 f3 a4 3c
       0.0026883343 -0.0144461775 0.037156615 0.020135807
000080 ce 76 2a 3d 07 42 f7 3c f6 16 06 bd 58 e8 96 3c
       0.041617207 0.030182851 -0.03273674 0.018421337
000090 3b d8 25 bd 30 18 3b 3b 49 29 e8 3b 09 88 c7 3b
       -0.040489417 0.0028548352 0.0070849997 0.0060892147
0000a0 5a d7 81 3c 75 0e cf bb 3a 9b 29 b9 90 28 78 3c
       0.015849758 -0.006318862 -0.00016174922 0.01514639
0000b0 e9 e4 38 bd fb 4e 93 3c 52 d9 d9 bc f7 92 0c 3d
       -0.04514018 0.017981997 -0.026592884 0.034319844
0000c0 81 c5 4f 3c 67 a3 80 3c e4 d5 33 bd 38 9d 5a 3d
       0.012681366 0.015702916 -0.043905154 0.05337259
0000d0 da 3f 60 bd df e3 63 3d bf ad 18 3d 39 31 5f 3c
       -0.054748394 0.055637237 0.037275072 0.013622575
0000e0 e2 2d 14 bc f6 2a 48 bd 44 bd 07 bd 7d 29 33 3c
       -0.009044142 -0.048869096 -0.033139482 0.010935185
0000f0 14 88 2f bd 54 7e 56 bd b7 37 57 3d 3e ab 36 bd
       -0.042854384 -0.05236657 0.05254337 -0.044596903
000100 59 14 61 bb e9 23 a7 3a a0 5b 30 3c f0 bc 64 bd
       -0.0034344404 0.0012751791 0.010764033 -0.055844247
000110 cf 41 00 bd 85 d3 52 bd ff b1 46 bd 72 2a 5a bd
       -0.03131276 -0.051471252 -0.048509594 -0.053263135
000120 fe 33 8a 3c 44 0e 4e bd d6 67 03 bd 00 fb af 3c
       0.016870495 -0.050306574 -0.032081448 0.02148199
000130 cd 1a 54 bd bf da 18 bc 05 45 3e bd 23 36 cb 3c
       -0.05178337 -0.009329497 -0.04645254 0.024806088
000140 e8 16 72 bd a9 64 11 3d 87 70 31 3c a4 a7 6a bc
       -0.059103876 0.035496388 0.010830051 -0.014322195
000150 5e 13 20 bc 1c 92 f6 ba a6 2f e5 3c 70 92 6a bd
       -0.0097702425 -0.0018811855 0.027976822 -0.05726856
000160 8c 99 16 bd 3c ac 09 bd ca 58 ed 3c f9 bd 95 3c
       -0.036767527 -0.03361152 0.028973002 0.018279063
000170 1a 37 6d bd f1 c4 50 3d 3e d1 38 3d 64 d3 cb 3c
       -0.057913877 0.050969068 0.045121424 0.024881072
000180 38 23 e7 bc a9 0f e3 bc 6e 16 5b bc 11 5b c0 bc
       -0.028215036 -0.027717428 -0.013372047 -0.023480924
000190 62 ae 58 bc 05 1c 3a bd 6e f4 e2 bc bb d7 94 bb
       -0.01322517 -0.045436878 -0.027704444 -0.0045423186
0001a0 d7 a4 b3 3c 84 27 5f bc 34 4c 89 bc 94 70 5b 3d
       0.021929188 -0.013620261 -0.01675997 0.05357416
0001b0 91 52 fa bc 80 ec 6f 3c 50 a0 a8 bc 0c 90 00 bd
       -0.030556949 0.014643788 -0.020584255 -0.031387374
0001c0 70 51 e6 bc f6 6f d7 bc 03 8c 81 3c 26 a7 e0 bb
       -0.028115004 -0.026298504 0.015813833 -0.006855863
0001d0 01 aa c8 bc 90 c1 0d bd 4c cf ee bc ed 47 d0 3c
       -0.024495127 -0.034608424 -0.029151581 0.025424922
0001e0 d6 41 c9 3c 08 54 2e 3d bb 52 70 3d 49 5d 4e 3d
       0.024567526 0.042560607 0.058672648 0.050381932
0001f0 14 25 b8 3c 4f 5a 56 bd b4 5c 03 3c 35 66 64 bd
       0.022478618 -0.05233222 0.008017708 -0.055761535
000200 0f 7d 54 3c 17 ca a8 bc 86 13 31 bd 27 b9 18 3d
       0.012969269 -0.020604176 -0.04323151 0.03728595
000210 9d ad ed 3c 90 01 4c bd 11 ba 0c bd 3a 47 49 bd
       0.02901345 -0.049806178 -0.034357134 -0.049140193
000220 c3 d8 15 bd 2c 0e 92 3c eb d4 ea 3a 11 41 aa 3b
       -0.036583673 0.017829023 0.0017916238 0.005195745
000230 c0 ad 6b bd fd 6c 2a 3d 4f c0 60 3d 09 1c 0b bd
       -0.057538748 0.041607846 0.0548709 -0.033962283
000240 03 04 89 bb c2 4f f1 ba c4 8b 5e 3d 3e 37 4b bc
       -0.0041813864 -0.001841061 0.05433251 -0.0124033075
000250 db a1 94 bc 12 c5 b3 bc c9 68 d2 3c 87 f1 47 bc
       -0.018143585 -0.021944556 0.025684731 -0.012203581
000260 d1 d5 0b 3d 82 5e 95 bb a3 33 37 3c ba 84 48 bd
       0.034139458 -0.0045583853 0.011181745 -0.048954703
000270 2a df d0 bc 33 49 3c 3d 4e 14 19 bd e2 f9 36 3b
       -0.025497038 0.045968246 -0.03737288 0.0027919938
000280 d2 c9 62 3b 6a 79 4a bc f6 af ab 3b 6d b6 57 3d
       0.0034605158 -0.012358049 0.005239482 0.05266421
000290 34 d9 29 bd 80 a7 cd bc e0 aa 80 3b e1 f9 38 bd
       -0.041466907 -0.025104284 0.00392662 -0.045160178
0002a0 71 12 47 3c 31 ab bf 3b 20 e0 ae bc 66 3e dd 3c
       0.012150393 0.005849265 -0.021347106 0.027007293
0002b0 b0 f2 99 3c 35 89 19 bd 13 bb 34 bd 52 84 5c 3d
       0.01879248 -0.037484366 -0.04412372 0.053837128
0002c0 c1 0e 46 bd f2 4c 3f bd 30 70 d8 3c 29 76 da bc
       -0.048353914 -0.04670424 0.026420683 -0.026667671
0002d0 10 86 5f bc 7b 06 21 3d 23 e9 1c 3c 92 4b d9 bc
       -0.013642803 0.03931282 0.0095770685 -0.026525293
0002e0 29 99 38 bc 43 e3 1f bc fb 9d 68 3d f1 3e cf 3c
       -0.011266985 -0.009758773 0.056791287 0.025298567
0002f0 0f dc 1f 3d f5 90 ac bc ca 3a 8d 3c 1f 9b 80 3c
       0.039028224 -0.021065215 0.017239947 0.015698968
000300 82 70 02 3c d7 fa 25 3d 9e 01 d2 3c 7f 97 dd 3c
       0.007961394 0.040522423 0.025635537 0.027049778
000310 78 ef 86 3c ce d1 87 bc 49 f3 64 3b 71 1f 92 bc
       0.01647161 -0.016579535 0.0034935048 -0.017837258
000320 32 92 af bb 25 43 5a bd b0 06 91 bc 69 32 cb 3b
       -0.005358004 -0.05328669 -0.017703384 0.0062010777
000330 37 c2 0e 3d 01 ec 17 3d 1e fb 4d 3d fa c9 d3 bc
       0.034853186 0.037090305 0.050288312 -0.025853146
000340 81 ba 7f bc 49 8d f3 bc 14 2b ae 3c eb 51 6a bd
       -0.015608431 -0.029730456 0.021260776 -0.05720703
000350 0e e8 0b bd 7a 17 6f bd ee 3e 61 bc 58 39 5a 3c
       -0.03415685 -0.058372 -0.013747914 0.013319336
000360 75 4f 97 bc aa 13 43 3d 58 09 33 3d d3 ec ee 3c
       -0.018470505 0.047626175 0.043710083 0.029165661
000370 95 6e 4a 3d 63 a4 b7 bb b9 76 35 bd d9 c8 6b bd
       0.049421865 -0.005604313 -0.044302676 -0.05756459
000380 4e 8a 2f bd 86 12 ce 3c 04 06 47 3d 90 29 0e 3c
       -0.042856507 0.025155317 0.04858972 0.008676901
000390 3f bd 2a 3d 97 ff 84 bc db 88 2b bb 9a a3 82 3c
       0.041684385 -0.016235156 -0.0026174102 0.015947152
0003a0 08 e3 6c bd 0b fd 58 3c 59 6c 0a bd db 59 f2 bc
       -0.0578337 0.013243924 -0.033794735 -0.029583862
0003b0 fb 7d 92 3c 8f 79 6c bd 54 eb 7a 3c 49 9b b0 bc
       0.017882338 -0.057733115 0.015314896 -0.02155842
0003c0 51 5a 56 bd 36 a8 d7 3b af 8c 83 3c 12 ca 1f 3d
       -0.052332226 0.0065813316 0.016058294 0.03901107
0003d0 46 a1 be bc 51 0b 5e 3d 62 54 39 3d 17 ca 01 bd
       -0.02327026 0.05421001 0.04524649 -0.03168687
0003e0 dd 83 61 bd ef 8a 65 3d da 61 9f b9 17 5d 39 3d
       -0.055057395 0.0560407 -0.00030399748 0.045254793
0003f0 e5 d6 1b 3d fa 87 3a bd af a0 9f 3c 91 63 35 3d
       0.038046736 -0.045539834 0.0194858 0.044284407
