models2/weights_last.pt (torch, 133817 bytes, 36 tensors)

encoder.encBlocks.0.conv1.weight f4 [4, 1, 3, 3]
0.20002332 0.10006717 0.02346932 0.13814372 0.1718816 -0.14806846 -0.19818406 -0.064360216
-0.3354676 -0.22005598 0.102386594 -0.25192273 -0.13486163 0.05509327 -0.2521678 -0.060504455
-0.2325687 -0.24984285 0.24953398 -0.13952725 0.1919197 -0.1160886 0.0012675695 -0.25948516
0.27610925 -0.23944318 0.14500171 -0.032939073 -0.61834794 0.115967184 0.107648216 0.00608959
0.387168 -0.030177614 -0.1266316 0.19922283
00000000: ead2 4c3e 04f0 cc3d bb42 c03c 8c75 0d3e
00000010: bb01 303e 429f 17be c3f0 4abe 4acf 83bd
00000020: 69c2 abbe 5b56 61be 10b0 d13d 04fc 80be
00000030: 2b19 0abe 7ba9 613d 231c 81be 85d3 77bd
00000040: 7d26 6ebe ced6 7fbe d685 7f3e 3be0 0ebe
00000050: 9986 443e dcbf edbd 9324 a63a 3ddb 84be
00000060: 315e 8d3e 9830 75be 547b 143e 1feb 06bd
00000070: 0d4c 1ebf 3480 ed3d ab76 dc3d 2f8b c73b
00000080: e23a c63e 0b37 f7bc b7ab 01be 1201 4c3e

encoder.encBlocks.0.conv1.bias f4 [4]
0.19595617 0.21782848 0.08793901 0.13468015
00000000: bca8 483e 6e0e 5f3e 5e19 b43d 98e9 093e

encoder.encBlocks.0.conv2.weight f4 [4, 4, 3, 3]
0.100002654 0.1527088 0.008947893 0.048076678 0.06542574 -0.098812774 0.17857103 -0.05209997
0.13813679 -0.09750668 0.025296632 0.17074639 0.12188012 -0.023751514 -0.009973674 0.21030816
0.21354964 0.25008172 0.23262392 0.11149105 0.13286051 0.029683713 -0.014239137 -0.08603692
-0.11141219 -0.07233014 0.10007947 -0.057133447 -0.06647415 -0.03990022 -0.17223988 -0.27564278
-0.32730335 -0.22605933 -0.2808558 -0.40295413 0.047636878 0.011296481 -0.0607045 -0.06719818
0.035134137 -0.15747555 -0.022797132 -0.07094963 -0.03525919 0.06893582 -0.114351265 0.08778164
-0.13314608 -0.04387171 0.0010674811 -0.040925264 0.059891626 -0.010780977 -0.19232626 -0.05822367
-0.07218135 -0.11107466 -0.053299937 -0.1801772 -0.14658381 0.019429488 0.030241773 -0.095858864
-0.050620977 -0.074195646 -0.0708007 0.027144453 0.02713932 -0.01381103 0.021924015 0.04688653
-0.005621026 0.049676463 -0.1592772 -0.13596252 0.15692954 -0.14148046 -0.0956556 -0.056118328
-0.08867404 -0.106232844 0.106021054 -0.15113738 0.043896187 0.106345594 0.1198659 -0.14570451
-0.1149597 0.049007084 0.058445055 -0.14718369 -0.111879945 -0.15285006 -0.042931072 0.034733813
-0.1509834 0.14095536 -0.024164509 0.013903873 -0.1368596 0.10063733 0.14865145 -0.030902926
-0.0040028617 0.10048069 0.038624037 -0.035240803 -0.143639 -0.15566966 -0.105006784 -0.13304923
-0.06013165 -0.007402914 -0.08296977 -0.024335569 0.1739128 0.046303697 0.053263094 0.1743775
0.035031494 0.083297655 0.124803655 -0.06340665 -0.097965375 0.21067382 0.08526226 -0.016318873
0.11756261 -0.008361671 -0.051057436 0.1522124 0.17232011 0.0887486 0.13701011 0.06294017
-0.16603954 0.12889092 0.050120287 0.114409015 -0.015774226 0.06313212 0.081786744 -0.07075664
00000000: 31ce cc3d b25f 1c3e 2f9a 123c 0dec 443d
00000010: eefd 853d 5a5e cabd 53db 363e c766 55bd
00000020: bb73 0d3e 95b1 c7bd e23a cf3c 24d8 2e3e
00000030: 499c f93d 8992 c2bc 9f68 23bc 065b 573e
00000040: c2ac 5a3e b60a 803e f734 6e3e 6b55 e43d
00000050: 960c 083e 422b f33c 454b 69bc 2034 b0bd
00000060: 132c e4bd d321 94bd 77f6 cc3d c304 6abd
00000070: 9923 88bd 6a6e 23bd a75f 30be 0d21 8dbe
00000080: 4e94 a7be 197c 67be 55cc 8fbe 0150 cebe
00000090: e31e 433d e014 393c 48a5 78bd 339f 89bd
000000a0: d0e8 0f3d 4541 21be 0dc1 babc 0a4e 91bd
000000b0: f16b 10bd 392e 8d3d ff30 eabd dcc6 b33d
000000c0: 7257 08be d2b2 33bd b9ea 8b3a 40a1 27bd
000000d0: ec50 753d b2a2 30bc 2df1 44be f17b 6ebd
000000e0: d1d3 93bd 1d7b e3bd 0951 5abd 5f80 38be
000000f0: 111a 16be 972a 9f3c 98bd f73c a751 c4bd
00000100: f157 4fbd e3f3 97bd f5ff 90bd 0b5e de3c
00000110: 4753 de3c a947 62bc fe99 b33c 170c 403d
00000120: 9530 b8bb 8c79 4b3d 9019 23be c239 0bbe
00000130: 23b2 203e 41e0 10be 15e7 c3bd 55dc 65bd
00000140: bc9a b5bd 9b90 d9bd 9121 d93d c2c3 1abe
00000150: 7dcc 333d b8cb d93d 417c f53d 9033 15be
00000160: fe6f ebbd a7bb 483d 1564 6f3d 52b7 16be
00000170: 5021 e5bd ba84 1cbe 7ed8 2fbd 0b45 0e3d
00000180: 649b 1abe 9a56 103e a6f4 c5bc 12cd 633c
00000190: ec24 0cbe f21a ce3d 1638 183e 2228 fdbc
000001a0: 702a 83bb d2c8 cd3d 3d34 1e3d a958 10bd
000001b0: 1a16 13be de67 1fbe cc0d d7bd 0f3e 08be
000001c0: 9b4c 76bd 2594 f2bb 0eec a9bd 635b c7bc
000001d0: 3216 323e f2a8 3d3d 672a 5a3d 0490 323e
000001e0: 2f7d 0f3d f697 aa3d 0f99 ff3d 59db 81bd
000001f0: 12a2 c8bd e1ba 573e fb9d ae3d 28af 85bc
00000200: aac4 f03d 64ff 08bc 9a21 51bd 91dd 1b3e
00000210: af74 303e d3c1 b53d 614c 0c3e c7e6 803d
00000220: 4506 2abe fbfb 033e ee4a 4d3d 464f ea3d
00000230: f338 81bc 6a4b 813d cf7f a73d dbe8 90bd

encoder.encBlocks.0.conv2.bias f4 [4]
-0.037916627 -0.17821589 0.03595002 -0.10609894
00000000: 774e 1bbd 3a7e 36be 5440 133d 674a d9bd

encoder.encBlocks.1.conv1.weight f4 [8, 4, 3, 3]
0.07810964 -0.08877627 0.116457865 0.09087734 0.16278999 0.21928144 0.2286238 0.28179702
0.2989197 -0.19411284 0.058528744 0.1435012 0.06062645 0.014952246 0.0423399 -0.01705481
-0.11904462 0.06619232 -0.07450655 0.050243985 0.1238914 -0.07419543 0.0412489 -0.09994744
-0.0031112267 -0.18632333 0.04611963 0.009350258 0.0835595 -0.090190105 -0.16710964 -0.1474133
0.10610101 0.10333409 0.057319395 -0.15186518 -0.009735668 0.012794255 -0.08998451 -0.0023894967
0.08570192 0.013444076 0.058613747 0.15274554 0.15561648 0.024332352 0.0018860617 -0.028301913
0.037672438 0.13634928 0.0809677 0.08131239 -0.13222194 0.13487288 -0.017516447 0.037249442
0.12637438 0.095108375 0.045056544 -0.00990461 0.0041350364 -0.122691534 0.0545959 -0.14708108
0.082200825 -0.028741546 0.040782206 -0.0034494973 -0.06586726 -0.08101588 -0.08842191 -0.13313761
-0.07017302 0.061716184 0.045841802 0.016400559 0.15851288 0.020636095 0.009759746 0.14676334
0.22136536 0.011125 -0.086877964 0.12704208 0.039656118 0.055808667 -0.02837513 0.1451031
0.020628711 -0.094108015 -0.0044101253 0.121769406 -0.022135643 -0.13362516 0.008332859 -0.05875351
0.06100172 0.0071169552 -0.20007876 -0.18370463 0.035140302 -0.0921321 -0.13422643 -0.1380166
0.14353268 0.13608769 0.11928643 0.07109182 -0.05714334 0.11993411 0.11917893 -0.17625132
0.14758918 -0.14407918 -0.08834165 0.021226427 -0.066572696 0.047109492 0.12954341 0.021415677
-0.10911911 -0.13004075 0.026085744 0.17644177 0.048559085 -0.11596097 -0.15847862 -0.10173988
0.08205941 -0.12922326 0.1399403 -0.17347997 0.019203149 0.124667965 0.12561797 -0.16667883
-0.01336108 0.14473867 -0.19072151 -0.041620385 -0.10319347 -0.10586824 0.13913184 0.100979224
-0.17482847 0.15894417 0.122698806 0.03528249 -0.09814027 0.07942902 0.1124373 0.20673674
0.010106712 0.03267949 -0.11820724 0.008665889 0.029693287 -0.16253269 0.08761854 0.026864983
0.06482664 -0.045554034 -0.10528819 -0.0592366 -0.102641314 0.10910822 0.0035848923 0.01562139
0.11850684 0.054486893 -0.046218846 0.036073238 0.04332275 0.031178193 -0.12164284 -0.016101962
0.06958685 -0.038335692 -0.162127 -0.085414395 0.1211303 -0.13337128 0.054095373 0.021516679
0.049711067 -0.1159959 0.13421483 -0.15004116 -0.14482851 0.07675622 -0.08673257 0.16089684
-0.169783 -0.08810991 0.079226576 -0.13295543 -0.15382552 -0.11087317 -0.16745275 0.024561828
0.15687272 -0.094542675 0.121773206 -0.06580061 0.12783709 -0.045148086 0.06788233 0.088506736
-0.06695361 -0.044312973 -0.16445619 -0.16583157 -0.11048252 -0.12947999 0.11080145 -0.073211074
-0.016940756 -0.1368331 -0.08330292 0.09513578 -0.10951303 -0.000777287 -0.13784397 -0.11592553
0.1258893 -0.13439277 0.037797026 0.10784619 -0.025844237 -0.13754065 -0.08437568 0.11314217
0.1489545 -0.010283955 0.10307474 -0.016020633 -0.06294615 -0.13553327 -0.04879842 -0.0069029154
0.15212439 -0.022538543 -0.008187357 0.13580315 -0.11652061 -0.029615695 -0.116310574 -0.12885566
-0.09577545 -0.11030514 0.12400772 -0.09536229 0.016481662 0.14476478 -0.04433992 -0.022828395
00000000: f2f7 9f3d 55d0 b5bd 7681 ee3d e61d ba3d
00000010: 6bb2 263e 508b 603e 5c1c 6a3e b347 903e
00000020: 010c 993e 84c5 46be d6bb 6f3d fbf1 123e
00000030: 7153 783d 44fa 743c 9a6c 2d3d 87b6 8bbc
00000040: aacd f3bd d78f 873d e496 98bd a3cc 4d3d
00000050: c6ba fd3d c6f3 97bd 9bf4 283d 3eb1 ccbd
00000060: b9e5 4bbb 8bcb 3ebe f0e7 3c3d d331 193c
00000070: 3e21 ab3d 97b5 b8bd ca1e 2bbe 83f3 16be
00000080: 7d4b d93d d3a0 d33d bec7 6a3d 8c82 1bbe
00000090: 5a82 1fbc ff9e 513c cc49 b8bd 1a99 1cbb
000000a0: 7d84 af3d 8b44 5c3c f814 703d 5469 1c3e
000000b0: ed59 1f3e a454 c73c bb35 f73a 6ad9 e7bc
000000c0: 6a4e 1a3d 259f 0b3e 65d2 a53d 1c87 a63d
000000d0: 3065 07be 1e1c 0a3e a77e 8fbc df92 183d
000000e0: 4968 013e 2ec8 c23d 368d 383d f246 22bc
000000f0: 337f 873b b345 fbbd f39f 5f3d 6c9c 16be
00000100: e858 a83d 6473 ebbc 3e0b 273d f610 62bb
00000110: 6ae5 86bd a7eb a5bd 8c16 b5bd 3a55 08be
00000120: dfb6 8fbd 1cca 7c3d 9dc4 3b3d 775a 863c
00000130: 3351 223e 070d a93c 57e7 1f3c 2149 163e
00000140: 9aad 623e a245 363c 13ed b1bd 5217 023e
00000150: 746e 223d a197 643d f672 e8bc e895 143e
00000160: 8bfd a83c b4bb c0bd d082 90bb 3d62 f93d
00000170: cf55 b5bc 09d5 08be 8b86 083c 85a7 70bd
00000180: f1dc 793d 5935 e93b 72e1 4cbe 111d 3cbe
00000190: 47ef 0f3d c1af bcbd a772 09be 3954 0dbe
000001a0: 3bfa 123e 925a 0b3e 724c f43d 9798 913d
000001b0: 230f 6abd 04a0 f53d 1514 f43d 3a7b 34be
000001c0: 9e21 173e 7e89 13be 78ec b4bd 0be3 ad3c
000001d0: 4457 88bd e2f5 403d 07a7 043e ee6f af3c
000001e0: d779 dfbd 6729 05be c5b1 d53c 27ad 343e
000001f0: e4e5 463d f27c edbd 3848 22be 005d d0bd
00000200: c40e a83d 1a53 04be 834c 0f3e bca4 31be
00000210: ec4f 9d3c eb51 ff3d ffa1 003e dbad 2abe
00000220: 6ee8 5abc 6036 143e 804c 43be 237a 2abd
00000230: 1957 d3bd 73d1 d8bd 9478 0e3e 32ce ce3d
00000240: 3c06 33be 43c2 223e 8349 fb3d 5f84 103d
00000250: c4fd c8bd afab a23d 8745 e63d ccb2 533e
00000260: 9f96 253c eeda 053d a316 f2bd 5ffb 0d3c
00000270: 563f f33c f86e 26be 5971 b33d f413 dc3c
00000280: d4c3 843d de96 3abd 56a1 d7bd 14a2 72bd
00000290: 9c35 d2bd 2174 df3d 83f0 6a3b dcf0 7f3c
000002a0: b7b3 f23d a62d 5f3d f94f 3dbd 88c1 133d
000002b0: 3273 313d 6969 ff3c e21f f9bd 43e8 83bc
000002c0: 8d83 8e3d e305 1dbd 9f04 26be beed aebd
000002d0: 2a13 f83d 7b92 08be 1c93 5d3d bf43 b03c
000002e0: d59d 4b3d 428f edbd 9d6f 093e 64a4 19be
000002f0: ed4d 14be 5d32 9d3d d8a0 b1bd 24c2 243e
00000300: 98db 2dbe f872 b4bd 8b41 a23d 7825 08be
00000310: 7084 1dbe 7911 e3bd bc78 2bbe e335 c93c
00000320: 3ea3 203e 979f c1bd 3b64 f93d 78c2 86bd
00000330: bae7 023e 33ed 38bd e405 8b3d 0543 b53d
00000340: f91e 89bd 8581 35bd 3467 28be c0cf 29be
00000350: a944 e2bd 6796 04be dfeb e23d b0ef 95bd
00000360: 57c7 8abc fa1d 0cbe b99a aabd 8cd6 c23d
00000370: 5e48 e0bd d9c2 4bba f826 0dbe 5d6a edbd
00000380: 20e9 003e 429e 09be 0ed1 1a3d 77de dc3d
00000390: 4bb7 d3bc 75d7 0cbe 28cd acbd 15b7 e73d
000003a0: 8787 183e 097e 28bc d918 d33d b43d 83bc
000003b0: e9e9 80bd 3cc9 0abe dae0 47bd da31 e2bb
000003c0: 7fc6 1b3e c0a2 b8bc 4424 06bc fb0f 0b3e
000003d0: 5ca2 eebd 9d9c f2bc 3d34 eebd bdf2 03be
000003e0: eb25 c4bd a9e7 e1bd c2f7 fd3d 4e4d c3bd
000003f0: 8d04 873c 383d 143e c79d 35bd 9d02 bbbc

encoder.encBlocks.1.conv1.bias f4 [8]
-0.12281227 -0.0065266998 0.022602681 0.05974664 0.041753165 -0.017496241 -0.046251357 0.09786416
00000000: 0085 fbbd eddd d5bb 4229 b93c e5b8 743d
00000010: 5e05 2b3d 4754 8fbc 1072 3dbd 016d c83d

encoder.encBlocks.1.conv2.weight f4 [8, 8, 3, 3]
-0.007688982 -0.008707609 0.10765505 0.083771124 -0.053548384 -0.07148518 0.11490125 0.1253068
0.14561066 0.08332913 0.1033061 0.08285013 -0.039115183 -0.09813289 -0.0589767 -0.042888567
-0.04827646 -0.09152715 0.08751334 -0.008749618 -0.012138748 0.010095799 -0.007357638 0.1273361
-0.023655232 -0.0020634509 0.05430748 0.08790051 0.11944529 -0.0057746605 0.11888849 -0.012017385
0.11541977 0.073250495 0.019196177 0.0783865 -0.00498618 -0.03237999 -0.049882784 -0.026296277
-0.09499145 0.08331205 0.09868793 0.11817422 0.042834524 -0.06778281 -0.07731412 0.10611542
-0.038799044 -0.087274306 0.06251755 0.0940172 0.08118833 -0.10501703 0.03776427 0.010009298
0.06314443 -0.06258686 0.04585474 0.022094399 -0.08336979 -0.032457307 0.020035028 -0.027776035
-0.025116935 0.057639193 -0.07658348 -0.090588525 0.062419377 -0.08894394 0.11041965 -0.09458636
0.049395647 -0.07538716 -0.11405727 -0.099485494 0.01764877 0.025720885 0.17147733 0.15004128
0.060842108 -0.012335723 0.07018513 0.032819234 0.03688698 -0.08548635 0.0146409115 -0.08199423
0.09989933 0.12217547 -0.016569488 -0.045718342 -0.11147951 -0.039529976 -0.10230827 -0.016964661
0.11944925 0.036920607 0.109000966 -0.045115784 -0.014001313 -0.037361465 -0.08933222 -0.016801048
0.054698456 0.08778919 0.049415898 -0.021122778 0.036497086 -0.03502991 0.0048147114 0.006727565
-0.0016926209 0.12272556 0.13133118 -0.011998806 0.06626236 -0.069165796 -0.061020438 0.02027217
0.06862401 0.1173067 0.07041432 -0.044124637 -0.103755176 -0.09755775 -0.109269634 -0.057819232
-0.03443519 0.033666223 -0.020436577 -0.0377579 0.075982295 0.0100996075 0.026370708 0.08903826
0.0008301575 -0.054931927 -0.05784266 0.09743859 -0.01971914 0.0771955 -0.021411253 -0.06731004
0.08800196 0.044545427 0.07664431 -0.026106479 -0.07329543 0.057232115 -0.030095804 0.00029364615
0.02834094 0.05683048 0.07599691 0.0014048357 -0.10810119 -0.11511108 0.018411137 0.011208864
0.07360818 0.023933996 0.019108811 -0.061309412 -0.04534697 0.07859805 0.011254135 -0.043161444
-0.090357654 -0.08844071 -0.10679778 -0.0551639 -0.014218277 -0.038362183 -0.03214496 -0.11415352
0.074060075 0.03322791 0.027387595 -0.09765983 0.02071878 -0.05441944 -0.102327205 -0.039110404
0.0074622184 0.0987299 -0.1170857 0.036711313 -0.07031038 -0.03913572 -0.108859 -0.0790266
-0.105239466 -0.07922608 -0.04014405 0.0010372461 -0.10953487 -0.009969195 -0.09270674 -0.04423783
0.07925504 -0.044241764 0.038080376 0.10717861 0.08320873 -0.081338 -0.04605644 -0.052328493
0.059454754 0.048127424 0.08078224 0.036194805 -0.08595227 0.024945978 -0.027614038 0.070647806
0.059469476 -0.043395564 -0.12075303 0.039234564 0.06115219 -0.11281861 -0.10084564 -0.10899758
0.032258008 -0.110843815 -0.09527204 0.05565222 0.082451366 -0.0814435 0.0057654837 0.031080473
-0.122338414 -0.07396262 -0.10253551 -0.1121003 -0.0075494186 -0.012898398 -0.09164539 0.045626353
0.024794167 -0.093770176 0.0104357125 -0.037698444 0.076733336 -0.034260172 0.097764686 0.06656141
-0.058387723 0.10743229 0.08442858 -0.007509187 0.07217033 0.1036372 -0.11241985 0.06663326
00000000: dbf3 fbbb 5caa 0ebc 407a dc3d 3290 ab3d
00000010: 8d55 5bbd d266 92bd 5951 eb3d 6d50 003e
00000020: f61a 153e 77a8 aa3d 2692 d33d 54ad a93d
00000030: 3e37 20bd e6f9 c8bd 8d91 71bd ecab 2fbd
00000040: 8abd 45bd 9672 bbbd 323a b33d 8f5a 0fbc
00000050: 99e1 46bc da68 253c 5718 f1bb 6564 023e
00000060: 9ec8 c1bc f63a 07bb 8571 5e3d 2f05 b43d
00000070: bb9f f43d 5d39 bdbb cf7b f33d 91e4 44bc
00000080: 3361 ec3d 5b04 963d 4d41 9d3c 1a89 a03d
00000090: 1c63 a3bb e1a0 04bd e451 4cbd 4a6b d7bc
000000a0: e18a c2bd 829f aa3d e61c ca3d 5305 f23d
000000b0: 4173 2f3d b7d1 8abd de56 9ebd 0b53 d93d
000000c0: bfeb 1ebd dfbc b2bd 3409 803d 178c c03d
000000d0: 1146 a63d 2b13 d7bd b5ae 1a3d 0afe 233c
000000e0: de51 813d 8a2d 80bd 2ed2 3b3d 50ff b43c
000000f0: c8bd aabd f4f1 04bd 8020 a43c 918a e3bc
00000100: 08c2 cdbc 1317 6c3d cdd7 9cbd 7a86 b9bd
00000110: 76ab 7f3d 3e28 b6bd b323 e23d 7eb6 c1bd
00000120: 1753 4a3d 9564 9abd dc96 e9bd 0dbf cbbd
00000130: 2794 903c 9bb4 d23c c197 2f3e 6ca4 193e
00000140: 9335 793d c61b 4abc 39bd 8f3d 766d 063d
00000150: cd16 173d 7813 afbd 6fe0 6f3c 97ec a7bd
00000160: 0598 cc3d 2237 fa3d bcbc 87bc 2843 3bbd
00000170: 5f4f e4bd 2fea 21bd 0087 d1bd 79f9 8abc
00000180: cfa1 f43d 103a 173d e63b df3d 54cb 38bd
00000190: c365 65bc 5608 19bd d0f3 b6bd 5aa2 89bc
000001a0: 7d0b 603d d2ca b33d 5368 4a3d ad09 adbc
000001b0: f87d 153d 867b 0fbd bac4 9d3b e872 dc3b
000001c0: efda ddba 8a57 fb3d ae7b 063e a496 44bc
000001d0: 8fb4 873d cca6 8dbd 91f0 79bd d211 a63c
000001e0: bf8a 8c3d 7f3e f03d 6235 903d 09bc 34bd
000001f0: 987d d4bd 5ccc c7bd c2c8 dfbd dcd3 6cbd
00000200: ea0b 0dbd 98e5 093d 9c6a a7bc 07a8 1abd
00000210: 9b9c 9b3d d378 253c 6207 d83c b159 b63d
00000220: ed9e 593a 4d00 61bd 6dec 6cbd e28d c73d
00000230: 098a a1bc ad18 9e3d a766 afbc d9d9 89bd
00000240: 5f3a b43d 4475 363d b1f7 9c3d 41dd d5bc
00000250: ea1b 96bd 396c 6a3d 7a8b f6bc 85f4 9939
00000260: 422b e83c 14c7 683d 45a4 9b3d 7722 b83a
00000270: 2864 ddbd 5cbf ebbd f4d2 963c 62a5 373c
00000280: e3bf 963d 3a11 c43c 158a 9c3c 941f 7bbd
00000290: bfbd 39bd 04f8 a03d 4363 383c 0eca 30bd
000002a0: 6f0d b9bd 6720 b5bd cbb8 dabd 8bf3 61bd
000002b0: c7f3 68bc aa21 1dbd 6faa 03bd 52c9 e9bd
000002c0: cfac 973d fd19 083d f35b e03c e001 c8bd
000002d0: 6eba a93c ebe6 5ebd ed90 d1bd 3b32 20bd
000002e0: a085 f43b e732 ca3d a1ca efbd 9a5e 163d
000002f0: e3fe 8fbd c74c 20bd 78f1 debd b3d8 a1bd
00000300: ca87 d7bd 4841 a2bd 166e 24bd 34f4 873a
00000310: d153 e0bd d655 23bc 08dd bdbd ba32 35bd
00000320: 7750 a23d da36 35bd 2bfa 1b3d 7680 db3d
00000330: 5769 aa3d 8a94 a6bd ada5 3cbd 6756 56bd
00000340: d486 733d 4321 453d 2971 a53d 0141 143d
00000350: be07 b0bd 825b cc3c d636 e2bc ccaf 903d
00000360: 4496 733d 8cbf 31bd 5d4d f7bd 6cb4 203d
00000370: b87a 7a3d 720d e7bd 2988 cebd 203a dfbd
00000380: f920 043d 1502 e3bd fd1d c3bd 95f3 633d
00000390: 43dc a83d dacb a6bd 62ec bc3b 7a9c fe3c
000003a0: 908c fabd b779 97bd 23fe d1bd d894 e5bd
000003b0: 1d61 f7bb cd53 53bc 94b0 bbbd b3e2 3a3d
000003c0: 231d cb3c 940a c0bd 8dfa 2a3c af69 1abd
000003d0: 5e26 9d3d 6554 0cbd da38 c83d 5951 883d
000003e0: f727 6fbd 7605 dc3d e4e8 ac3d a00f f6bb
000003f0: 0ace 933d be3f d43d 613c e6bd 0577 883d

encoder.encBlocks.1.conv2.bias f4 [8]
0.045227394 -0.031386033 0.034104213 0.059573043 0.11905827 -0.065961465 -0.101085454 0.05357108
00000000: 5c40 393d a48e 00bd dcb0 0b3d dd02 743d
00000010: d2d4 f33d ce16 87bd e405 cfbd 596d 5b3d

encoder.encBlocks.2.conv1.weight f4 [16, 8, 3, 3]
-0.017287835 -0.11389519 -0.0037251976 -0.073738664 0.0878259 -0.05199504 0.0023472256 0.009873173
0.038605377 -0.06479528 0.020263813 0.041998424 -0.0647959 0.029137881 0.009268222 0.049833078
0.12316203 -0.03802718 0.10555241 0.046868846 0.09006583 -0.027535282 0.10724078 -0.056106217
-0.040872216 -0.086315244 0.0073560765 -0.08041672 -0.07341516 -0.009519805 -0.064727485 -0.11225826
-0.10879085 -0.118020274 -0.105688386 -0.09599192 0.037065558 -0.09415849 0.0385312 0.05133922
-0.09099208 -0.014865892 0.04988508 -0.039280646 0.060455684 -0.10829744 0.08210778 -0.09603334
-0.017338045 0.030606344 -0.067954965 0.04130216 -0.060286783 -0.010943451 0.041242003 0.096870966
0.012550437 0.021442056 0.038070932 -0.10854876 0.10136852 0.09374182 -0.072186135 -0.018055918
0.022492835 -0.101207346 -0.031088669 -0.11600616 0.06990552 -0.06483301 -0.035938796 0.09628461
-0.07258729 0.0466909 0.0035257416 -0.052669287 -0.056965712 -0.092146926 0.11994528 0.07527926
-0.102017045 -0.079797424 0.07748556 -0.08425184 0.023852477 0.027560202 -0.09465894 -0.036091607
0.09562436 -0.026938137 -0.0025737998 -0.026821082 -0.07554293 -0.040649068 -0.005048958 -0.044234857
0.04735775 -0.079815455 0.052853752 -0.044793654 0.08532217 0.04773625 -0.022259835 0.06406126
0.0010329676 0.074300945 -0.00014215242 0.04522456 0.07271564 -0.0758481 0.013639159 -0.059967317
-0.015417085 -0.11013991 0.06266034 0.0909675 0.025529264 -0.03340458 0.067007765 -0.023368036
0.08078721 0.09692389 0.09434369 -0.04871506 -0.016534965 -0.022804791 0.05676751 -0.057454508
-0.007978441 0.099870466 0.10685066 0.0281589 0.1013192 0.103993885 0.044214204 0.09895675
-0.101567574 0.0010596282 -0.020775938 -0.06932609 -0.1132607 -0.027346464 0.0153520815 0.07591059
0.007802108 0.04183326 0.087896734 -0.036794 -0.0013789568 -0.097312175 -0.10526608 -0.040878233
-0.11199644 0.024552513 -0.0021678149 0.11181962 0.053307883 -0.042545065 -0.1008335 -0.008138762
0.06798445 0.09834663 0.020715885 -0.08367049 0.114639364 -0.08047547 0.09133707 0.023031857
0.09193275 0.022646977 -0.111322165 -0.052702766 -0.039431706 -0.06849988 -0.07679097 0.019231604
-0.018536925 0.037441403 -0.10183721 0.08585223 -0.05950224 0.083911665 0.096942104 -0.011913155
0.074850954 -0.015492461 -0.0122029185 -0.07887488 0.11058393 0.0652213 0.0029101435 0.088656895
-0.03240192 -0.024343573 -0.008441279 -0.116938606 -0.0050249565 0.034693584 0.07586585 -0.027996846
-0.033547886 0.06895808 0.10205886 -0.04775133 -0.05446397 -0.035141986 0.020991828 0.053923476
-0.044765927 -0.11139162 -0.07794576 -0.07218001 -0.07795323 -0.020488914 -0.07504961 -0.0241242
0.010695915 0.087711185 -0.056725856 -0.110485844 -0.04147123 -0.03890712 0.060073387 0.022442365
-0.044735074 -0.043819413 -0.11276576 0.06108161 -0.090178795 -0.111277394 -0.0037683793 -0.05841819
-0.08134546 0.060262054 0.0032223775 0.06016086 0.034963235 -0.09001337 0.10305909 0.05531648
-0.011997 0.11255988 0.06390669 0.05791699 -0.065478794 0.021983568 -0.056157786 -0.11042454
0.008808899 0.10192297 0.09574062 -0.063914165 -0.10626461 -0.10054671 -0.018826105 0.00736072
00000000: 389f 8dbc e241 e9bd 7222 74bb 4c04 97bd
00000010: 11de b33d c0f8 54bd e9d3 193b 17c3 213c
00000020: ac20 1e3d 63b3 84bd 4c00 a63c 8a06 2c3d
00000030: b6b3 84bd 91b2 ee3c bed9 173c c51d 4c3d
00000040: 603c fc3d 63c2 1bbd dd2b d83d 8cf9 3f3d
00000050: 6f74 b83d ac91 e1bc 0ea1 db3d a2cf 65bd
00000060: a069 27bd 0cc6 b0bd 3e0b f13b 85b1 a4bd
00000070: b05a 96bd f5f8 1bbc d88f 84bd a9e7 e5bd
00000080: bdcd debd 9db4 f1bd 2773 d8bd 6997 c4bd
00000090: 0ed2 173d 2bd6 c0bd e4d2 1d3d 1349 523d
000000a0: 0e5a babd 1290 73bc 4c54 4c3d bee4 20bd
000000b0: 61a0 773d 0ccb ddbd 2028 a83d 21ad c4bd
000000c0: 8408 8ebc 28ba fa3c f92b 8bbd 742c 293d
000000d0: 46ef 76bd 294c 33bc 60ed 283d 4964 c63d
000000e0: 59a0 4d3c 40a7 af3c 44f0 1b3d d04e debd
000000f0: 4c9a cf3d b6fb bf3d 53d6 93bd 01ea 93bc
00000100: e542 b83c cc45 cfbd aaad febc a394 edbd
00000110: a02a 8f3d 2bc7 84bd 8f34 13bd de30 c53d
00000120: a5a8 94bd f53e 3f3d 2110 673b c0bb 57bd
00000130: e154 69bd 87b7 bcbd dfa5 f53d 032c 9a3d
00000140: 50ee d0bd d56c a3bd c0b0 9e3d 3b8c acbd
00000150: 4566 c33c efc5 e13c 8cdc c1bd cbd4 13bd
00000160: b4d6 c33d 5ead dcbc 32ad 28bb e3b7 dbbc
00000170: 40b6 9abd a37f 26bd bb71 a5bb 9c2f 35bd
00000180: 33fa 413d 4976 a3bd 2d7d 583d 8d79 37bd
00000190: 64bd ae3d 1687 433d 425a b6bc 8d32 833d
000001a0: a464 873a 182b 983d c00e 15b9 633d 393d
000001b0: f0eb 943d 4056 9bbd c776 5f3c 4aa0 75bd
000001c0: f197 7cbc 0891 e1bd 1054 803d 2b4d ba3d
000001d0: bf22 d13c 3ed3 08bd 5e3b 893d 536e bfbc
000001e0: c473 a53d 0880 c63d 4437 c13d 7189 47bd
000001f0: 5674 87bc 1dd1 babc 0c85 683d 6b55 6bbd
00000200: 02b8 02bc e388 cc3d 85d4 da3d 7ead e63c
00000210: 7180 cf3d bffa d43d f419 353d d6a9 ca3d
00000220: a902 d0bd 39e3 8a3a 4d32 aabc d6fa 8dbd
00000230: 3af5 e7bd b105 e0bc 4c87 7b3c 0377 9b3d
00000240: d3a8 ff3b 5a59 2b3d 3403 b43d 4eb5 16bd
00000250: 1dbe b4ba 9b4b c7bd be95 d7bd ef6f 27bd
00000260: 645e e5bd 5a22 c93c e611 0ebb af01 e53d
00000270: 5e59 5a3d bc43 2ebd cb81 cebd 7158 05bc
00000280: 6e3b 8b3d f569 c93d 5cb4 a93c 6f5b abbd
00000290: 0bc8 ea3d 53d0 a4bd ee0e bb3d 4ead bc3c
000002a0: 3d47 bc3d 2786 b93c e0fc e3bd dbde 57bd
000002b0: 2483 21bd aa49 8cbd 9644 9dbd 998b 9d3c
000002c0: c0da 97bc 285c 193d 0790 d0bd 4bd3 af3d
000002d0: 9fb8 73bd e1d9 ab3d 9589 c63d 652f 43bc
000002e0: 754b 993d 17d4 7dbc c0ee 47bc 2789 a1bd
000002f0: d479 e23d bf92 853d 1bb8 3e3b bf91 b53d
00000300: e0b7 04bd 2c6c c7bc 4a4d 0abc 827d efbd
00000310: 64a8 a4bb dc1a 0e3d 8e5f 9b3d a459 e5bc
00000320: 8269 09bd e539 8d3d 3c04 d13d e696 43bd
00000330: 9d15 5fbd 0bf1 0fbd 0ef7 ab3c ddde 5c3d
00000340: 7a5c 37bd 4a21 e4bd 07a2 9fbd 1dd3 93bd
00000350: f1a5 9fbd 5ed8 a7bc 9cb3 99bd 1da0 c5bc
00000360: eb3d 2f3c eca1 b33d 5f59 68bd 6746 e2bd
00000370: bddd 29bd 125d 1fbd 830f 763d 0dd9 b73c
00000380: 203c 37bd fc7b 33bd bcf1 e6bd b630 7a3d
00000390: a9af b8bd 67e5 e3bd eaf6 76bb e947 6fbd
000003a0: 7398 a6bd 58d5 763d 862e 533b 3c6b 763d
000003b0: 9c35 0f3d ee58 b8bd a510 d33d 8993 623d
000003c0: 118f 44bc cb85 e63d 83e1 823d 5e3a 6d3d
000003d0: bf19 86bd e216 b43c b505 66bd 4326 e2bd
000003e0: 3353 103c fdbc d03d a813 c43d 6ee5 82bd
000003f0: 43a1 d9bd 6feb cdbd 3439 9abc 3232 f13b

encoder.encBlocks.2.conv1.bias f4 [16]
0.08400402 0.020600291 0.11621027 -0.045626935 0.05333226 -0.06739086 -0.09049504 -0.019991152
-0.07811323 0.089548565 0.027519837 0.059825353 0.070966765 0.013444427 -0.10088566 0.038878478
00000000: 4d0a ac3d f1c1 a83c a6ff ed3d 4fe3 3abd
00000010: ee72 5a3d 3804 8abd 7755 b9bd 7cc4 a3bc
00000020: d4f9 9fbd 3d65 b73d 4871 e13c 6e0b 753d
00000030: 0657 913d 0446 5c3c 249d cebd 0a3f 1f3d

encoder.encBlocks.2.conv2.weight f4 [16, 16, 3, 3]
-0.08439403 -0.045551013 0.003947082 -0.052606877 0.05789596 -0.008208305 -0.02696885 -0.007324239
-0.03317665 -0.01921522 0.04152873 -0.05015669 -0.034593944 -0.06034629 0.052618835 -0.071453445
0.06150631 0.055869393 0.08062321 -0.022848489 -0.02251692 -0.04652957 -0.039166447 -0.015962405
-0.05866556 0.03029664 0.023018006 -0.064463 0.0669716 0.037097212 -0.057682298 0.077339835
0.070624754 0.08101263 -0.046362918 0.06406103 -0.026866833 -0.03443861 -0.013050532 0.02858645
0.07933968 -0.07343606 0.041047134 -0.04118018 -0.06823625 -0.0799806 -0.065048054 0.0065437714
0.02956537 -0.029809901 -0.03311126 -0.06506523 -0.013998067 -0.0036987544 -0.043016598 -0.014430534
0.014218198 -0.06727752 0.0444124 -0.08420726 0.057559658 -0.08198987 -0.058339562 0.01896709
0.01595447 -0.031005146 0.0573407 -0.04297532 0.06509971 0.07524692 0.008522704 -0.06459795
-0.034443446 -0.011144335 0.049764372 0.025809787 0.032823116 -0.0756253 0.010415824 -0.075590745
0.044589255 -0.04023565 -0.019797862 0.07127958 0.014737037 0.016322508 0.05922887 -0.020386402
-0.06807989 -0.030777456 0.07578445 -0.07565458 0.043163836 0.07128609 -0.05029904 0.0143920835
0.03175874 0.07100801 0.045332663 -0.022012297 -0.03810467 -0.012771972 -0.04042651 0.013272161
-0.088615805 0.010290911 -0.032510426 -0.0767776 -0.010710857 -0.023150247 0.0077198814 -0.038336575
-0.06880231 0.050598733 -0.034708552 0.0054832874 -0.11224349 -0.0658778 -0.006445896 -0.06970058
-0.060802374 -0.0002443276 -0.0034532582 -0.039772615 -0.07927915 -0.01001433 -0.055151526 -0.06809538
-0.06069484 0.04568815 -0.07938324 0.03293134 0.014510073 -0.022621658 -0.054680873 -0.030861074
0.053732898 0.06416464 -0.018837905 -0.06911614 -0.0035021675 0.004878756 0.05994678 -0.021344163
0.06185121 -0.0701183 0.020730937 0.01921648 -0.018116787 -0.022582177 -0.021320466 -0.10193197
-0.059996955 0.023655044 0.074680194 0.048601512 -0.041739903 -0.05664985 -0.07746152 -0.07068862
0.028742094 0.021359932 -0.066606 0.0028514306 -0.040512566 0.043512013 0.059058174 -0.045183472
-0.009615494 -0.07426718 -0.0764088 -0.06963569 0.026824279 -0.049147174 -0.004112733 -0.07027127
-0.0028813004 0.015643043 0.039777096 -0.06198859 0.060298648 0.0064147823 0.02557786 -0.04486331
-0.07053686 -0.021290256 -0.044882484 -0.06804315 0.045161713 -0.07421671 0.07807427 -0.026318202
-0.024028124 0.06376791 0.032943718 -0.10305535 0.020278936 -0.009451165 -0.051960386 -0.06353674
-0.021367043 -0.0601811 -0.04465501 -0.03268555 -0.08218657 -0.097416766 -0.016131885 -0.08187472
-0.03615181 0.041773364 -0.011166863 -0.05731373 0.074105114 -0.08348337 0.043965224 0.01047773
-0.029686578 0.038467135 0.0020653293 -0.03188333 -0.053162538 0.05840847 0.032824825 -0.07570266
-0.036745694 -0.021668183 0.013596072 0.049076997 -0.035340074 0.07088425 -0.018300401 0.04851003
-0.013078127 -0.047587093 0.012188545 -0.03367341 0.0576654 -0.007442834 -0.02156068 -0.059515003
-0.08214669 0.05416127 -0.036701005 0.07330925 0.039356716 0.06717842 0.081656426 -0.005044743
-0.046220183 -0.09969314 -0.03765886 -0.102953106 -0.025280884 0.08688294 0.038322747 -0.015949804
00000000: c7d6 acbd b393 3abd 8656 813b 4f7a 57bd
00000010: 5024 6d3d 207c 06bc c7ed dcbc 2b00 f0bb
00000020: 3de4 07bd 3d69 9dbc 081a 2a3d 1a71 4dbd
00000030: 61b2 0dbd ac2d 77bd d986 573d 2f56 92bd
00000040: 0aee 7b3d 4ed7 643d c81d a53d c12c bbbc
00000050: 6775 b8bc ca95 3ebd ff6c 20bd 97c3 82bc
00000060: 4c4b 70bd a930 f83c 4290 bc3c 2d05 84bd
00000070: 6828 893d 3ff3 173d 4644 6cbd 5964 9e3d
00000080: b6a3 903d f3e9 a53d 0be7 3dbd 6e32 833d
00000090: d517 dcbc 800f 0dbd e6d1 55bc 212e ea3c
000000a0: d87c a23d a565 96bd 0a21 283d 8cac 28bd
000000b0: 72bf 8bbd decc a3bd ea37 85bd 226d d63b
000000c0: 1333 f23c e533 f4bc ac9f 07bd eb40 85bd
000000d0: 2658 65bc cd66 72bb 2c32 30bd 0c6e 6cbc
000000e0: 72f3 683c ccc8 89bd c7e9 353d db74 acbd
000000f0: adc3 6b3d 4eea a7bd 77f5 6ebd df60 9b3c
00000100: f3b2 823c 81fe fdbc 15de 6a3d e406 30bd
00000110: ff52 853d 0f1b 9a3d d0a2 0b3c ee4b 84bd
00000120: 9214 0dbd bb96 36bc bad5 4b3d 0c6f d33c
00000130: 8871 063d 70e1 9abd 22a7 2a3c 52cf 9abd
00000140: 39a3 363d 23ce 24bd 202f a2bc 07fb 913d
00000150: 9d73 713c c8b6 853c f999 723d 6201 a7bc
00000160: 786d 8bbd 0121 fcbc e134 9b3d caf0 9abd
00000170: 90cc 303d 71fe 913d 5e06 4ebd c6cc 6b3c
00000180: 7415 023d a66c 913d beae 393d 2253 b4bc
00000190: a413 1cbd 8941 51bc 4596 25bd 7a73 593c
000001a0: 347c b5bd 369b 283c a729 05bd 933d 9dbd
000001b0: 977c 2fbc 96a5 bdbc 0ff7 fc3b d006 1dbd
000001c0: 3ae8 8cbd 9e40 4f3d 8e2a 0ebd 26ad b33b
000001d0: eadf e5bd f1ea 86bd 1838 d3bb 2dbf 8ebd
000001e0: e90b 79bd 1819 80b9 0f50 62bb 9ce8 22bd
000001f0: 1b5d a2bd 2513 24bc 91e6 61bd 9775 8bbd
00000200: 279b 78bd 7f23 3b3d ae93 a2bd 03e3 063d
00000210: a8bb 6d3c 0e51 b9bc 0df9 5fbd 5dd0 fcbc
00000220: 0717 5c3d c068 833d f351 9abc c38c 8dbd
00000230: 9f84 65bb f9dd 9f3b c18a 753d f4d9 aebc
00000240: b257 7d3d 2f9a 8fbd edd3 a93c e16b 9d3c
00000250: a869 94bc 42fe b8bc 42a8 aebc b5c1 d0bd
00000260: 5ebf 75bd 39c8 c13c eef1 983d 6112 473d
00000270: 76f7 2abd ac09 68bd 25a4 9ebd 32c5 90bd
00000280: 8a74 eb3c 06fb ae3c ba68 88bd 11df 3a3b
00000290: 81f0 25bd a739 323d fce6 713d 4e12 39bd
000002a0: 4e8a 1dbc 6419 98bd 387c 9cbd 289d 8ebd
000002b0: 97be db3c 8c4e 49bd 1bc4 86bb 62ea 8fbd
000002c0: 33d4 3cbb d725 803c 4fed 223d bfe7 7dbd
000002d0: b7fb 763d 1833 d23b a988 d13c 97c2 37bd
000002e0: a175 90bd e768 aebc b2d6 37bd 355a 8bbd
000002f0: 7dfb 383d eefe 97bd 67e5 9f3d 4599 d7bc
00000300: a1d6 c4bc c098 823d feef 063d af0e d3bd
00000310: 0320 a63c 0fd9 1abc 6ad4 54bd 8d1f 82bd
00000320: f009 afbc 7580 76bd 2ce8 36bd 49e1 05bd
00000330: 6f51 a8bd 7182 c7bd 0427 84bc efad a7bd
00000340: ec13 14bd 8c1a 2b3d 38f5 36bc cdc1 6abd
00000350: 6cc4 973d 54f9 aabd e114 343d c9aa 2b3c
00000360: 4431 f3bc b78f 1d3d 7a5a 073b 1898 02bd
00000370: f6c0 59bd b83d 6f3d 5373 063d ff09 9bbd
00000380: a782 16bd 7981 b1bc 0fc2 5e3c f604 493d
00000390: c1c0 10bd c32b 913d b9ea 95bc 74b2 463d
000003a0: a445 56bc afea 42bd 77b2 473c 21ed 09bd
000003b0: 8e32 6c3d 04e3 f3bb 06a0 b0bc 01c6 73bd
000003c0: 863c a8bd 35d8 5d3d cb53 16bd 2923 963d
000003d0: 8234 213d d794 893d 7c3b a73d 5f4e a5bb
000003e0: 6051 3dbd eb2b ccbd 2d40 1abd 14d9 d2bd
000003f0: db19 cfbc afef b13d 50f8 1c3d 2aa9 82bc

encoder.encBlocks.2.conv2.bias f4 [16]
-0.0015802077 -0.047448505 -0.075643994 -0.021552 0.08115157 0.08162008 -0.05603643 -0.06839125
0.06398352 0.0014226537 0.07349503 0.07000165 -0.026126055 -0.015008495 0.030340152 0.055895545
00000000: f91e cfba 5d59 42bd 3deb 9abd d28d b0bc
00000010: cb32 a63d 6e28 a73d 7586 65bd b610 8cbd
00000020: cb09 833d 5678 ba3a 9084 963d 065d 8f3d
00000030: 4f06 d6bc 31e6 75bc e98b f83c baf2 643d

encoder.encBlocks.3.conv1.weight f4 [32, 16, 3, 3]
-0.07173011 0.043028794 -0.055334203 0.060557675 -0.031522512 -0.059687592 -0.07676289 -0.07938594
-0.03627546 -0.07590966 0.020413429 0.063029364 0.06026317 -0.011664643 -0.04708606 -0.07721548
-0.005101463 -0.033617735 0.046157565 0.07397463 0.031194625 -0.018610915 -0.028748117 0.03614162
-0.054745268 0.06881004 0.061162442 -0.06629555 0.015988465 -0.008426491 -0.055875715 -0.030673206
0.012898412 -0.060676653 0.04939317 0.059758004 0.029610313 -0.015704488 0.07467764 0.07968214
0.02857952 -0.06723927 -0.016513849 -0.029093884 0.04323064 0.040040474 -0.035293903 0.06759615
0.009915659 0.05044214 -0.052333508 -0.07926794 0.06295548 -0.080251835 -0.027314901 0.055835992
-0.033189707 0.047401603 0.068856604 0.04566532 -0.0026327604 0.07559584 0.023142183 0.030186605
-0.0063627325 -0.04791145 -0.045996465 0.04345903 -0.0077832243 -0.011993867 0.084250994 -0.017616984
0.06147651 0.059085198 0.06901405 0.05891806 0.030769136 0.07398866 0.0047983765 0.018791284
0.019340051 0.07135211 -0.028646484 0.053011827 0.022467064 -0.061070435 -0.004203585 0.035479892
0.052691363 0.032951534 -0.03598142 -0.06257297 0.032783505 0.0046892054 -0.0062326975 -0.059273258
0.06520743 -0.017323002 0.010260576 -0.014450334 0.009073079 0.020578777 0.048482105 0.056604225
-0.055675786 0.014157792 -0.010274499 -0.06890405 -0.04045455 -0.0048030326 -0.039219916 0.0004172841
0.032975893 0.033892803 -0.031159263 0.05255411 -0.015521342 0.05552195 -0.026038745 0.014523836
0.0012102469 -0.08199659 0.021017008 0.075292334 0.06325435 -0.045493986 -0.050078195 -0.06800813
0.07837316 0.013366197 -0.04811813 -0.077315345 -0.037404187 0.028584698 0.07671254 0.07052365
0.058820393 -0.05767831 0.014071937 0.033069387 0.015051567 -0.02215555 0.03550326 -0.06597641
-0.033001527 -0.045896344 -0.0825482 -0.03953899 -0.005526299 -0.027633732 -0.012261978 -0.086805016
-0.03532753 0.013906478 0.023015862 0.051328883 -0.043775793 0.069116555 0.06558827 -0.021985339
-0.06956658 -0.054789215 0.019214477 0.06846482 -0.004615529 -0.031993143 0.024058815 -0.045033704
-0.08361966 0.039960083 -0.015541927 0.018827552 -0.053977706 0.054674424 -0.07898116 0.028272469
-0.005139307 0.007567727 0.068823814 0.0631067 -0.03352416 -0.028124388 0.07505786 -0.025368849
-0.02429969 0.0009013944 0.016867213 -0.028426511 0.026701968 0.006455515 -0.069696985 -0.055270262
0.07751001 0.07992823 0.032820854 0.033299066 -0.06412725 -0.07273441 0.06262852 0.07611544
-0.020870224 -0.059300397 0.01010167 0.057632796 -0.033043623 -0.0077256374 -0.07175561 0.019865895
-0.008208478 0.0532091 -0.081653595 -0.0405852 0.013537523 0.018193007 -0.003095537 0.05701905
0.051764514 0.040770307 -0.016219966 -0.03151207 -0.017372876 0.011347959 0.02680312 0.017391441
-0.041372314 -0.004725524 -0.0522376 -0.05880109 0.06679114 -0.075723134 -0.02633881 -0.047520515
0.02573143 -0.03285694 0.031134494 -0.028644737 0.060845345 0.046804566 -0.04907041 0.045660026
-0.05166917 0.09292043 -0.059805382 -0.03918919 0.04918537 0.0742942 0.064580895 -0.035324804
-0.086880244 -0.059968717 -0.08596724 0.027622843 0.011794023 0.041591935 0.0123018455 -0.009554977
00000000: 3ce7 92bd f63e 303d 1ea6 62bd 530b 783d
00000010: c01d 01bd fa7a 74bd dd35 9dbd 1995 a2bd
00000020: 9495 14bd 8676 9bbd 103a a73c 8a15 813d
00000030: 84d6 763d 0f1d 3fbc 50dd 40bd 2623 9ebd
00000040: 2c2a a7bb c0b2 09bd b70f 3d3d 0380 973d
00000050: df8b ff3c eb75 98bc 2c81 ebbc 3c09 143d
00000060: 933c 60bd 47ec 8c3d 7885 7a3d f6c5 87bd
00000070: 3efa 823c 440f 0abc efdd 64bd 6046 fbbc
00000080: dc53 533c 1588 78bd 7e50 4a3d cfc4 743d
00000090: 5491 f23c b3a6 80bc 97f0 983d 6430 a33d
000000a0: 991f ea3c beb4 89bd 0d48 87bc 4c56 eebc
000000b0: 9d12 313d 7b01 243d 5790 10bd da6f 8a3d
000000c0: 4a75 223c 6b9c 4e3d a95b 56bd 3b57 a2bd
000000d0: cdee 803d 135b a4bd 80c3 dfbc 48b4 643d
000000e0: eef1 07bd 2f28 423d b104 8d3d 8f0b 3b3d
000000f0: 648a 2cbb fed1 9a3d ad94 bd3c e649 f73c
00000100: 787e d0bb cc3e 44bd ca66 3cbd 1902 323d
00000110: 6b0a ffbb ed81 44bc c98b ac3d 7e51 90bc
00000120: cbce 7b3d 5203 723d 3d57 8d3d 1054 713d
00000130: 8e0f fc3c 5e87 973d b33b 9d3b 2ef0 993c
00000140: 076f 9e3c 0e21 923d 08ac eabc ee22 593d
00000150: d90c b83c fe24 7abd 3abe 89bb 5d53 113d
00000160: e6d2 573d 30f8 063d 4161 13bd 4226 80bd
00000170: ff47 063d e8a7 993b a83b ccbb 84c8 72bd
00000180: 798b 853d f8e8 8dbc fa1b 283c 18c1 6cbc
00000190: 40a7 143c d394 a83c 2c95 463d d5d9 673d
000001a0: 4b0c 64bd 15f6 673c 5f56 28bc 911d 8dbd
000001b0: acb3 25bd c262 9dbb 10a5 20bd edc6 da39
000001c0: bb11 073d 2ed3 0a3d b641 ffbc fa42 573d
000001d0: 3a4d 7ebc fc6a 633d 354f d5bc 62f5 6d3c
000001e0: 26a1 9e3a d4ed a7bd dc2b ac3c de32 9a3d
000001f0: 7f8b 813d e757 3abd cb1e 4dbd d947 8bbd
00000200: 1b82 a03d e5fd 5a3c 8417 45bd 8257 9ebd
00000210: 2235 19bd 752a ea3c 771b 9d3d b46e 903d
00000220: a7ed 703d 1740 6cbd fb8d 663c c473 073d
00000230: d99a 763c 8e7f b5bc de6b 113d a41e 87bd
00000240: 9c2c 07bd cefd 3bbd 080f a9bd a3f3 21bd
00000250: f515 b5bb 2360 e2bc 77e6 48bc d4c6 b1bd
00000260: 9ab3 10bd ffd7 633c c38b bc3c 3c3e 523d
00000270: 3f4e 33bd fb8c 8d3d 2553 863d 991a b4bc
00000280: ec78 8ebd a86a 60bd ae67 9d3c 4937 8c3d
00000290: dd3d 97bb 3e0b 03bd fe16 c53c 4375 38bd
000002a0: c940 abbd 2fad 233d 91a3 7ebc 3d3c 9a3c
000002b0: ba17 5dbd 4af2 5f3d e0c0 a1bd aa9b e73c
000002c0: a267 a8bb b2fa f73b 80f3 8c3d 163e 813d
000002d0: a150 09bd 1e65 e6bc efb7 993d 55d2 cfbc
000002e0: 2510 c7bc 8e4b 6c3a 1c2d 8a3c b7de e8bc
000002f0: 16be da3c c988 d33b 4bbd 8ebd 1263 62bd
00000300: 91bd 9e3d 69b1 a33d 296f 063d 9a64 083d
00000310: 2655 83bd c7f5 94bd 6243 803d 69e2 9b3d
00000320: 08f8 aabc f9e4 72bd 7a81 253c 5e10 6c3d
00000330: c058 07bd 5827 fdbb 9bf4 92bd cdbd a23c
00000340: da7c 06bc c9f1 593d 003a a7bd ab3c 26bd
00000350: 7dcc 5d3c 8009 953c 7ede 4abb cf8c 693d
00000360: 0707 543d c4fe 263d bcdf 84bc cd12 01bd
00000370: 9051 8ebc caec 393c 3792 db3c 7f78 8e3c
00000380: 0476 29bd 92d8 9abb 18f7 55bd 69d9 70bd
00000390: cbc9 883d bb14 9bbd 7dc4 d7bc dfa4 42bd
000003a0: b8ca d23c 0095 06bd c40d ff3c 5ea8 eabc
000003b0: f838 793d 25b6 3f3d 0efe 48bd 0206 3b3d
000003c0: 0da3 53bd 114d be3d 7df6 74bd d884 20bd
000003d0: 9976 493d 8f27 983d fd42 843d beb0 10bd
000003e0: 45ee b1bd c2a1 75bd 980f b0bd 4d49 e23c
000003f0: b83b 413c 4e5c 2a3d ae8d 493c 7a8c 1cbc

encoder.encBlocks.3.conv1.bias f4 [32]
-0.0761041 -0.06135169 -0.024912251 0.022621896 0.029580388 0.025676582 -0.037285015 0.044594187
0.042956527 0.0046152803 0.01702887 0.00032730596 -0.07530593 -0.033786763 0.006546788 0.07114643
0.015914226 -0.07424046 0.05301995 0.0793621 -0.065990455 0.051284347 0.03385145 0.009798132
0.04188652 -0.033301678 0.034434568 -0.08012091 0.019595465 -0.07537866 -0.061503652 0.078352526
00000000: 77dc 9bbd e94b 7bbd c714 ccbc 8e51 b93c
00000010: 9252 f23c b257 d23c 2cb8 18bd 65a8 363d
00000020: 2ff3 2f3d c73b 973b 2180 8b3c 439a ab39
00000030: ff39 9abd fd63 0abd 7086 d63b 38b5 913d
00000040: 8d5e 823c 620b 98bd 722b 593d 9988 a23d
00000050: 0126 87bd 890f 523d d1a7 0a3d 5888 203c
00000060: 3391 2b3d 5767 08bd 430b 0d3d 6f16 a4bd
00000070: ab86 a03c 2060 9abd 41eb 7bbd 4a77 a03d

encoder.encBlocks.3.conv2.weight f4 [32, 32, 3, 3]
-0.047128253 0.009174039 0.039041962 -0.041788604 -0.00579346 0.028759165 0.022902794 -0.0073549515
0.041670583 -0.05163967 -0.0033447722 0.039572883 0.022464963 -0.027593385 -0.04126974 0.031191735
-0.05389922 0.054089125 -0.032264885 -0.053073518 0.007216353 -0.017863559 0.0099268425 0.023302482
0.047445484 0.042600542 0.031104077 0.013374408 0.003115182 -0.014217318 0.037173647 0.020107094
0.042069633 0.030177318 -0.032912523 0.018812427 -0.041322432 0.0021081846 0.005983759 0.0059925457
0.015613443 -0.0065639447 0.0023937374 0.015869595 -0.045024816 0.01857132 -0.02624228 0.034993544
0.01287101 0.015285504 -0.044153746 0.053951923 -0.054584578 0.056816116 0.038343612 0.014941637
-0.007955445 -0.048145294 -0.031939153 0.011972631 -0.041998144 -0.05164115 0.052047487 -0.04499214
-0.0039004104 0.00069755217 0.010087011 -0.05616599 -0.031466007 -0.050829638 -0.04789826 -0.05373107
0.017377123 -0.049848102 -0.031802926 0.02182128 -0.05158416 -0.009351601 -0.046710495 0.024141364
-0.05929585 0.03532757 0.010511785 -0.014731942 -0.009897067 -0.0029332724 0.02735457 -0.054612484
-0.035113942 -0.031651225 0.029639723 0.01916294 -0.056679115 0.05147695 0.046166334 0.026066218
-0.027809398 -0.027150482 -0.014102763 -0.02192941 -0.012537056 -0.044791445 -0.026781458 -0.0041940054
0.022293573 -0.0132715525 -0.017333461 0.053097896 -0.029712534 0.015319377 -0.020223865 -0.030653391
-0.027737807 -0.026125303 0.016453635 -0.006627275 -0.024408555 -0.033696122 -0.028288843 0.026203178
0.025254158 0.043080714 0.059100144 0.05099522 0.022817815 -0.052089054 0.008838998 -0.055206113
0.013561218 -0.021315137 -0.04363652 0.037962165 0.030258939 -0.047383565 -0.032497842 -0.048984934
-0.036475673 0.017909277 0.0020659599 0.005318887 -0.057478722 0.04257346 0.05514107 -0.03394432
-0.0041377004 -0.0018069128 0.054358575 -0.012350703 -0.018141823 -0.021883706 0.026246974 -0.011286597
0.035350267 -0.004441468 0.011365936 -0.04902723 -0.025070976 0.04640673 -0.03684929 0.0026861436
0.0034984688 -0.011764511 0.005942358 0.053550392 -0.040852062 -0.024346173 0.005096917 -0.044223115
0.012830093 0.0070041995 -0.021660341 0.026157131 0.018082874 -0.0384233 -0.044450175 0.054085106
-0.048004076 -0.045545053 0.027766818 -0.02720479 -0.012964609 0.040117923 0.010270817 -0.026012657
-0.010585583 -0.009622724 0.0556742 0.024132852 0.037797786 -0.020763114 0.017684903 0.016081149
0.008002898 0.040680688 0.026081897 0.027539441 0.017299188 -0.016166179 0.0042974246 -0.017157886
-0.004743392 -0.052333 -0.01737125 0.006424884 0.037768275 0.03878774 0.050921503 -0.025194349
-0.01535655 -0.02921495 0.022201493 -0.056660555 -0.0335877 -0.057805922 -0.013311585 0.013899215
-0.018233456 0.047862556 0.044056594 0.029313777 0.049573485 -0.005371867 -0.04413068 -0.05745336
-0.04272902 0.026763517 0.049428858 0.008836105 0.043223288 -0.015106549 -0.0016470524 0.016959107
-0.05703112 0.013984467 -0.033046525 -0.028924957 0.018225556 -0.057594072 0.015184267 -0.02146542
-0.05163823 0.007314023 0.016915688 0.03935852 -0.022771938 0.05506718 0.045445204 -0.031120552
-0.054188203 0.05803037 0.0025958328 0.046774708 0.039098192 -0.045374773 0.019186908 0.044977456
00000000: 8e09 41bd b54e 163c 77ea 1f3d 872a 2bbd
00000010: 11d7 bdbb 5798 eb3c a49e bb3c ce01 f1bb
00000020: c6ae 2a3d 1e84 53bd f733 5bbb 2d17 223d
00000030: 7108 b83c 860b e2bc 750a 29bd cf85 ff3c
00000040: 6ec5 5cbd 8f8c 5d3d 2f28 04bd 9e63 59bd
00000050: 2877 ec3b 9956 92bc 32a4 223c d9e4 be3c
00000060: 3256 423d e87d 2e3d facd fe3c 5520 5b3c
00000070: 1528 4c3b c1ef 68bc 6543 183d a2b7 a43c
00000080: 3551 2c3d 6c36 f73c 48cf 06bd 851c 9a3c
00000090: b641 29bd 7829 0a3b 6913 c43b 1e5d c43b
000000a0: 87cf 7f3c 5c16 d7bb 40e0 1c3b f400 823c
000000b0: f16b 38bd e222 983c 0dfa d6bc 6455 0f3d
000000c0: eee0 523c 0d70 7a3c 8fda 34bd b1fc 5c3d
000000d0: 1494 5fbd 04b8 683d 310e 1d3d c5cd 743c
000000e0: 8e57 02bc 0034 45bd a1d2 02bd db28 443c
000000f0: 3f06 2cbd ac85 53bd bf2f 553d ae49 38bd
00000100: 079e 7fbb efdb 363a fe43 253c 4f0e 66bd
00000110: 80e2 00bd bd32 50bd f730 44bd 1c15 5cbd
00000120: 785a 8e3c 862d 4cbd c943 02bd 8ac2 b23c
00000130: ea49 53bd 7537 19bc 8153 3fbd 1cc4 c53c
00000140: 35e0 72bd a4b3 103d 9f39 2c3c 3e5e 71bc
00000150: 4f27 22bc 253c 40bb b116 e03c 57b1 5fbd
00000160: a3d3 0fbd b7a4 01bd 01cf f23c 99fb 9c3c
00000170: 5c28 68bd 7fd9 523d e918 3d3d d288 d53c
00000180: 89d0 e3bc b06a debc 460f 67bc 4ea5 b3bc
00000190: 3968 4dbc 3c77 37bd ca64 dbbc de6d 89bb
000001a0: 03a1 b63c ed70 59bc e7fe 8dbc 2e7d 593d
000001b0: b367 f3bc 20fe 7a3c 85ac a5bc d21c fbbc
000001c0: 663a e3bc bb04 d6bc c6c9 863c 9d29 d9bb
000001d0: 73f4 c7bc f204 0abd 01be e7bc 0ca8 d63c
000001e0: cfe1 ce3c 6775 303d fe12 723d 5de0 503d
000001f0: 6dec ba3c 555b 55bd 72d1 103c ce1f 62bd
00000200: df2f 5e3c 159d aebc 35bc 32bd 377e 1b3d
00000210: 98e1 f73c 4515 42bd 751c 05bd 6da4 48bd
00000220: 8467 15bd 7ab6 923c 0e65 073b 0f4a ae3b
00000230: cf6e 6bbd 8261 2e3d 9adb 613d 3309 0bbd
00000240: 8c95 87bb efd5 ecba 19a7 5e3d 9a5a 4abc
00000250: 299e 94bc 7545 b3bc e503 d73c 6beb 38bc
00000260: 71cb 103d bc89 91bb 3138 3a3c c7d0 48bd
00000270: a661 cdbc fc14 3e3d 48ef 16bd 030a 303b
00000280: 9146 653b efbf 40bc 1db8 c23b a857 5b3d
00000290: 7e54 27bd a071 c7bc 0a04 a73b 4c23 35bd
000002a0: 4f35 523c 7c83 e53b 0771 b1bc 7b47 d63c
000002b0: 8922 943c c061 1dbd 6311 36bd 5888 5d3d
000002c0: ec9f 44bd 738d 3abd 3d77 e33c 94dc debc
000002d0: 8369 54bc b152 243d ee46 283c 7f18 d5bc
000002e0: 276f 2dbc a1a8 1dbc a10a 643d 42b2 c53c
000002f0: dad1 1a3d 6817 aabc eedf 903c 9dbc 833c
00000300: 961e 033c cba0 263d b4a9 d53c 659a e13c
00000310: 07b7 8d3c ef6e 84bc 69d1 8c3b b28e 8cbc
00000320: 756e 9bbb 215b 56bd 274e 8ebc d587 d23b
00000330: e8b2 1a3d e5df 1e3d 1193 503d 6164 cebc
00000340: 0a9a 7bbc 3154 efbc e8df b53c e614 68bd
00000350: 4293 09bd e7c5 6cbd d618 5abc 88b9 633c
00000360: 545e 95bc 870b 443d b074 343d 7223 f03c
00000370: 910d 4b3d 7d06 b0bb 5fc2 34bd 3754 6bbd
00000380: a004 2fbd 2a3f db3c ea75 4a3d 4fc5 103c
00000390: e70a 313d 7581 77bc e8e1 d7ba d3ed 8a3c
000003a0: 7799 69bd 1b1f 653c cb5b 07bd 08f4 ecbc
000003b0: c34d 953c c3e7 6bbd 6fc7 783c 40d8 afbc
000003c0: 9c82 53bd 79aa ef3b c592 8a3c 6636 213d
000003d0: 378c babc 208e 613d c024 3a3d 87f0 febc
000003e0: 73f4 5dbd 41b1 6d3d d91e 2a3b d696 3f3d
000003f0: 6d25 203d e6da 39bd dd2d 9d3c 483a 383d

encoder.encBlocks.3.conv2.bias f4 [32]
-0.046766162 0.015188713 0.04057583 -0.003718877 -0.046927743 0.030052599 -0.053996205 -0.019253286
-0.04317462 -0.0057263677 0.038631603 -0.03535863 0.0031006604 0.05708337 -0.028176274 -0.029838527
0.015847335 -0.05303771 -0.04698363 0.030665204 0.025219113 0.024966342 0.054786265 -0.024846984
-0.020185266 -0.007383103 -0.04876708 -0.010176552 0.04500186 -0.05681831 0.027855942 -0.0023919202
00000000: e08d 3fbd 14da 783c d732 263d 67b8 73bb
00000010: 4e37 40bd de30 f63c 202b 5dbd 11b9 9dbc
00000020: dfd7 30bd 41a4 bbbb 2c3c 1e3d 36d4 10bd
00000030: 7334 4b3b 40d0 693d eed1 e6bc ed6f f4bc
00000040: 45d2 813c 123e 59bd e871 40bd 9835 fb3c
00000050: 5098 ce3c 3786 cc3c 9067 603d e78b cbbc
00000060: 925b a5bc f5ed f1bb fdbf 47bd 8ebb 26bc
00000070: df53 383d 51ba 68bd 2532 e43c c3c1 1cbb
