models/weights_best_val_acc.pt (torch, 133817 bytes, 36 tensors)

encoder.encBlocks.0.conv1.weight f4 [4, 1, 3, 3]
0.12609905 0.29417494 0.25054607 0.11297444 0.27111337 -0.12006185 -0.10814045 -0.27569053
-0.1573203 0.2015305 0.016808756 -0.025031907 -0.24176331 -0.24562451 0.19602785 -0.25984183
-0.23911126 -0.13427678 -0.27659985 -0.096894614 -0.002287196 -0.14644368 -0.29938456 0.18485701
0.1619468 -0.05742221 0.19390114 0.19426006 0.2259018 0.25926208 0.29763865 0.11813439
0.19935697 -0.20327704 -0.18804204 -0.04497514
00000000: 1c20 013e 199e 963e 9347 803e 255f e73d
00000010: 5fcf 8a3e fde2 f5bd be78 ddbd 4f27 8dbe
00000020: 9318 21be 035e 4e3e 84b2 893c b70f cdbc
00000030: cd90 77be fe84 7bbe 86bb 483e fd09 85be
00000040: 95d9 74be da7f 09be 7f9e 8dbe af70 c6bd
00000050: c8e4 15bb 55f5 15be ef48 99be 284b 3d3e
00000060: 62d5 253e 8d33 6bbd 058e 463e 1cec 463e
00000070: cd52 673e 00be 843e 1864 983e 71f0 f13d
00000080: 3c24 4c3e db27 50be 188e 40be da37 38bd

encoder.encBlocks.0.conv1.bias f4 [4]
0.1164702 -0.18208013 -0.110049635 0.1228822
00000000: ee87 ee3d 3773 3abe b461 e1bd aaa9 fb3d

encoder.encBlocks.0.conv2.weight f4 [4, 4, 3, 3]
-0.049882416 -0.08424699 -0.033987693 0.116300456 0.106408015 0.0597904 0.11352376 0.066345744
-0.07973445 0.05446054 0.11841035 0.07476047 0.14369616 0.07602471 -0.07369913 0.08404934
0.12639432 0.044076506 -0.16172636 0.0040781465 0.010919555 0.05251309 -0.028006764 0.039965943
0.011924136 -0.12764685 0.020896856 -0.12734573 -0.014795594 0.13848887 -0.0818107 0.080279246
-0.14503516 -0.031157125 -0.122612834 -0.0013837904 0.04294045 0.08305577 0.089182526 0.051280454
0.08311966 0.15156333 0.11079679 -0.120691754 0.13860461 -0.10956804 -0.029659733 0.14670333
-0.030814307 -0.14141627 0.03196879 0.14348604 -0.08033175 0.11706625 0.17305472 0.033379328
-0.108771585 -0.08293838 0.124635056 0.04554797 0.06873534 -0.15090244 0.13144626 -0.08920279
-0.036804978 -0.0030978215 -0.09604691 0.0979675 0.1276127 -0.091642395 0.11990305 -0.018717393
-0.13221434 -0.15366377 0.11383791 0.08434817 0.058592625 -0.016210923 -0.015071811 0.04170363
0.06360719 0.022797069 0.15220203 0.11736064 0.12322639 0.11989641 0.14474101 -0.060140945
-0.06049286 -0.12297392 -0.024264067 0.10641467 0.14874592 0.0355978 0.14558938 -0.15756294
0.074330725 -0.067409664 0.11535817 0.18485646 0.0761925 0.10726099 0.06841692 0.073262565
0.07289224 0.08956178 -0.051302798 0.13865826 -0.06544643 0.027225573 -0.105329044 -0.044711012
-0.033254445 -0.1661854 0.12044992 -0.03243599 -0.1432458 0.114758775 0.017584253 0.0628187
0.050502166 -0.16274902 0.03872735 0.021289384 -0.112067886 -0.12711069 0.15523873 0.057487722
-0.018903065 -0.090476744 -0.102783225 -0.031164039 -0.11781022 -0.036904335 -0.07409789 0.11936656
0.02146483 -0.15897888 0.11517766 0.13117723 -0.072729886 -0.0022437645 -0.091840416 -0.04520715
00000000: 8151 4cbd b089 acbd ae36 0bbd ef2e ee3d
00000010: 72ec d93d c7e6 743d 257f e83d 47e0 873d
00000020: d14b a3bd 0412 5f3d 2081 f23d 041c 993d
00000030: 1625 133e d8b2 9b3d 92ef 96bd 0f22 ac3d
00000040: 836d 013e 9189 343d 989b 25be f9a1 853b
00000050: efe7 323c f717 573d 716e e5bc 54b3 233d
00000060: 745d 433c dbb5 02be e22f ab3c eb66 02be
00000070: 3869 72bc 07d0 0d3e 5e8c a7bd 7269 a43d
00000080: 1984 14be 3a3d ffbc 701c fbbd 4d60 b5ba
00000090: 53e2 2f3d 2519 aa3d 54a5 b63d 740b 523d
000000a0: a43a aa3d 6b33 1b3e 6de9 e23d 3d2d f7bd
000000b0: 5eee 0d3e 3565 e0bd f8f8 f2bc 6639 163e
000000c0: 496e fcbc 6dcf 10be b5f1 023d 01ee 123e
000000d0: f984 a4bd 6ec0 ef3d 4235 313e c3b8 083d
000000e0: a3c3 debd 99db a9bd aa40 ff3d 8290 3a3d
000000f0: 1dc5 8c3d 2b86 1abe d999 063e f4af b6bd
00000100: d1c0 16bd d204 4bbb 3eb4 c4bd 2fa3 c83d
00000110: e7ac 023e 02af bbbd bb8f f53d 3855 99bc
00000120: 3263 07be 095a 1dbe da23 e93d bcbe ac3d
00000130: d2fe 6f3d c5cc 84bc c2ef 76bc 6dd1 2a3d
00000140: 7d44 823d ebc0 ba3c d9da 1b3e c65a f03d
00000150: 1e5e fc3d 408c f53d fd36 143e 5a56 76bd
00000160: 5cc7 77bd c0d9 fbbd 70c5 c6bc efef d93d
00000170: da50 183e 00cf 113d 6215 153e 2e58 21be
00000180: b53a 983d 140e 8abd e740 ec3d 034b 3d3e
00000190: d00a 9c3d a6ab db3d 2c1e 8c3d af0a 963d
000001a0: 8748 953d 2b6c b73d e222 52bd 6efc 0d3e
000001b0: c708 86bd 2a08 df3c c1b6 d7bd e522 37bd
000001c0: d035 08bd 812c 2abe 73ae f63d 9adb 04bd
000001d0: 07af 12be a606 eb3d da0c 903c 17a7 803d
000001e0: 5cdb 4e3d aea7 26be 92a0 1e3d 1367 ae3c
000001f0: d983 e5bd 4e29 02be e7f6 1e3e 3f78 6b3d
00000200: 9ada 9abc df4b b9bd 0380 d2bd ba4b ffbc
00000210: 7c46 f1bd 0029 17bd a2c0 97bd 7476 f43d
00000220: 03d7 af3c 5ccb 22be 44e2 eb3d 5353 063e
00000230: 68f3 94bd 1f0c 13bb d416 bcbd 222b 39bd

encoder.encBlocks.0.conv2.bias f4 [4]
-0.050802972 0.05727813 -0.015351785 -0.13310246
00000000: c716 50bd 799c 6a3d 0e86 7bbc 034c 08be

encoder.encBlocks.1.conv1.weight f4 [8, 4, 3, 3]
-0.10124438 0.05164697 0.0019466787 -0.020366224 0.10759865 0.12114215 0.04528137 -0.103334256
0.14064218 -0.1260252 0.008010162 0.05624183 -0.02727702 0.03227457 -0.061382066 0.074301
0.052669168 -0.05569581 -0.06675926 -0.0045869574 -0.14517452 0.102511734 0.14565866 -0.1572627
-0.045482684 -0.11628292 0.026436718 0.047649026 -0.15783368 -0.026959652 0.084790505 -0.13791068
-0.0032977422 0.024970314 -0.08665729 0.099773705 -0.04931645 -0.14137122 0.1347474 -0.03122136
-0.027847951 -0.027109755 0.114822246 -0.15438667 -0.068189524 -0.093956254 0.066859946 -0.02680961
-0.046036582 -0.009816374 0.08868815 0.15726972 -0.13050593 0.039371178 -0.036047313 -0.110913455
-0.0988498 0.035075806 0.09796917 -0.16407177 0.05725709 -0.13911372 0.017003281 -0.11398994
-0.053264342 -0.006867672 -0.017401772 0.13650742 -0.11897199 0.027379831 0.03242777 -0.05479695
0.10120611 0.14434311 0.1560999 -0.120071694 0.10551115 -0.005728162 -0.021214036 0.1352215
0.15585545 0.028584763 0.03745537 -0.124928854 -0.16476218 0.12760362 0.13249385 -0.054622546
-0.0796022 -0.14920543 -0.014416785 0.0112220915 -0.01947616 0.06384771 0.04624842 0.10573428
-0.049638543 0.017771346 0.16161802 0.15245803 -0.13203828 -0.11313147 -0.15752426 -0.079509646
-0.047622148 0.15090509 0.05514044 -0.15926223 -0.13806407 -0.16539268 0.14557897 0.1008577
0.10297965 -0.07991348 0.15890051 -0.048803847 -0.12094793 -0.051453646 0.050573375 0.055854008
0.09225644 -0.0922135 0.12202744 -0.06514589 0.14700009 0.072101995 0.044150803 0.16323946
-0.11645695 0.13828139 0.06528486 0.10494554 -0.14074378 0.057292767 0.04692645 0.0041268324
0.041621976 0.0140295215 -0.0131755965 0.13564491 -0.021894945 0.1606088 0.1575463 -0.14574166
0.15911421 0.01301019 -0.103230186 0.099872015 -0.025539616 0.083725035 0.15884638 9.873522e-05
-0.16308737 -0.1410274 -0.11792096 -0.029368145 0.111762345 0.1587522 0.009185837 0.06748685
0.099481866 -0.01187946 0.1003047 -0.13582422 -0.11719957 0.046457946 -0.010594353 -0.03930694
-0.121840425 -0.16030905 -0.12949538 0.11030185 -0.059409652 0.060185265 -0.09691962 -0.02415793
0.06245299 -0.022190532 0.14969377 0.00705873 0.06346891 -0.074734695 0.13352415 -0.13184622
-0.029410359 -0.01830425 0.009174615 0.089836605 -0.05823481 -0.026265131 -0.118191615 -0.064195834
-0.053951815 0.07250616 0.011950527 -0.13426283 -0.077695094 0.14240591 0.12889773 -0.16427124
-0.045926243 0.035008565 0.015276609 0.12027964 -0.07310863 0.10332124 -0.10031771 0.11946973
-0.0016310817 0.12100466 -0.040648114 0.109487765 -0.096029386 0.13388723 -0.07104898 -0.0015538326
0.027512869 -0.014613966 0.16406113 -0.00043527264 -0.10966045 -0.15260845 -0.021828651 -0.16395698
-0.05134666 0.102492735 -0.034478944 -0.049419247 0.08200419 0.061667245 0.009492239 -0.15375243
-0.048909664 -0.0105183525 -0.013387978 -0.15204662 0.0508826 0.022499066 -0.16406009 -0.06610366
-0.0661543 -0.106927395 -0.13645571 0.0836282 0.023399493 -0.16425054 -0.14043681 -0.012572428
-0.047111094 -0.08154428 -0.03232106 -0.009276013 0.14433801 0.16367882 0.10842837 0.12293701
00000000: 3759 cfbd c68b 533d b327 ff3a 11d7 a6bc
00000010: ae5c dc3d 6019 f83d f578 393d e9a0 d3bd
00000020: 8104 103e c00c 01be 0e3d 033c d55d 663d
00000030: 0f74 dfbc 5732 043d c36b 7bbd 1f2b 983d
00000040: a0bb 573d 4a21 64bd 14b9 88bd 304e 96bb
00000050: a1a8 14be acf1 d13d 8b27 153e 7909 21be
00000060: 0d4c 3abd bd25 eebd d191 d83c a02b 433d
00000070: 279f 21be 7dda dcbc a5a6 ad3d 7538 0dbe
00000080: ef1e 58bb 8b8e cc3c 6179 b1bd 2856 cc3d
00000090: 0c00 4abd 9ec3 10be 39fb 093e f0c3 ffbc
000000a0: 6321 e4bc 4715 debc ed27 eb3d 8a17 1ebe
000000b0: f3a6 8bbd 236c c0bd deed 883d d49f dbbc
000000c0: db90 3cbd dbd4 20bc 22a2 b53d 500b 213e
000000d0: 59a3 05be ac43 213d 59a6 13bd 9826 e3bd
000000e0: c471 cabd a6ab 0f3d 0fa4 c83d 6e02 28be
000000f0: 6986 6a3d d473 0ebe 774a 8b3c 8f73 e9bd
00000100: b62b 5abd 350a e1bb 298e 8ebc 9ac8 0b3e
00000110: 96a7 f3bd ab4b e03c fbd2 043d c472 60bd
00000120: 2645 cf3d aece 133e a7d8 1f3e 26e8 f5bd
00000130: 3b16 d83d 4eb3 bbbb 0fc9 adbc 8177 0a3e
00000140: 9298 1f3e 982a ea3c cd6a 193d b3da ffbd
00000150: 6bb7 28be 86aa 023e 78ac 073e e4bb 5fbd
00000160: 7a06 a3bd 4fc9 18be 6134 6cbc dddc 373c
00000170: 788c 9fbc 97c2 823d fc6e 3d3d 378b d83d
00000180: c951 4bbd 3795 913c 327f 253e f51d 1c3e
00000190: 0b35 07be 79b1 e7bd 0a4e 21be f4d5 a2bd
000001a0: 710f 43bd dd86 1a3e f1da 613d a315 23be
000001b0: ab60 0dbe b35c 29be a712 153e 7b8e ce3d
000001c0: ffe6 d23d aea9 a3bd d1b6 223e 8be6 47bd
000001d0: 8cb3 f7bd 0fc1 52bd 0726 4f3d 2cc7 643d
000001e0: f2f0 bc3d 6eda bcbd 86e9 f93d 356b 85bd
000001f0: 3187 163e 36aa 933d 79d7 343d 3f28 273e
00000200: fb80 eebd a399 0d3e 12b4 853d b0ed d63d
00000210: 231f 10be d2ab 6a3d f335 403d 613a 873b
00000220: ce7b 2a3d 14dc 653c 75de 57bc 80e6 0a3e
00000230: 075d b3bc a276 243e d153 213e 4d3d 15be
00000240: d6ee 223e b128 553c 596a d3bd b389 cc3d
00000250: 7538 d1bc 0878 ab3d a0a8 223e 1110 cf38
00000260: 6000 27be 7d69 10be 8b80 f1bd 7795 f0bc
00000270: a8e3 e43d f08f 223e 3180 163c 8c36 8a3d
00000280: 26bd cb3d 11a2 42bc 8d6c cd3d 8115 0bbe
00000290: 5406 f0bd b04a 3e3d f093 2dbc 5000 21bd
000002a0: 7987 f9bd 0e28 24be 709a 04be f0e5 e13d
000002b0: 8957 73bd d384 763d cb7d c6bd dae6 c5bc
000002c0: b5ce 7f3d ebc8 b5bc 5349 193e eb4c e73b
000002d0: fdfb 813d 810e 99bd 8eba 083e b202 07be
000002e0: feed f0bc cbf2 95bc 2051 163c 41fc b73d
000002f0: a087 6ebd f929 d7bc 720e f2bd 1b79 83bd
00000300: 94fc 5cbd 1c7e 943d 25cc 433c 327c 09be
00000310: 9b1e 9fbd dbd2 113e c4fd 033e b836 28be
00000320: 281d 3cbd 2465 0f3d be4a 7a3c 2c55 f63d
00000330: fab9 95bd 169a d33d 5f73 cdbd 8cac f43d
00000340: 05ca d5ba 4bd1 f73d a37e 26bd 1f3b e03d
00000350: 0eab c4bd bc19 093e 2182 91bd f8a9 cbba
00000360: ab62 e13c 6b6f 6fbc a4ff 273e 4e35 e4b9
00000370: a895 e0bd 6445 1cbe 00d2 b2bc 57e4 27be
00000380: e050 52bd b6e7 d13d cb39 0dbd d66b 4abd
00000390: d0f1 a73d cb96 7c3d 5685 1b3c 4771 1dbe
000003a0: 8055 48bd 2b55 2cbc 4059 5bbc 1cb2 1bbe
000003b0: 466a 503d f64f b83c 5eff 27be 5b61 87bd
000003c0: e87b 87bd c0fc dabd 0cbb 0bbe 4345 ab3d
000003d0: 4bb0 bf3c 4b31 28be abce 0fbe 96fc 4dbc
000003e0: 90f7 40bd b000 a7bd 1663 04bd 6bfa 17bc
000003f0: 58cd 133e 6c9b 273e b10f de3d 66c6 fb3d

encoder.encBlocks.1.conv1.bias f4 [8]
0.07517339 0.04478618 -0.05091526 -0.14857435 0.12910745 -0.035648495 -0.12832938 0.16502723
00000000: 82f4 993d b771 373d 858c 50bd e023 18be
00000010: be34 043e 2804 12bd c768 03be e6fc 283e

encoder.encBlocks.1.conv2.weight f4 [8, 8, 3, 3]
0.006960892 -0.070239216 -0.094581455 -0.079592034 -0.08945064 -0.104837015 -0.009941641 -0.0656466
-0.014475968 -0.03732175 -0.077340856 -0.043275103 -0.029984565 -0.11044075 0.039566148 0.11304933
0.039208155 0.037902046 0.048507664 0.07771658 0.1033172 -0.006253914 -0.07362017 -0.016998004
-0.053597942 -0.03441275 0.026838023 -0.008224945 -0.08263978 -0.0043219286 -0.11314266 -0.030658059
-0.10953737 -0.06639672 -0.034581114 0.10564056 0.036653426 0.10630022 -0.064023055 0.07625991
0.03858966 0.116921194 -0.07176921 0.08957214 0.083520725 -0.0955868 -0.07038281 0.093674935
-0.10224392 -0.00534462 0.025864722 -0.10121529 -0.051965185 -0.01073778 0.05913321 -0.037055187
-0.06594491 0.08925157 -0.051972643 0.08020519 -0.025939377 0.087637275 0.019753061 0.013640466
0.05153176 0.09469047 -0.037929624 0.104251616 -0.06983325 0.0077760927 0.029104378 -0.10279242
-0.08568513 0.018144371 0.0670127 0.027468726 0.0013360654 -0.045339953 0.044699144 -0.056300573
0.04854812 -0.061077923 0.0017141656 -0.0013798208 0.10020347 0.10661044 0.070172116 0.003486395
0.10807583 -0.056259353 -0.036775764 0.05549292 0.09690881 -0.03920007 0.117259435 0.11514479
-0.11657256 -0.005597407 0.1171539 0.032906197 -0.030850263 -0.08035486 -0.08882517 -0.08061824
-0.037471063 0.045989852 0.10674241 -0.051143885 -0.082636185 -0.1125269 0.09537455 -0.079777636
0.012171783 0.052621502 0.11029389 -0.05663641 0.03608077 0.04534901 -0.05962482 -0.044566784
-0.0022345837 -0.11655956 -0.058870092 0.045460977 0.019660974 -0.0035398083 0.019647513 0.07141191
0.117255665 -0.088036194 -0.060837235 0.050306354 0.07211018 0.037446395 -0.10361887 0.07531877
0.017184766 0.100571 -0.07036059 -0.11112865 0.10303531 0.10980726 0.010339579 0.044491865
-0.0260126 0.058670904 -0.0948565 -0.09820224 -0.101676844 0.09084121 -0.0794877 -0.039645184
-0.019764552 0.008169852 0.04771517 0.087311104 0.04249404 -0.027586127 -0.06357778 0.023108121
-0.116663314 -0.063973896 0.11696165 -0.09884232 0.015899425 0.023286428 0.051299036 0.11589939
-0.06822248 0.019582272 -0.04449287 0.0862367 -0.06589691 -0.0011054149 -0.00038433637 0.023889333
0.1043751 0.003943526 0.0017693726 -0.005884832 0.088440165 -0.09140437 0.020396702 0.019955318
0.073616266 0.09243841 0.08702978 -0.020334166 0.07836264 0.03929658 0.037467707 -0.014848655
0.08145965 -0.0078397095 -0.037882123 0.027217189 0.056782704 0.07589887 -0.012666701 0.06437532
-0.10176095 0.047493078 0.10273897 -0.09668244 -0.018045103 -0.03445464 -0.10902181 -0.01870439
-0.09102599 -0.11164374 0.07859744 0.099120945 -0.10752943 -0.08138339 -0.008814758 0.042113923
-0.035388686 0.085116945 -0.03056125 0.024250468 0.11653684 0.02614528 -0.0826133 -0.086769015
-0.054073118 -0.103943475 -0.006690003 -0.094177455 -0.018482523 -0.11451341 0.1099273 0.022930937
-0.089321665 -0.031202355 0.0371179 -0.029445788 0.067061126 0.03616843 -0.10810881 0.047339708
-0.08453456 -0.015051221 0.029856093 -0.09397117 -0.1033596 0.054579258 -0.08961844 -0.055284772
-0.07597278 -0.028212395 0.010619151 0.02495374 0.011495649 -0.009124253 -0.08453937 -0.050713122
00000000: 3218 e43b 94d9 8fbd ecb3 c1bd 2601 a3bd
00000010: e631 b7bd cab4 d6bd 44e2 22bc ba71 86bd
00000020: 9c2c 6dbc b1de 18bd e264 9ebd 3c41 31bd
00000030: 31a2 f5bc c32e e2bd 1d10 223d 6886 e73d
00000040: bb98 203d 2d3f 1b3d f9af 463d df29 9f3d
00000050: f897 d33d a2ed ccbb 2cc6 96bd 663f 8bbc
00000060: 8489 5bbd 62f4 0cbd 6adb db3c ebc1 06bc
00000070: 0c3f a9bd f79e 8dbb 57b7 e7bd 9c26 fbbc
00000080: 2155 e0bd 01fb 87bd eda4 0dbd 145a d83d
00000090: e721 163d eeb3 d93d 851e 83bd 282e 9c3d
000000a0: 3110 1e3d 6174 ef3d bcfb 92bd 9971 b73d
000000b0: ea0c ab3d 03c3 c3bd dd24 90bd a5d8 bf3d
000000c0: 4365 d1bd ec21 afbb 41e2 d33c f649 cfbd
000000d0: 72d9 54bd 83ed 2fbc aa35 723d 2ec7 17bd
000000e0: 200e 87bd 87c9 b63d 44e1 54bd 9e42 a43d
000000f0: d17e d4bc 2c7b b33d 2cd1 a13c 437c 5f3c
00000100: f712 533d 14ed c13d 185c 1bbd df81 d53d
00000110: bc04 8fbd 98ce fe3b 4e6c ee3c d584 d2bd
00000120: af7b afbd 81a3 943c f43d 893d 1806 e13c
00000130: ea1e af3a 63b6 39bd 7316 373d 6e9b 66bd
00000140: 65da 463d d82c 7abd daad e03a 1adb b4ba
00000150: 7a37 cd3d 9356 da3d 66b6 8f3d 017c 643b
00000160: dc56 dd3d 3570 66bd 2fa2 16bd 8b4c 633d
00000170: 2078 c63d 4190 20bd b725 f03d 08d1 eb3d
00000180: 98bd eebd 746a b7bb 62ee ef3d a6c8 063d
00000190: b1b9 fcbc 1791 a4bd f9e9 b5bd 2d1b a5bd
000001a0: 427b 19bd db5f 3c3d c49b da3d 407c 51bd
000001b0: 293d a9bd 8174 e6bd bb53 c33d 7562 a3bd
000001c0: 286c 473c a589 573d c3e1 e13d 95fb 67bd
000001d0: 6ec9 133d e2bf 393d 2839 74bd a98b 36bd
000001e0: 1872 12bb c7b6 eebd c421 71bd 4a35 3a3d
000001f0: 0d10 a13c 21fc 67bb d2f3 a03c 6840 923d
00000200: bd23 f03d 524c b4bd 7730 79bd 090e 4e3d
00000210: 81ae 933d 6461 193d 2136 d4bd ba40 9a3d
00000220: 11c7 8c3c 2bf8 cd3d 3719 90bd 6b97 e3bd
00000230: 2d04 d33d a1e2 e03d 5667 293c 1a3d 363d
00000240: 6018 d5bc e750 703d 2044 c2bd 421e c9bd
00000250: f33b d0bd f50a ba3d 72ca a2bd fd62 22bd
00000260: 45e9 a1bc d8da 053c fb70 433d 2ad0 b23d
00000270: 3b0e 2e3d 4dfc e1bc 1135 82bd 3e4d bd3c
00000280: 2ded eebd bf04 83bd 9789 ef3d d86d cabd
00000290: 833f 823c 2ec3 be3c f01e 523d a95c ed3d
000002a0: 3ab8 8bbd 006b a03c 283e 36bd de9c b03d
000002b0: f6f4 86bd 92e3 90ba c180 c9b9 90b3 c33c
000002c0: 9dc2 d53d b238 813b 4bea e73a 8cd5 c0bb
000002d0: 1e20 b53d 3732 bbbd fc16 a73c 5679 a33c
000002e0: 20c4 963d 5950 bd3d ab3c b23d d693 a6bc
000002f0: 987c a03d 73f5 203d bd77 193d c647 73bc
00000300: 51d4 a63d 2072 00bc 492a 1bbd 95f6 de3c
00000310: fb94 683d de70 9b3d ff87 4fbc 35d7 833d
00000320: 0c68 d0bd 1a88 423d cf68 d23d 7101 c6bd
00000330: 53d3 93bc 4f20 0dbd d446 dfbd f339 99bc
00000340: d66b babd 79a5 e4bd b2f7 a03d ecff ca3d
00000350: 6438 dcbd 56ac a6bd c66b 10bc a67f 2c3d
00000360: baf3 10bd cb51 ae3d 965b fabc eba8 c63c
00000370: deaa ee3d a02e d63c 2931 a9bd f4b3 b1bd
00000380: c67b 5dbd 51e0 d4bd d037 dbbb 1ce0 c0bd
00000390: a968 97bc 0286 eabd 9021 e13d a9d9 bb3c
000003a0: 47ee b6bd 159c ffbc f008 183d 4b38 f1bc
000003b0: 5857 893d 5925 143d 2768 ddbd 48e7 413d
000003c0: 7520 adbd 6599 76bc c494 f43c f573 c0bd
000003d0: 33ae d3bd 808e 5f3d df89 b7bd 4972 62bd
000003e0: 9e97 9bbd ae1d e7bc f3fb 2d3c c96b cc3c
000003f0: 3f58 3c3c e47d 15bc fa22 adbd 90b8 4fbd

encoder.encBlocks.1.conv2.bias f4 [8]
-0.017437022 0.021406123 -0.041842688 0.053689905 0.10521714 0.035524018 -0.00027663045 -0.07725882
00000000: 16d8 8ebc e55b af3c 3d63 2bbd f2e9 5b3d
00000010: 157c d73d a281 113d b608 91b9 df39 9ebd

encoder.encBlocks.2.conv1.weight f4 [16, 8, 3, 3]
-0.036367673 -0.102153875 -0.0042347256 -0.079571635 -0.04087442 -0.1156193 -0.105845235 0.02878048
-0.06119058 -0.05009833 0.04689923 -0.05620635 -0.09315989 -0.07948106 -0.11144835 0.114665896
-0.062695205 -0.0762725 -0.03794894 0.103163235 -0.020552728 -0.079014145 0.103380576 0.10383507
-0.00047541547 0.0021380142 -0.01543768 -0.040678103 -0.039060365 -0.0043797544 0.0108852275 -0.10476313
-0.08294241 0.09653628 -0.07130467 0.018601863 0.005143792 0.030025724 0.013149521 -0.01865625
0.018485451 0.058485046 0.062116925 -0.11021328 0.03063306 -0.04158339 -0.075724594 0.03076019
-0.0899813 0.035225227 0.11461543 -0.08678441 0.041711655 -0.036695056 -0.07341506 -0.075682364
-0.049820118 0.06280038 -0.034327865 0.039796066 0.0051018465 0.08441801 -0.07020864 0.10212548
-0.049453538 -0.03883114 -0.06884484 -0.111601524 -0.11135908 0.02829065 -0.0006459123 0.07265778
0.009525439 0.019847872 -0.08001058 -0.10359313 -0.06257139 0.09119447 0.031246353 0.0006202033
0.10301136 -0.042288594 -0.07177819 -0.039543383 0.06525474 -0.017560633 -0.0634605 0.05809168
-0.08262127 0.00056707865 0.021111658 0.08518717 -0.109473854 0.0378385 -0.047361355 0.02385346
0.047596563 -0.060291503 -0.10313422 0.07539186 0.08783607 0.045367677 -0.102316804 -0.08109419
0.0047563203 0.08052182 0.012283677 0.03222331 -0.051599424 0.043363348 -0.047447756 -0.08464148
0.033295743 -0.004396108 -0.025419196 -0.08863085 0.07235018 0.017407473 0.08143071 -0.029310672
-0.04100715 0.00089983037 -0.033504616 0.061753813 -0.10646091 0.04672138 -0.103307076 0.075318225
0.07158268 0.061074276 0.0628316 -0.058000717 0.06702595 0.047990154 0.104811825 0.0065299436
-0.03051335 -0.024030617 -0.08715869 -0.015625706 0.011176839 -0.096138634 -0.0008635838 -0.06007227
0.07526889 -0.039154753 0.104691915 -0.082564004 0.094530456 0.021030152 -0.097087294 0.09525197
0.059372164 0.11394874 -0.08769741 -0.019200057 0.06330151 0.09868881 -0.055082344 -0.101099774
-0.05139336 -0.01738992 -0.11133899 0.040071208 -0.062677644 0.08909667 -0.07846407 0.04360171
0.016316652 -0.09866029 -0.0993154 0.061859116 -0.071175456 -0.08994438 -0.097745776 0.020061733
0.04744308 -0.10929502 -0.10636053 0.038460165 0.05601646 -0.10487475 -0.04707526 -0.002142158
-0.06871772 0.053218845 -0.028394725 0.04826048 0.0011630714 -0.11105432 -0.06861447 -0.09924395
-0.058256265 0.10120581 0.029283179 -0.059020314 0.084155135 0.055770613 0.06227598 0.083925806
0.053422034 0.09987599 0.00717107 -0.057157382 0.007326644 0.10206038 0.057264056 -0.115931645
0.07276242 0.114508346 0.03527427 -0.033926085 0.012453051 0.012171669 0.06588291 -0.04912742
0.114708126 -0.026537342 -0.008387911 -0.014745314 -0.06631995 0.075571224 -0.0054580593 -0.05033587
-0.074669026 -0.07716298 0.0893612 -0.11606648 -0.05416543 0.0118533 -0.037572626 -0.023957895
0.07825641 0.10317964 0.019092003 0.08438236 -0.023563951 -0.07503832 -0.11379969 0.09364861
-0.112183 -0.089207694 0.07934019 0.055586778 0.10793902 -0.059792005 0.0022048228 0.08854154
-0.09770578 0.02966242 0.047465134 -0.1038281 -0.04879841 -0.0012475259 0.06298425 0.07896364
00000000: 45f6 14bd 0d36 d1bd 74c3 8abb 74f6 a2bd
00000010: f06b 27bd d0c9 ecbd 63c5 d8bd 0bc5 eb3c
00000020: f9a2 7abd e833 4dbd 6819 403d a138 66bd
00000030: 9dca bebd f7c6 a2bd 083f e4bd f4d5 ea3d
00000040: 5866 80bd c234 9cbd 5970 1bbd 3f47 d33d
00000050: 325e a8bc 2bd2 a1bd 32b9 d33d 7ba7 d43d
00000060: 2f41 f9b9 ed1d 0c3b 53ee 7cbc 159e 26bd
00000070: c3fd 1fbd 0b84 8fbb f457 323c 0d8e d6bd
00000080: b6dd a9bd d0b4 c53d 2f08 92bd ef62 983c
00000090: 418d a83b 82f8 f53c 1771 573c fed4 98bc
000000a0: cd6e 973c 048e 6f3d 516e 7e3d 80b7 e1bd
000000b0: 2ff2 fa3c 5853 2abd 7f15 9bbd cbfc fb3c
000000c0: 1e48 b8bd 5448 103d 7fbb ea3d 06bc b1bd
000000d0: d7d9 2a3d 8e4d 16bd a35a 96bd 5bff 9abd
000000e0: 2e10 4cbd 7c9d 803d 609b 0cbd 3301 233d
000000f0: 642d a73b 5ae3 ac3d 8cc9 8fbd 2a27 d13d
00000100: cb8f 4abd 670d 1fbd 86fe 8cbd 578f e4bd
00000110: 3b10 e4bd cbc1 e73c 7152 29ba 9acd 943d
00000120: 9610 1c3c 0198 a23c 96dc a3bd a328 d4bd
00000130: 6e25 80bd 2bc4 ba3d 5af8 ff3c 2495 223a
00000140: 9ff7 d23d ce36 2dbd 7200 93bd 3ef8 21bd
00000150: 47a4 853d 51db 8fbc 94f7 81bd 8bf1 6d3d
00000160: 5735 a9bd 01a8 143a 5bf2 ac3c 9c76 ae3d
00000170: d433 e0bd 8bfc 1a3d fbfd 41bd 5568 c33c
00000180: 9df4 423d 39f4 76bd 0938 d3bd 0c67 9a3d
00000190: 66e3 b33d 75d3 393d 798b d1bd b614 a6bd
000001a0: e8da 9b3b a0e8 a43d 7a41 493c 97fc 033d
000001b0: eb59 53bd c49d 313d 9458 42bd 8358 adbd
000001c0: 1e61 083d 3a0d 90bb eb3b d0bc 1784 b5bd
000001d0: 552c 943d 1e9a 8e3c 25c5 a63d ef1c f0bc
000001e0: 1df7 27bd 98e2 6b3a 233c 09bd 91f1 7c3d
000001f0: 2d08 dabd eb5e 3f3d a992 d3bd 7140 9a3d
00000200: f199 923d 0529 7a3d dbad 803d 2992 6dbd
00000210: e744 893d 5391 443d 95a7 d63d 23f9 d53b
00000220: 22f7 f9bc dbdb c4bc 4180 b2bd 7b01 80bc
00000230: 0f1f 373c 55e4 c4bd 2162 62ba 570e 76bd
00000240: 9326 9a3d bc60 20bd b768 d63d 5117 a9bd
00000250: 2f99 c13d 6d47 ac3c b4d5 c6bd 7713 c33d
00000260: 3a30 733d f55d e93d b39a b3bd 7049 9dbc
00000270: 39a4 813d 5c1d ca3d 069e 61bd 660d cfbd
00000280: d881 52bd 4e75 8ebc b205 e4bd b521 243d
00000290: 235d 80bd 5178 b63d c5b1 a0bd b597 323d
000002a0: 80aa 853c 680e cabd df65 cbbd fc5f 7d3d
000002b0: 70c4 91bd c234 b8bd f02e c8bd 8158 a43c
000002c0: ad53 423d 11d6 dfbd 8dd3 d9bd 6888 1d3d
000002d0: 8471 653d 93c8 d6bd fdd1 40bd 7363 0cbb
000002e0: e0bb 8cbd 01fc 593d 0e9c e8bc c8ac 453d
000002f0: 3372 983a 7370 e3bd be85 8cbd 6940 cbbd
00000300: 1f9e 6ebd fe44 cf3d 47e3 ef3c 49bf 71bd
00000310: 8759 ac3d ba6f 643d 1915 7f3d 4be1 ab3d
00000320: 10d1 5a3d c88b cc3d 4cfb ea3b dc1d 6abd
00000330: 5814 f03b 0805 d13d b78d 6a3d 926d edbd
00000340: 7704 953d 5a83 ea3d c17b 103d 14f6 0abd
00000350: e207 4c3c ae6b 473c 9eed 863d d539 49bd
00000360: 18ec ea3d d764 d9bc 736d 09bc 5496 71bc
00000370: c1d2 87bd 16c5 9a3d 85d9 b2bb fc2c 4ebd
00000380: 13ec 98bd a007 9ebd 0103 b73d 43b4 edbd
00000390: 92dc 5dbd 5834 423c c1e5 19bd 5943 c4bc
000003a0: e644 a03d d94f d33d d566 9c3c a9d0 ac3d
000003b0: 3009 c1bc b1ad 99bd d00f e9bd d8ca bf3d
000003c0: 33c0 e5bd 86b2 b6bd 1c7d a23d f6ae 633d
000003d0: 220f dd3d 76e8 74bd ca7e 103b 4455 b53d
000003e0: f819 c8bd 9afe f23c cd6a 423d d4a3 d4bd
000003f0: d7e0 47bd 0684 a3ba e3fd 803d b0b7 a13d

encoder.encBlocks.2.conv1.bias f4 [16]
0.069235936 0.07734427 -0.10478964 -0.1146927 0.038883165 0.078857765 0.09099936 0.024045728
-0.030005619 -0.004222131 0.089970306 -0.09339687 0.098439515 0.10977426 0.012957472 0.085405275
00000000: 92cb 8d3d ac66 9e3d f39b d6bd 02e4 eabd
00000010: f443 1f3d 2e80 a13d df5d ba3d 8cfb c43c
00000020: 58ce f5bc cd59 8abb 5a42 b83d dc46 bfbd
00000030: a89a c93d 54d1 e03d 944b 543c f6e8 ae3d

encoder.encBlocks.2.conv2.weight f4 [16, 16, 3, 3]
0.0762575 -0.0046100095 -0.05741663 -0.07519619 0.066697836 -0.05617828 0.027921919 0.06229668
0.026765544 0.060099356 -0.049128007 0.070906155 0.05602306 -0.011948041 -0.0062722433 -0.051793944
-0.06361802 -0.06723739 -0.012158047 0.018484421 -0.02299309 -0.01667257 0.07322915 -0.048887275
0.025140455 0.04119094 0.078427166 0.007945707 0.06286991 -0.03520506 0.033958398 0.066876225
0.072924346 -0.044137023 0.007209321 -0.04279437 0.07387372 -0.00410686 -0.05513087 -0.06330381
-0.066835195 0.062343806 0.039779067 -0.028280703 0.02410769 -0.04412975 0.008290427 -0.032093845
0.057840526 -0.081535906 0.07688899 -0.009499992 -0.030715853 0.0536472 0.06864833 -0.062205844
0.044470064 -0.04760003 -0.047230553 0.029141173 -0.03995813 0.03288316 0.010319063 0.07889865
-0.06825264 -0.0025766673 -0.0068108537 0.023041792 0.044797625 0.025676584 0.0679604 -0.06737672
-0.045357388 -0.030531587 -0.0008323847 0.07739776 -0.077836 0.05999389 -0.044336278 -0.060186133
-0.04926727 0.010341217 -0.076482415 0.07304245 -0.05769754 -0.042274848 -0.0077899047 0.072582915
-0.05958886 -0.032382548 -0.017080417 -0.032592893 -0.07389335 -0.08328372 0.013823268 0.04861419
0.076529376 -0.052445985 0.07695207 -0.043261148 0.020571185 0.044786435 -0.022906419 -0.0357071
-0.036862116 -0.026974697 0.08020471 -0.0690466 0.022487145 0.040020786 -0.035249554 -0.042674653
-0.041652054 0.07477978 0.04751744 -0.05888064 0.029448712 -0.024773771 -0.07058973 0.052170698
-0.011800512 0.030441571 -0.052472398 0.08319161 0.0635165 0.03219662 -0.045895427 -0.009769181
-0.05537794 0.04497587 -0.03960288 0.045642607 -0.057946272 0.06292255 0.03963691 0.07052843
-0.07559776 0.0022097628 0.05408749 0.006092598 0.023898464 0.041436486 0.02605778 -0.03342539
0.05915132 -0.0037932438 0.06621146 -0.05942024 -0.020876039 -0.03813812 -0.062169235 0.07717242
0.07403039 0.010067184 0.036853258 -0.04781447 0.03629484 -0.07836815 0.06656337 0.004436903
-0.075595796 0.079763494 -0.037067935 -0.039904565 -0.07513476 -0.0050810263 0.06967664 -0.08126856
-0.05042335 0.06649455 0.057416663 -0.042741448 -0.030212384 -0.011249225 0.07308233 -0.06202381
-0.0038373335 0.06962505 0.0014976328 0.07612726 0.05557811 0.075168766 0.07836619 -0.0046838806
-0.026287526 0.058359645 0.037213814 0.05755844 0.04877499 0.006239109 -0.011668834 -0.016374573
0.034971233 -0.015850136 -0.044173032 -0.07275172 0.060661227 -0.06974848 0.057745587 -0.036087167
0.022191238 0.064226 -0.05253017 -0.00029856182 -0.017910888 -0.015464301 0.03276518 0.0011212649
-0.007020754 -0.025494885 0.011046779 -0.026008628 0.053344097 0.05823827 -0.032548074 -0.012276688
0.07648467 0.031971652 -0.016558418 0.010786597 0.07904877 -0.07203113 -0.059495512 0.031624068
0.0023933193 -0.04465173 0.064530045 -0.0038266734 -0.03724946 -0.063592136 -0.011455087 -0.048042703
0.07627371 0.037856054 -0.07054784 0.082300305 0.015144273 -0.04704592 -0.00015077833 -0.057639338
-0.06824702 0.013204283 -0.043443054 -0.063523464 0.0389471 -0.0254343 0.04392735 0.068987206
0.06690814 0.02706949 0.058707494 0.07612022 -0.06203459 -0.05568355 0.060544558 -0.049804017
00000000: e42c 9c3d 900f 97bb b32d 6bbd 7600 9abd
00000010: e098 883d 321b 66bd 82bc e43c ce2a 7f3d
00000020: 6a43 db3c be2a 763d 733a 49bd 3f37 913d
00000030: 7078 653d b7c1 43bc 6487 cdbb e325 54bd
00000040: 2a4a 82bd c2b3 89bd 8c32 47bc a46c 973c
00000050: 015c bcbc ea94 88bc 2af9 953d 063e 48bd
00000060: 5bf3 cd3c d5b7 283d 6c9e a03d b62e 023c
00000070: f0c1 803d 2e33 10bd f617 0b3d 67f6 883d
00000080: 5c59 953d 06c9 34bd 2b3c ec3b 2649 2fbd
00000090: 1b4b 973d d792 86bb e8d0 61bd 6ea5 81bd
000000a0: e4e0 88bd 385c 7f3d 60ef 223d efac e7bc
000000b0: 7e7d c53c 66c1 34bd 92d4 073c d674 03bd
000000c0: 30ea 6c3d 4cfc a6bd fa77 9d3d dba5 1bbc
000000d0: d09f fbbc 2bbd 5b3d 7f97 8c3d 8ecb 7ebd
000000e0: 3e26 363d 40f8 42bd d374 41bd 78b9 ee3c
000000f0: 23ab 23bd 7eb0 063d 4a11 293c 9e95 a13d
00000100: 0ac8 8bbd 4edd 28bb 952d dfbb 24c2 bc3c
00000110: b77d 373d b357 d23c d22e 8b3d cefc 89bd
00000120: abc8 39bd 611d fabc 6434 5aba b782 9e3d
00000130: 7b68 9fbd 27bc 753d f599 35bd bc85 76bd
00000140: 7acc 49bd 356e 293c d0a2 9cbd 4897 953d
00000150: 4154 6cbd 6428 2dbd 7542 ffbb 5aa6 943d
00000160: 7313 74bd 90a3 04bd 3bec 8bbc 2080 05bd
00000170: 6655 97bd a890 aabd fd7a 623c ac1f 473d
00000180: 6fbb 9c3d 9ad1 56bd 0c99 9d3d 9a32 31bd
00000190: e784 a83c fb71 373d 3ea6 bbbc 9c41 12bd
000001a0: bbfc 16bd 0afa dcbc 5e42 a43d 4e68 8dbd
000001b0: f636 b83c d6ec 233d d661 10bd 9ecb 2ebd
000001c0: 589b 2abd 2426 993d a6a1 423d d32c 71bd
000001d0: 6d3e f13c 5df2 cabc 5991 90bd f1b0 553d
000001e0: ef56 41bc 9a60 f93c 4ced 56bd 5d60 aa3d
000001f0: f014 823d 9ae0 033d d8fc 3bbd ea0e 20bc
00000200: fbd3 62bd 9e38 383d a136 22bd bef3 3a3d
00000210: 1259 6dbd 8add 803d 505a 223d 3671 903d
00000220: 00d3 9abd abd1 103b d88a 5d3d 6ba4 c73b
00000230: b6c6 c33c 4eb9 293d 2077 d53c 10e9 08bd
00000240: a848 723d 1298 78bb e099 873d a362 73bd
00000250: 3a04 abbc b836 1cbd 2ba5 7ebd 930c 9e3d
00000260: 3f9d 973d d5f0 243c 71f3 163d 1bd9 43bd
00000270: e6a9 143d 7b7f a0bd 6052 883d 7163 913b
00000280: f8d1 9abd 0b5b a33d 8cd4 17bd f872 23bd
00000290: 41e0 99bd bd7e a6bb a0b2 8e3d 2170 a6bd
000002a0: b788 4ebd 4b2e 883d bc2d 6b3d a811 2fbd
000002b0: f67f f7bc ab4e 38bc 30ac 953d ae0c 7ebd
000002c0: c67b 7bbb 9497 8e3d 384c c43a 9ce8 9b3d
000002d0: dfa5 633d 15f2 993d 747e a03d 3d7b 99bb
000002e0: f058 d7bc 860a 6f3d 836d 183d 66c2 6b3d
000002f0: 49c8 473d 7171 cc3b a32e 3fbc f823 86bc
00000300: ff3d 0f3d 25d8 81bc c8ee 34bd dbfe 94bd
00000310: e877 783d 4bd8 8ebd a386 6c3d 23d0 13bd
00000320: 66ca b53c ec88 833d e029 57bd 4a88 9cb9
00000330: dbb9 92bc fb5d 7dbc c834 063d 68f7 923a
00000340: 5a0e e6bb a6da d0bc 8dfd 343c 0c10 d5bc
00000350: 577f 5a3d 418b 6e3d 2151 05bd 2924 49bc
00000360: ffa3 9c3d b5f4 023d 85a5 87bc 44ba 303c
00000370: 52e4 a13d 0f85 93bd 91b1 73bd 3d88 013d
00000380: 3cd9 1c3b bce4 36bd 5428 843d edc8 7abb
00000390: e492 18bd 983c 82bd 1eae 3bbc 6dc8 44bd
000003a0: 6435 9c3d f30e 1b3d 637b 90bd 108d a83d
000003b0: af1f 783c 39b3 40bd 401a 1eb9 3a17 6cbd
000003c0: 18c5 8bbd c756 583c 58f1 31bd 9718 82bd
000003d0: ff86 1f3d 985b d0bc 2aed 333d 2a49 8d3d
000003e0: 2307 893d d6c0 dd3c 4577 703d ebe4 9b3d
000003f0: fb17 7ebd 6f14 64bd 92fd 773d 4cff 4bbd

encoder.encBlocks.2.conv2.bias f4 [16]
-0.001878712 -0.026822718 -0.05655089 -0.04678326 0.06088365 -0.033810936 -0.0130919935 0.005553291
-0.0045188665 0.0033834714 0.07554382 -0.04559824 0.005307003 0.08184622 0.01224285 0.04239335
00000000: 1d3f f6ba 51bb dbbc e8a1 67bd ce9f 3fbd
00000010: 2261 793d 567d 0abd cd7f 56bc 62f8 b53b
00000020: 0013 94bb 3bbd 5d3b b8b6 9a3d 38c5 3abd
00000030: 5ee6 ad3b fe9e a73d 3c96 483c a6a4 2d3d

encoder.encBlocks.3.conv1.weight f4 [32, 16, 3, 3]
0.036829423 0.013728597 -0.053013287 0.048089813 -0.021559926 -0.06667827 -0.049975097 -0.07727794
0.03858027 -0.06270859 -0.045470536 0.019004842 -0.04837772 0.03968898 0.06372788 -0.050201494
0.023880182 -0.08323647 -0.024838023 0.03184431 -0.02975303 0.003941411 -0.026811343 -0.060115807
0.053176682 -0.019406086 -0.028884696 -0.014642883 0.019103073 -0.04045323 -0.06695688 0.07128709
0.07211658 -0.025972575 0.04821777 -0.060809907 -0.0244673 -0.034243684 -0.026998505 0.025562366
-0.0386346 0.04618212 -0.063036196 0.03967601 0.027193021 0.033443235 -0.030425936 0.06402158
0.005042415 0.023097849 0.07247174 0.07849084 -0.054775547 -0.025935931 -0.07643571 0.029390102
0.0038551248 -0.010013904 -0.071711056 0.018820725 -0.059179127 -0.064307705 0.07864966 -0.056289535
0.069050804 -0.05600525 0.005697882 0.049739014 -0.031350397 -0.006877948 0.03678345 0.0693389
-0.08264999 0.047379404 -0.03684929 -0.022957494 -0.025588632 0.072091505 0.05760197 -0.046173226
0.03231616 -0.0532692 0.0040057283 -0.03700825 0.06756057 0.06704973 0.070694715 -0.043964844
0.061689645 0.060509264 0.03874312 -0.021850837 0.053010453 0.017771296 0.062277086 0.07930671
-0.079890095 0.059442062 -0.074804574 -0.015940877 0.070743464 0.034468424 -0.050040532 -0.03957067
0.037127454 -0.06410253 -0.043145355 -0.0032247754 -0.044293493 0.03191927 -0.023225268 -0.06167405
0.01582409 -0.036475968 0.016421735 -0.05251507 -0.015339415 0.06574015 -0.016445076 0.05786005
-0.027770411 0.07051839 0.0013961134 -0.009058037 -0.00019982674 0.07868853 0.05748291 -0.016881226
0.006574596 0.03349931 -0.044523556 0.07039564 0.047215726 -0.02624252 -0.036183357 -0.07990165
-0.036512613 0.02406165 0.046748243 -0.06382218 0.007150695 0.06669502 -0.00496124 0.025962114
0.0040151775 0.056694917 0.0023861132 0.030617734 -0.034298908 -0.0131179 0.016464889 -0.022095254
-0.05188798 -0.0035983867 -0.05800762 -0.05614063 -0.036227494 -0.015057932 -0.047198713 0.06690183
0.06694694 -0.0787818 -0.0020635324 0.052125704 -0.039570242 0.0020324835 -0.081548795 -0.0016179103
0.042124033 -0.06054809 -0.020285647 -0.07054012 -0.07089283 -0.029578269 0.07027598 -0.052308023
-0.0806555 -0.01602447 -0.04532085 0.037691027 0.046942722 -0.04325835 -0.036191314 0.06360227
-0.028291494 -0.076713555 0.04322821 0.02909418 0.010483772 0.063179046 -0.06561189 -0.0039350237
-0.050400835 -0.0770803 0.033662617 -0.03610622 0.048844516 0.053852618 -0.07453489 0.074803226
0.08042129 0.054869752 -0.0030969519 -0.0015123637 -0.040293854 0.051926654 0.042718172 -0.053437315
-0.035855584 -0.036993634 -0.061877154 -0.073510855 0.03433332 0.020738741 0.02290706 0.016140332
-0.032598853 0.01344044 0.06838172 0.034192048 -0.0011405109 0.07771217 0.0051746666 0.012118797
-0.033602864 -0.009328207 -0.018657625 0.06178662 -0.003936443 -0.05926626 -0.036959827 0.01852133
0.034814995 -0.029388815 0.014724445 0.07598215 -0.073080204 0.03956484 0.056697927 0.0431272
0.032941572 0.03109476 0.058843743 0.05731411 0.059153866 -0.025699686 -0.017708313 -0.03921347
0.010490195 0.028461924 -0.004347501 -0.050339025 -0.038328856 0.0047167046 -0.08051299 0.07515298
00000000: 73da 163d e9ed 603c 7624 59bd d3f9 443d
00000010: 719e b0bc 9e8e 88bd b0b2 4cbd e643 9ebd
00000020: 5806 1e3d 5c6d 80bd 503f 3abd 0bb0 9b3c
00000030: b727 46bd e990 223d c383 823d 15a0 4dbd
00000040: 5fa0 c33c e277 aabd 1c79 cbbc 2e6f 023d
00000050: a0bc f3bc f426 813b 76a3 dbbc fe3b 76bd
00000060: cbcf 593d 83f9 9ebc 999f ecbc b4e8 6fbc
00000070: 0c7e 9c3c 49b2 25bd b020 89bd f7fe 913d
00000080: dcb1 933d 70c4 d4bc ff7f 453d cf13 79bd
00000090: a66f c8bc 1b43 0cbd f82b ddbc 2b68 d13c
000000a0: 503f 1ebd 7629 3d3d 1f19 81bd 5083 223d
000000b0: e6c3 de3c c6fb 083d d03f f9bc bf1d 833d
000000c0: d83a a53b b337 bd3c 106c 943d cebf a03d
000000d0: 535c 60bd 9777 d4bc 538a 9cbd 83c3 f03c
000000e0: 43a6 7c3b 5c11 24bc 3fdd 92bd ec2d 9a3c
000000f0: d065 72bd c2b3 83bd 1313 a13d db8f 66bd
00000100: 826a 8d3d c365 65bd 4cb5 ba3b 23bb 4b3d
00000110: 4669 00bd 6960 e1bb 3eaa 163d 8e01 8e3d
00000120: 6644 a9bd e810 423d 48ef 16bd 5b11 bcbc
00000130: 409f d1bc b6a4 933d 0bf0 6b3d 2320 3dbd
00000140: f35d 043d ce30 5abd 7c42 833b f695 17bd
00000150: 325d 8a3d 5e51 893d 64c8 903d 7b14 34bd
00000160: 48ae 7c3d 90d8 773d 1bb1 1e3d 8700 b3bc
00000170: 7d21 593d 1c95 913c 4216 7f3d 8e6b a23d
00000180: 6b9d a3bd 8579 733d 2433 99bd 7196 82bc
00000190: f3e1 903d c32e 0d3d 4df7 4cbd db14 22bd
000001a0: f512 183d 3048 83bd 2fb9 30bd c156 53bb
000001b0: 186d 35bd c8bd 023d eb42 bebc ee9d 7cbd
000001c0: 86a1 813c d367 15bd e086 863c 0b1a 57bd
000001d0: 2b52 7bbc c6a2 863d d3b7 86bc a9fe 6c3d
000001e0: c67e e3bc f26b 903d cbfd b63a 2968 14bc
000001f0: 9588 51b9 7427 a13d 3373 6b3d 7f4a 8abc
00000200: b56f d73b 9336 093d 555e 36bd 972b 903d
00000210: 4765 413d 8efa d6bc 0035 14bd 7aa3 a3bd
00000220: 408e 15bd f01c c53c 167b 3f3d 34b5 82bd
00000230: 6150 ea3b 6697 883d e691 a2bb 80ae d43c
00000240: c091 833b ee38 683d 5660 1c3b 0bd2 fa3c
00000250: 037d 0cbd 76ec 56bc 60e1 863c 1b01 b5bc
00000260: 7e88 54bd e9d2 6bbb 6699 6dbd b8f3 65bd
00000270: 4863 14bd 8bb5 76bc 7053 41bd d403 893d
00000280: 7a1b 893d 5a58 a1bd 543c 07bb c381 553d
00000290: 6814 22bd 6a33 053b 0e03 a7bd 1010 d4ba
000002a0: 408a 2c3d 4601 78bd 162e a6bc 5777 90bd
000002b0: 4330 91bd 204e f2bc daec 8f3d f040 56bd
000002c0: b62e a5bd c045 83bc 5ba2 39bd e861 1a3d
000002d0: 0347 403d ab2f 31bd 583d 14bd e841 823d
000002e0: 90c3 e7bc ff1b 9dbd 1010 313d eb56 ee3c
000002f0: 20c4 2b3c 0464 813d 875f 86bd 5ff1 80bb
00000300: 1b71 4ebd 47dc 9dbd d0e1 093d 1ee4 13bd
00000310: 3011 483d 9094 5c3d c0a5 98bd 6f32 993d
00000320: ebb3 a43d 1bbf 603d 3bf6 4abb 813a c6ba
00000330: 2b0b 25bd 0bb1 543d 40f9 2e3d 16e1 5abd
00000340: 4edd 12bd a386 17bd e672 7dbd dc8c 96bd
00000350: 18a1 0c3d 4be4 a93c 96a7 bb3c bb38 843c
00000360: 6086 05bd 4b35 5c3c b70b 8c3d f60c 0c3d
00000370: 327d 95ba 8f27 9f3d 4090 a93b eb8d 463c
00000380: 28a3 09bd 56d5 18bc e0d7 98bc f813 7d3d
00000390: 47fd 80bb 2ec1 72bd 3063 17bd 0bba 973c
000003a0: 2b9a 0e3d d0c0 f0bc cc3e 713c 889c 9b3d
000003b0: 13ab 95bd be0e 223d 163c 683d 26a6 303d
000003c0: beed 063d 70ba fe3c 2306 713d 33c2 6a3d
000003d0: 534b 723d 2688 d2bc 0611 91bc 4e9e 20bd
000003e0: 11df 2b3c fb28 e93c 7b75 8ebb 4b30 4ebd
000003f0: b8fe 1cbd 968e 9a3b ffe3 a4bd cee9 993d

encoder.encBlocks.3.conv1.bias f4 [32]
-0.0026258908 0.08017412 -0.073867396 -0.06321035 0.010559539 0.06463657 0.07701035 -0.0050860643
0.011155258 0.0045165718 0.023926755 0.011393925 -0.050278604 -0.038773328 -0.028030565 0.047699325
0.049280167 -0.061726414 0.019793263 -0.069986284 -0.012697756 -0.02126363 0.07897844 0.044636797
0.019850453 0.06790267 -0.048501126 0.06766545 -0.03721568 0.048755378 -0.08154353 -0.009981891
00000000: 2317 2cbb 5432 a43d ca47 97bd 6e74 81bd
00000010: eb01 2d3c 2e60 843d 9ab7 9d3d 00a9 a6bb
00000020: 8bc4 363c c0ff 933b 0b02 c43c 96ad 3a3c
00000030: f0f0 4dbd c8d0 1ebd 5ba0 e5bc 5e60 433d
00000040: 00da 493d d6d4 7cbd 7b25 a23c f854 8fbd
00000050: 400a 50bc 1031 aebc 73bf a13d 13d5 363d
00000060: 6b9d a23c 8e10 8b3d 1ea9 46bd 2f94 8a3d
00000070: 786f 18bd b8b3 473d 4b00 a7bd 168b 23bc

encoder.encBlocks.3.conv2.weight f4 [32, 32, 3, 3]
0.024787439 -0.007460562 -0.054505963 0.031344827 0.0056246393 -0.04577459 -0.03261578 0.017132152
-0.0077687027 -0.013807778 0.020162709 -0.01224609 -0.020766504 -0.052815642 0.014504058 -0.036350224
-0.036264125 -0.027453348 -0.03133913 0.008120826 -0.040685054 0.026915785 -0.039199036 -0.02987578
0.046242364 -0.018367408 -0.043975223 0.030661024 0.0005625729 -0.0100750355 -0.044578545 -0.043253202
0.031648643 -0.0024887293 -0.023744762 0.041383106 -0.0019958077 -0.05646204 -0.01763967 0.01276718
-0.04117003 -0.005609373 -0.0035796794 0.028217414 0.042442475 -0.044812884 -0.03614522 0.033980172
0.04903969 0.012360828 0.017465964 0.03348419 -0.030264929 0.05361262 -0.021433288 0.037461206
0.02725147 0.05330878 -0.04080691 -0.022705765 0.011760847 0.008339021 -0.023457875 -0.02690673
0.0046704398 -0.015716946 -0.05669077 -0.011389813 0.0044235718 0.028512836 -0.015124642 0.009266097
0.027641343 0.0027407042 -0.028002318 0.014231824 -0.016449437 0.05574707 0.0150400745 0.056592435
-0.056199346 0.030980308 0.018233577 -0.015131976 -0.04930464 0.005937641 0.03658851 0.025738217
0.046729397 0.03285306 -0.009612898 -0.047906797 0.05139171 -0.024522182 0.040388945 -0.016024007
0.057246625 0.04713975 -0.041372 0.011475263 0.048560712 0.005393801 -0.056132656 0.01802103
-0.03865607 -0.029551027 0.05858046 -0.05721278 0.01185499 -0.0028200068 0.039550707 -0.048401188
-0.047056142 -0.053375795 0.002608152 0.021137137 -0.053475972 -0.04234655 0.015055767 -0.029812131
0.012835366 0.026129156 -0.013711747 0.04362121 0.055599287 0.04598087 0.056872007 0.020308776
0.03444699 -0.0020397343 0.054555487 0.009636233 -0.0041765007 -0.055320617 0.0019154381 -0.036670197
-0.008527043 -0.03677439 0.04799891 0.034161996 0.024951616 0.03345145 -0.01373057 0.04985209
-0.055764157 -0.043188993 0.016579643 -0.017496273 -0.011487623 -0.021227604 -0.031901576 -0.0075514577
-0.035061654 0.03154925 0.046211623 0.021423241 -0.0038161469 -0.04639901 0.011856571 -0.01923355
0.005837698 -0.038786728 -0.01469901 0.025242914 0.04998784 -0.0014024345 0.0076995194 0.033642936
0.020664573 0.018571258 0.05228679 0.021625604 -0.020173673 0.0053419867 0.03879156 -0.016850106
-0.016399374 -0.03544466 0.04214576 0.045338593 -0.047369152 -0.030014493 -0.020878475 0.036896434
0.047005713 0.047175102 -0.005464623 -0.038602855 0.05537416 0.0385204 -0.04721727 -0.04269055
0.027974978 0.035623558 -0.00445757 0.024722204 -0.036376286 -0.009826215 -0.035066318 -0.0301708
0.03921477 -0.05186086 0.014873805 -0.0117928 -0.03243174 0.011617357 0.050741054 -0.033138108
0.031987794 0.026038887 -0.015177278 -0.0524608 -0.057678897 -0.010214888 0.002852099 0.04342423
-0.045934588 0.051944178 0.029865678 -0.038689375 0.013600381 0.018801 0.037816547 -0.053302854
0.002764201 -0.044773158 -0.0073576174 -0.04896274 0.012508041 -0.05269562 0.04209594 0.044785045
0.044973288 0.036949497 0.04035065 -0.05707756 0.01891306 0.0114704175 -0.048089057 -0.05050122
-0.019331658 0.048739325 0.042391714 0.027442312 -0.030619228 0.008278855 0.020883173 -0.04777604
0.014605238 -0.04647089 -0.042335223 0.0044010724 0.021332832 0.015766546 0.036193836 -0.05580818
00000000: 070f cb3c bb77 f4bb a541 5fbd 6f63 003d
00000010: e54e b83b 237e 3bbd 2098 05bd ba58 8c3c
00000020: 9a90 febb 053a 62bc 442c a53c d3a3 48bc
00000030: 841e aabc 3755 58bd 6ea2 6d3c f9e3 14bd
00000040: b189 14bd d8e5 e0bc 765d 00bd 370d 053c
00000050: 5fa5 26bd 7e7e dc3c 2b8f 20bd 0dbe f4bc
00000060: a268 3d3d 3f77 96bc 5d1f 34bd d42c fb3c
00000070: a179 133a c311 25bc fe97 36bd 452a 31bd
00000080: 02a2 013d f319 23bb 6084 c2bc 5581 293d
00000090: 19cc 02bb bd44 67bd 1281 90bc 6f2d 513c
000000a0: e8a1 28bd d5ce b7bb 0e99 6abb 3528 e73c
000000b0: 29d8 2d3d b78d 37bd 030d 14bd cb2e 0b3d
000000c0: d8dd 483d 1285 4a3c c814 8f3c b826 093d
000000d0: 28ee f7bc e898 5b3d dd94 afbc ec70 193d
000000e0: 7a3e df3c 4f5a 5a3d 2525 27bd 7101 babc
000000f0: 91b0 403c 64a0 083c bb2a c0bc 816b dcbc
00000100: 7d0a 993b d3c0 80bc 9534 68bd 579c 3abc
00000110: 9cf3 903b c093 e93c 59cd 77bc d4d0 173c
00000120: 1970 e23c 639d 333b 1e65 e5bc 992c 693c
00000130: f8c0 86bc 0a57 643d a56a 763c 78cd 673d
00000140: 4931 66bd 6aca fd3c 955e 953c 1cec 77bc
00000150: aaf3 49bd 8b90 c23b d5dd 153d f4d8 d23c
00000160: 5367 3f3d ee90 063d 6b7f 1dbc eb39 44bd
00000170: 1d80 523d bee2 c8bc e16e 253d c744 83bc
00000180: 707b 6a3d 9c15 413d b075 29bd be02 3c3c
00000190: 99e7 463d 7bbe b03b 5beb 65bd d7a0 933c
000001a0: d455 1ebd ff14 f2bc 10f2 6f3d f357 6abd
000001b0: 6f3b 423c ddcf 38bb ecff 213d 5340 46bd
000001c0: f1bd 40bd 94a0 5abd 88ed 2a3b ca27 ad3c
000001d0: 9f09 5bbd 9373 2dbd 77ac 763c 9238 f4bc
000001e0: 6d4b 523c d00c d63c 3ca7 60bc 27ac 323d
000001f0: 14bc 633d 7056 3c3d 9ff2 683d 975e a63c
00000200: 4918 0d3d 10ad 05bb 9375 5f3d 4ae1 1d3c
00000210: 07db 88bb df97 62bd 700f fb3a 7d33 16bd
00000220: 03b5 0bbc bea0 16bd 819a 443d 73ed 0b3d
00000230: 5567 cc3c 6304 093d 2ff6 60bc b531 4c3d
00000240: f568 64bd f1e6 30bd 08d2 873c 5854 8fbc
00000250: 9536 3cbc 83e5 adbc 3aab 02bd 3872 f7bb
00000260: cf9c 0fbd c939 013d 6648 3d3d cb7f af3c
00000270: 5218 7abb e30c 3ebd 1042 423c ae8f 9dbc
00000280: 294a bf3b d5de 1ebd 1ed4 70bc 3aca ce3c
00000290: 0dc0 4c3d e5d1 b7ba 404c fc3b 2dcd 093d
000002a0: c048 a93c c022 983c ac2a 563d 2e28 b13c
000002b0: 4243 a5bc d50b af3b e6e3 1e3d 3c09 8abc
000002c0: fb57 86bc 6b2e 11bd 08a1 2c3d f6b4 393d
000002d0: 2806 42bd f4e0 f5bc 5609 abbc b720 173d
000002e0: 1089 403d ae3a 413d 9510 b3bb 071e 1ebd
000002f0: 04d0 623d 91c7 1d3d e566 41bd 49dc 2ebd
00000300: c82b e53c 02ea 113d cf10 92bb 3886 ca3c
00000310: 4dff 14bd 22fe 20bc b3a1 0fbd c128 f7bc
00000320: ab9f 203d 0e6c 54bd 43b1 733c 9736 41bc
00000330: 25d7 04bd ba56 3e3c dad5 4f3d d3bb 07bd
00000340: a205 033d 814f d53c 1eaa 78bc 23e1 56bd
00000350: b540 6cbd 585c 27bc 48ea 3a3b 9bdd 313d
00000360: e825 3cbd 6bc3 543d dea8 f43c c078 1ebd
00000370: 22d4 5e3c 8e04 9a3c 86e5 1a3d 1854 5abd
00000380: 9927 353b 0f64 37bd 2b18 f1bb 278d 48bd
00000390: 87ee 4c3c 5dd7 57bd cb6c 2c3d 8670 373d
000003a0: e935 383d 5b58 173d b946 253d 29ca 69bd
000003b0: 90ef 9a3c 6bee 3b3c 08f9 44bd 5eda 4ebd
000003c0: 6d5d 9ebc e3a2 473d efa2 2d3d b3ce e03c
000003d0: 2dd5 fabc 09a4 073c 3013 ab3c cfb0 43bd
000003e0: cf4a 6f3c 4358 3ebd b367 2dbd df36 903b
000003f0: 31c2 ae3c d828 813c fd3f 143d 1e97 64bd

encoder.encBlocks.3.conv2.bias f4 [32]
0.013226552 0.036815792 -0.013844264 0.03567675 -0.058844462 0.019512031 -0.0302446 0.02010494
0.037101336 0.005604122 0.016319182 0.057459712 0.042712156 0.03729022 -0.009043591 -0.0012295502
0.047415134 -0.04337906 0.05078183 0.0033362112 -0.037901472 -0.029928597 0.049281925 -0.038933188
-0.027631264 0.044211842 -0.01779759 -0.0011792991 -0.020862015 -0.022221666 -0.024487179 0.0033094313
00000000: 2eb4 583c 28cc 163d 0dd3 62bc c921 123d
00000010: e406 71bd b2d7 9f3c 86c3 f7bc 1db3 a43c
00000020: 92f7 173d c8a2 b73b ceaf 853c e05a 6b3d
00000030: f1f2 2e3d a1bd 183d 922b 14bc dc28 a1ba
00000040: 5f36 423d 3eae 31bd 9c00 503d 56a4 5a3b
00000050: 933e 1bbd d12c f5bc d8db 493d 6878 1fbd
00000060: f65a e2bc 7a17 353d 40cc 91bc b692 9aba
00000070: d1e6 aabc 360a b6bc 5699 c8bc 0be3 583b
