models/weights_last.pt (torch, 133817 bytes, 36 tensors)

encoder.encBlocks.0.conv1.weight f4 [4, 1, 3, 3]
0	0x3e013229	0.12616791
1	0x3e96a6db	0.29424176
2	0x3e804b63	0.25057516
3	0x3de78489	0.11304576
4	0x3e8ad751	0.27117398
5	0xbdf5d833	-0.12004127
6	0xbddd59c4	-0.10808137
7	0xbe8d226f	-0.27565333
8	0xbe2115f8	-0.15731037
9	0x3e4e5418	0.20149267
10	0x3c892047	0.016739024
11	0xbccdc5d6	-0.02511875
12	0xbe779dff	-0.24181364
13	0xbe7b998f	-0.24570297
14	0x3e48a6e1	0.19594909
15	0xbe850f6d	-0.2598833
16	0xbe74ebc2	-0.2391806
17	0xbe09932d	-0.1343505
18	0xbe8da66d	-0.27666035
19	0xbdc6921f	-0.09695839
20	0xbb18f628	-0.002334008
21	0xbe15fd50	-0.14647412
22	0xbe994dd6	-0.29942197
23	0x3e3d46d3	0.18484049
24	0x3e25d952	0.16196182
25	0xbd6b2e9b	-0.057417493
26	0x3e46913e	0.19391343
27	0x3e4704a5	0.19435365
28	0x3e676979	0.22598828
29	0x3e84c5f8	0.25932288
30	0x3e98713d	0.29773894
31	0x3df2210a	0.11822708
32	0x3e4c37a4	0.199431
33	0xbe501035	-0.20318682
34	0xbe407858	-0.18795907
35	0xbd37ea7c	-0.044901356

encoder.encBlocks.0.conv1.bias f4 [4]
0	0x3dee8989	0.116473265
1	0xbe3a7260	-0.18207693
2	0xbde1602a	-0.1100467
3	0x3dfbabb7	0.122886114

encoder.encBlocks.0.conv2.weight f4 [4, 4, 3, 3]
0	0xbd4c30e2	-0.049851306
1	0xbdac7e08	-0.08422476
2	0xbd0b2478	-0.033970326
3	0x3dee400c	0.1163331
4	0x3dd9f9a2	0.10643317
5	0x3d74fcd3	0.059811424
6	0x3de8951d	0.11356566
7	0x3d87f2f0	0.066381335
8	0xbda33bb2	-0.0797037
9	0x3d5f1fc5	0.054473657
10	0x3df28a3c	0.11842772
11	0x3d992d1c	0.07479307
12	0x3e1327a0	0.14370584
13	0x3d9bb98c	0.0760375
14	0xbd96e213	-0.07367339
15	0x3dac2875	0.08406154
16	0x3e0170fc	0.12640756
17	0x3d34a2d9	0.044100616
18	0xbe2594ce	-0.16170046
19	0x3b8675b7	0.004103388
20	0x3c336f5c	0.010951843
21	0x3d572cc5	0.05253293
22	0xbce54559	-0.02798717
23	0x3d23cd77	0.03999087
24	0x3c439e2b	0.011939566
25	0xbe02b1cc	-0.12763137
26	0x3cab59a5	0.02091677
27	0xbe0259d6	-0.12729582
28	0xbc71df6d	-0.0147627415
29	0x3e0dd655	0.13851292
30	0xbda76d38	-0.08175129
31	0x3da4801d	0.08032248
32	0xbe147b49	-0.14500155
33	0xbcfe9a10	-0.031079322
34	0xbdfafb82	-0.122550026
35	0xbaaeb6f1	-0.0013329667
36	0x3d3016cb	0.042990487
37	0x3daa2d0e	0.08309375
38	0x3db6b5a0	0.08921361
39	0x3d523b6e	0.051326208
40	0x3daa4c13	0.08315291
41	0x3e1b3a24	0.15158898
42	0x3de30328	0.110845864
43	0xbdf719a3	-0.12065437
44	0x3e0df604	0.13863379
45	0xbde05241	-0.10953189
46	0xbcf2a479	-0.029619442
47	0x3e164924	0.14676338
48	0xbcfc3714	-0.030787982
49	0xbe10c829	-0.14138855
50	0x3d031eb0	0.032011688
51	0x3e12f3ef	0.14350866
52	0xbda47998	-0.08031005
53	0x3defd229	0.11710007
54	0x3e3141e2	0.17310289
55	0x3d08ebca	0.03342799
56	0xbddea4f2	-0.108713046
57	0xbda9c6a1	-0.082898386
58	0x3dff54d8	0.124673545
59	0x3d3ac0cf	0.045594033
60	0x3d8cd668	0.06876832
61	0xbe1a7e30	-0.15087199
62	0x3e06a327	0.13148175
63	0xbdb68a85	-0.08913139
64	0xbd168e18	-0.036756605
65	0xbb48aa81	-0.0030619206
66	0xbdc48d64	-0.095972806
67	0x3dc8bd0f	0.09801685
68	0x3e02b5ed	0.12764712
69	0xbdbb80ae	-0.09155403
70	0x3df5b125	0.11996678
71	0xbc98f428	-0.01867111
72	0xbe074934	-0.13211519
73	0xbe1d462a	-0.15358797
74	0x3de943f9	0.11389918
75	0x3dacf425	0.084450044
76	0x3d7052c0	0.058672667
77	0xbc8443e2	-0.01614565
78	0xbc74f344	-0.014950577
79	0x3d2b3b6f	0.041804727
80	0x3d8270ea	0.06369193
81	0x3cbb4191	0.022858413
82	0x3e1bebbc	0.15226644
83	0x3df08f47	0.11746078
84	0x3dfc790a	0.12327774
85	0x3df5a691	0.11994661
86	0x3e144b9a	0.14481965
87	0xbd761c03	-0.060085308
88	0xbd779217	-0.060442057
89	0xbdfbb345	-0.12290052
90	0xbcc6065b	-0.024172952
91	0x3dda1c58	0.106499374
92	0x3e186ac2	0.14884475
93	0x3d121c71	0.035671655
94	0x3e1526dd	0.14565606
95	0xbe214387	-0.15748416
96	0x3d985b9d	0.07439349
97	0xbd89f179	-0.067355104
98	0x3dec6230	0.11542165
99	0x3e3d739b	0.18501131
100	0x3d9c43ed	0.07630143
101	0x3ddbd637	0.107342176
102	0x3d8c7abd	0.06859348
103	0x3d964f43	0.07339337
104	0x3d957c9f	0.0729916
105	0x3db7df44	0.089781314
106	0xbd516b3c	-0.051127657
107	0x3e0e20d5	0.13879712
108	0xbd8617a4	-0.06547478
109	0x3cdedada	0.027203966
110	0xbdd7c021	-0.105346926
111	0xbd373ff8	-0.04473874
112	0xbd084aee	-0.033274584
113	0xbe2a308b	-0.1662008
114	0x3df69e7f	0.120419495
115	0xbd04f325	-0.032458443
116	0xbe12b38b	-0.14326303
117	0x3deafbf2	0.11473836
118	0x3c8fda84	0.017560251
119	0x3d80932a	0.06278069
120	0x3d4eccea	0.05048839
121	0xbe26abe7	-0.16276513
122	0x3d1e8377	0.038699593
123	0x3cae4ee5	0.021277854
124	0xbde58a49	-0.112080164
125	0xbe022f15	-0.12713273
126	0x3e1eeee9	0.15520824
127	0x3d6b57de	0.057456844
128	0xbc9b29c8	-0.018940821
129	0xbdb95870	-0.09050071
130	0xbdd28c65	-0.102806844
131	0xbcff87b8	-0.031192645
132	0xbdf15045	-0.11782888
133	0xbd173c23	-0.036922585
134	0xbd97cc35	-0.07411996
135	0x3df46185	0.11932663
136	0x3caf9f72	0.021438334
137	0xbe22d09e	-0.15899894
138	0x3debcb3c	0.11513373
139	0x3e064bd3	0.13114862
140	0xbd94fdd5	-0.07274977
141	0xbb168cf0	-0.002297219
142	0xbdbc2a4b	-0.09187754
143	0xbd3946c1	-0.04523349

encoder.encBlocks.0.conv2.bias f4 [4]
0	0xbd5011d7	-0.050798263
1	0x3d6aa34e	0.057284646
2	0xbc7b4d32	-0.015338229
3	0xbe084d12	-0.1331065

encoder.encBlocks.1.conv1.weight f4 [8, 4, 3, 3]
0	0xbdcf5950	-0.10124457
1	0x3d538b7d	0.0516467
2	0x3aff1c46	0.0019463382
3	0xbca6d7be	-0.020366546
4	0x3ddc5c7c	0.107598275
5	0x3df81915	0.12114159
6	0x3d397878	0.045280904
7	0xbdd3a134	-0.103334814
8	0x3e10044f	0.14064144
9	0xbe010cc0	-0.1260252
10	0x3c033c45	0.008009975
11	0x3d665da3	0.056241643
12	0xbcdf748e	-0.027277257
13	0x3d04320c	0.03227429
14	0xbd7b6c0e	-0.061382346
15	0x3d982af1	0.074300654
16	0x3d57bb55	0.052668888
17	0xbd642195	-0.05569609
18	0xbd88b92d	-0.066759445
19	0xbb965027	-0.0045871916
20	0xbe14a8ba	-0.14517489
21	0x3dd1f17a	0.10251136
22	0x3e152772	0.14565828
23	0xbe210992	-0.15726307
24	0xbd3a4c8b	-0.045483153
25	0xbdee2608	-0.11628348
26	0x3cd8907d	0.026436085
27	0x3d432bb9	0.04764912
28	0xbe219f27	-0.15783368
29	0xbcdcda37	-0.026959522
30	0x3dada6be	0.08479069
31	0xbe0d3875	-0.13791068
32	0xbb581be9	-0.003297562
33	0x3ccc8eef	0.0249705
34	0xbdb17948	-0.08665711
35	0x3dcc5641	0.09977389
36	0xbd4a000c	-0.04931645
37	0xbe10c39e	-0.14137122
38	0x3e09fb39	0.1347474
39	0xbcffc3f0	-0.03122136
40	0xbce42163	-0.027847951
41	0xbcde1547	-0.027109755
42	0x3deb27ed	0.114822246
43	0xbe1e178a	-0.15438667
44	0xbd8ba6f3	-0.068189524
45	0xbdc06c23	-0.093956254
46	0x3d88edde	0.066859946
47	0xbcdb9fed	-0.026809657
48	0xbd3c90f4	-0.046036676
49	0xbc20d4f4	-0.009816397
50	0x3db5a222	0.08868815
51	0x3e210b50	0.15726972
52	0xbe05a359	-0.13050593
53	0x3d214393	0.039371084
54	0xbd13a659	-0.036047313
55	0xbde32698	-0.110913455
56	0xbdca71c4	-0.0988498
57	0x3d0fab84	0.03507568
58	0x3dc8a40f	0.09796917
59	0xbe28026e	-0.16407177
60	0x3d6a861e	0.05725681
61	0xbe0e73d4	-0.13911372
62	0x3c8b4a45	0.017003188
63	0xbde9738f	-0.11398994
64	0xbd5a2bb6	-0.053264342
65	0xbbe10a1c	-0.00686766
66	0xbc8e8e29	-0.017401772
67	0x3e0bc89a	0.13650742
68	0xbdf3a796	-0.11897199
69	0x3ce04bab	0.027379831
70	0x3d04d2fb	0.03242777
71	0xbd6072c4	-0.05479695
72	0x3dcf44db	0.10120555
73	0x3e13ce7c	0.14434236
74	0x3e1fd88e	0.15609953
75	0xbdf5e876	-0.12007229
76	0x3dd815d7	0.105510406
77	0xbbbbb8a3	-0.0057287975
78	0xbcadca59	-0.021214651
79	0x3e0a774f	0.13522075
80	0x3e1f9860	0.1558547
81	0x3cea29b6	0.028584342
82	0x3d196a54	0.037454918
83	0xbdffdae5	-0.12492923
84	0xbe28b784	-0.16476256
85	0x3e02aa6a	0.1276032
86	0x3e07ac5d	0.13249345
87	0xbd5fbc5d	-0.054622997
88	0xbda306c5	-0.079602756
89	0xbe18c97d	-0.14920612
90	0xbc6c3868	-0.014417745
91	0x3c37d877	0.011221043
92	0xbc9f8e6c	-0.019477092
93	0x3d82c20b	0.06384667
94	0x3d3d6da8	0.046247154
95	0x3dd88a98	0.1057331
96	0xbd4b52d4	-0.049639538
97	0x3c91927d	0.017770046
98	0x3e257ed8	0.16161668
99	0x3e1c1e0e	0.1524584
100	0xbe0734f2	-0.13203791
101	0xbde7b160	-0.113131285
102	0xbe214df1	-0.15752389
103	0xbda2d5c2	-0.07950927
104	0xbd430f25	-0.047621865
105	0x3e1a86f6	0.15090546
106	0x3d61db55	0.055140812
107	0xbe23158a	-0.15926185
108	0xbe0d6092	-0.1380637
109	0xbe295c9c	-0.16539234
110	0x3e1512c0	0.14557934
111	0x3dce8edf	0.10085844
112	0x3dd2e731	0.102980025
113	0xbda3a97c	-0.07991311
114	0x3e22b71c	0.15890163
115	0xbd47e5be	-0.048803084
116	0xbdf7b32a	-0.1209472
117	0xbd52c02e	-0.051452808
118	0x3d4f26c1	0.050574068
119	0x3d64c7f5	0.055854756
120	0x3dbcf188	0.09225756
121	0xbdbcd9f1	-0.092212565
122	0x3df9ea03	0.12202837
123	0xbd856a73	-0.06514444
124	0x3e16877c	0.1470012
125	0x3d93aacc	0.07210311
126	0x3d34d938	0.04415247
127	0x3e27288a	0.16324058
128	0xbdee8057	-0.11645573
129	0x3e0d9a39	0.13828363
130	0x3d85b4f3	0.06528654
131	0x3dd6ee78	0.10494703
132	0xbe101e5b	-0.1407408
133	0x3d6aae49	0.057295118
134	0x3d403811	0.04692847
135	0x3b873976	0.004126723
136	0x3d2a7bce	0.041621976
137	0x3c65dbe4	0.014029477
138	0xbc57dfc4	-0.0131759085
139	0x3e0ae680	0.13564491
140	0xbcb35d52	-0.021895085
141	0x3e247681	0.1606083
142	0x3e2153b8	0.15754592
143	0xbe153d66	-0.14574203
144	0x3e22eeef	0.15911458
145	0x3c552915	0.013010283
146	0xbdd36a59	-0.103230186
147	0x3dcc89e7	0.0998724
148	0xbcd13823	-0.025539463
149	0x3dab7808	0.083725035
150	0x3e22a8d1	0.15884711
151	0x38cfb2e4	9.90385e-05
152	0xbe270060	-0.16308737
153	0xbe10697d	-0.1410274
154	0xbdf1808b	-0.11792096
155	0xbcf0955e	-0.029368099
156	0x3de4e3c1	0.11176253
157	0x3e228ff0	0.1587522
158	0x3c16807c	0.0091859065
159	0x3d8a36a5	0.06748704
160	0x3dcbbd3f	0.09948205
161	0xbc42a1a2	-0.011879357
162	0x3dcd6cbf	0.10030507
163	0xbe0b1581	-0.13582422
164	0xbdf00649	-0.11719949
165	0x3d3e4b2c	0.04645841
166	0xbc2d9319	-0.010594153
167	0xbd210037	-0.039306846
168	0xbdf9872e	-0.121839866
169	0xbe2427f5	-0.16030867
170	0xbe049a70	-0.12949538
171	0x3de1e5f0	0.11030185
172	0xbd735789	-0.059409652
173	0x3d7684d3	0.060185265
174	0xbdc67dcb	-0.09691962
175	0xbcc5e6da	-0.02415793
176	0x3d7fceb5	0.06245299
177	0xbcb5c936	-0.022190671
178	0x3e194953	0.14969377
179	0x3be74ceb	0.00705873
180	0x3d81fbfd	0.06346891
181	0xbd990e68	-0.07473451
182	0x3e08baa7	0.13352452
183	0xbe0702b2	-0.13184622
184	0xbcf0edcc	-0.029410265
185	0xbc95f265	-0.01830406
186	0x3c165120	0.009174615
187	0x3db7fc41	0.089836605
188	0xbd6e876e	-0.058234625
189	0xbcd729e0	-0.026265085
190	0xbdf20e5b	-0.11819144
191	0xbd837902	-0.06419565
192	0xbd5cfc7b	-0.05395172
193	0x3d947e35	0.072506346
194	0x3c43cd0b	0.0119507415
195	0xbe097c32	-0.13426283
196	0xbd9f1e82	-0.07769491
197	0x3e11d2f4	0.14240628
198	0x3e03fdc4	0.12889773
199	0xbe28369f	-0.16427086
200	0xbd3c1cc4	-0.04592587
201	0x3d0f6556	0.03500875
202	0x3c7a4bcc	0.01527686
203	0x3df6556d	0.120280124
204	0xbd95b9e1	-0.07310844
205	0x3dd39a48	0.10332161
206	0xbdcd7316	-0.100317165
207	0x3df4ac8c	0.11946973
208	0xbad5cae6	-0.0016311079
209	0x3df7d14b	0.12100466
210	0xbd267ea3	-0.040648114
211	0x3de03b1f	0.109487765
212	0xbdc4ab1f	-0.09602951
213	0x3e0919bc	0.13388723
214	0xbd918221	-0.07104898
215	0xbacbadaf	-0.0015539433
216	0x3ce162ab	0.027512869
217	0xbc6f6f6b	-0.014613966
218	0x3e27ffa4	0.16406113
219	0xb9e4354e	-0.00043527264
220	0xbde095a8	-0.10966045
221	0xbe1c4564	-0.15260845
222	0xbcb2d200	-0.021828651
223	0xbe27e457	-0.16395698
224	0xbd5250e0	-0.05134666
225	0x3dd1e7b6	0.102492735
226	0xbd0d39cb	-0.034478944
227	0xbd4a6bd6	-0.049419247
228	0x3da7f1d0	0.08200419
229	0x3d7c96cb	0.061667245
230	0x3c1b8556	0.009492239
231	0xbe1d7147	-0.15375243
232	0xbd485580	-0.048909664
233	0xbc2c552b	-0.0105183525
234	0xbc5b5940	-0.013387978
235	0xbe1bb21c	-0.15204662
236	0x3d506a46	0.0508826
237	0x3cb84ff6	0.022499066
238	0xbe27ff5e	-0.16406009
239	0xbd87615b	-0.06610366
240	0xbd877be8	-0.0661543
241	0xbddafcc0	-0.106927395
242	0xbe0bbb0c	-0.13645571
243	0x3dab4543	0.0836282
244	0x3cbfb04b	0.023399493
245	0xbe28314b	-0.16425054
246	0xbe0fceab	-0.14043681
247	0xbc4dfc96	-0.012572428
248	0xbd40f790	-0.047111094
249	0xbda700b0	-0.08154428
250	0xbd046316	-0.03232106
251	0xbc17fa6b	-0.009276013
252	0x3e13ccfa	0.14433661
253	0x3e279ad6	0.16367659
254	0x3dde0ddf	0.108424895
255	0x3dfbc582	0.12293531

encoder.encBlocks.1.conv1.bias f4 [8]
0	0x3d99f482	0.07517339
1	0x3d3771b7	0.04478618
2	0xbd508c85	-0.05091526
3	0xbe1823e0	-0.14857435
4	0x3e0434be	0.12910745
5	0xbd120428	-0.035648495
6	0xbe0368c7	-0.12832938
7	0x3e28fce6	0.16502723

encoder.encBlocks.1.conv2.weight f4 [8, 8, 3, 3]
0	0x3be417e7	0.006960857
1	0xbd8fd994	-0.070239216
2	0xbdc1b405	-0.09458164
3	0xbda30126	-0.079592034
4	0xbdb731e6	-0.08945064
5	0xbdd6b4e3	-0.1048372
6	0xbc22e276	-0.009941688
7	0xbd8671ba	-0.0656466
8	0xbc6d2d10	-0.014476076
9	0xbd18deb1	-0.03732175
10	0xbd9e64e2	-0.077340856
11	0xbd31413c	-0.043275103
12	0xbcf5a231	-0.029984565
13	0xbde22ec3	-0.11044075
14	0x3d22101d	0.039566148
15	0x3de78668	0.11304933
16	0x3d2098bb	0.039208155
17	0x3d1b3f2d	0.037902046
18	0x3d46ae64	0.048506156
19	0x3d9f289b	0.07771417
20	0x3dd3966c	0.10331425
21	0xbbccf744	-0.0062550623
22	0xbd96c73d	-0.073622204
23	0xbc8b44fa	-0.017000664
24	0xbd5b8a83	-0.053598892
25	0xbd0cf626	-0.034414433
26	0x3cdbd67e	0.026835676
27	0xbc06c62d	-0.00822596
28	0xbda93fbc	-0.082641095
29	0xbb8dac86	-0.004323545
30	0xbde7b7d4	-0.11314359
31	0xbcfb2908	-0.030659214
32	0xbde055e9	-0.10953886
33	0xbd87fb7e	-0.06639765
34	0xbd0da60d	-0.034582186
35	0x3dd85964	0.10563925
36	0x3d1621e7	0.036653426
37	0x3dd9b3ee	0.10630022
38	0xbd831e85	-0.064023055
39	0x3d9c2e28	0.07625991
40	0x3d1e1031	0.03858966
41	0x3def7461	0.116921194
42	0xbd92fbbc	-0.07176921
43	0x3db77199	0.08957214
44	0x3dab0cea	0.083520725
45	0xbdc3c303	-0.0955868
46	0xbd9024dd	-0.07038281
47	0x3dbfd8a5	0.093674935
48	0xbdd16543	-0.10224392
49	0xbbaf221e	-0.0053446433
50	0x3cd3e241	0.025864722
51	0xbdcf49f6	-0.10121529
52	0xbd54d972	-0.051965185
53	0xbc2fed9c	-0.010737803
54	0x3d7235aa	0.05913321
55	0xbd17c72e	-0.037055187
56	0xbd870e20	-0.06594491
57	0x3db6c987	0.08925157
58	0xbd54e144	-0.051972643
59	0x3da4429e	0.08020519
60	0xbcd47ed1	-0.025939377
61	0x3db37b2c	0.087637275
62	0x3ca1d12c	0.019753061
63	0x3c5f755f	0.013638823
64	0x3d53104f	0.051529225
65	0x3dc1eb6b	0.094687305
66	0xbd1b5d6b	-0.037930887
67	0x3dd580c3	0.1042495
68	0xbd8f063c	-0.06983611
69	0x3bfec527	0.0077749672
70	0x3cee687c	0.029102556
71	0xbdd2862a	-0.10279496
72	0xbdaf7baf	-0.08568513
73	0x3c94a34f	0.018144278
74	0x3d893ddb	0.06701251
75	0x3ce105ff	0.02746868
76	0x3aaf1b8e	0.0013359652
77	0xbd39b67c	-0.045340046
78	0x3d37165f	0.04469907
79	0xbd669b87	-0.056300666
80	0x3d46da49	0.048548017
81	0xbd7a2cd8	-0.061077923
82	0x3ae0adda	0.0017141656
83	0xbab4db2f	-0.0013798232
84	0x3dcd377a	0.10020347
85	0x3dda5693	0.10661044
86	0x3d8fb666	0.070172116
87	0x3b647bed	0.0034863905
88	0x3ddd56dc	0.10807583
89	0xbd667035	-0.056259353
90	0xbd16a392	-0.036777087
91	0x3d634a3b	0.055490714
92	0x3dc676dc	0.096906394
93	0xbd209189	-0.039201293
94	0x3df0248e	0.11725722
95	0x3debcfb3	0.11514225
96	0xbdeebe2e	-0.11657368
97	0xbbb77c09	-0.005599503
98	0x3defed13	0.1171514
99	0x3d06c810	0.03290564
100	0xbcfcbb79	-0.030851113
101	0xbda491ad	-0.08035598
102	0xbdb5ea44	-0.08882573
103	0xbda51baa	-0.08061917
104	0xbd197c89	-0.03747228
105	0x3d3c5f2c	0.0459892
106	0x3dda9b40	0.10674143
107	0xbd517d9e	-0.05114519
108	0xbda93d29	-0.082636185
109	0xbde67481	-0.1125269
110	0x3dc353bb	0.09537455
111	0xbda36275	-0.079777636
112	0x3c476c73	0.012171852
113	0x3d5789a5	0.052621502
114	0x3de1e1c3	0.11029389
115	0xbd67fb7c	-0.05663632
116	0x3d13c96e	0.03608077
117	0x3d39bfe2	0.04534901
118	0xbd743928	-0.05962482
119	0xbd368ba9	-0.044566784
120	0xbb1272ae	-0.0022346186
121	0xbdeeb6c7	-0.11655956
122	0xbd7121c4	-0.058870092
123	0x3d3a354a	0.045460977
124	0x3ca1100d	0.019660974
125	0xbb67fc21	-0.0035398083
126	0x3ca0f3d2	0.019647513
127	0x3d924068	0.07141191
128	0x3df023bd	0.117255665
129	0xbdb44c52	-0.088036194
130	0xbd793077	-0.060837235
131	0x3d4e0e09	0.050306354
132	0x3d93ae81	0.07211018
133	0x3d196164	0.037446395
134	0xbdd43621	-0.10361887
135	0x3d9a4024	0.07531765
136	0x3c8cc2db	0.017182758
137	0x3dcdf6dd	0.10056851
138	0xbd9019bb	-0.07036158
139	0xbde3987d	-0.11113069
140	0x3dd302ce	0.10303269
141	0x3de0e222	0.109806314
142	0x3c295f09	0.0103376
143	0x3d363a60	0.044489264
144	0xbcd51860	-0.0260126
145	0x3d705100	0.058670998
146	0xbdc24407	-0.094856314
147	0xbdc91e42	-0.09820224
148	0xbdd03bda	-0.10167666
149	0x3dba0b0e	0.0908414
150	0xbda2ca59	-0.07948751
151	0xbd2262ba	-0.039644934
152	0xbca1e89a	-0.019764233
153	0x3c05db01	0.00816989
154	0x3d4370fb	0.04771517
155	0x3db2d02a	0.087311104
156	0x3d2e0e3b	0.04249404
157	0xbce1fc34	-0.02758608
158	0xbd823511	-0.06357778
159	0x3cbd4d57	0.023108168
160	0xbdeeed2d	-0.116663314
161	0xbd8304bf	-0.063973896
162	0x3def8a15	0.11696259
163	0xbdca6c89	-0.09883983
164	0x3c824923	0.015904015
165	0x3cbec599	0.023287581
166	0x3d52215c	0.051301345
167	0x3ded5ee0	0.115903616
168	0xbd8bb726	-0.06822042
169	0x3ca070e9	0.01958509
170	0xbd36398f	-0.044488486
171	0x3db09dd8	0.08623856
172	0xbd86f3f9	-0.06589503
173	0xba9092cb	-0.0011030076
174	0xb9c86ac7	-0.00038226528
175	0x3cc3b7c2	0.023891333
176	0x3dd5c3e5	0.104377545
177	0x3b814e7c	0.0039461236
178	0x3ae83ec2	0.0017718899
179	0xbbc0bdf4	-0.005882019
180	0x3db52037	0.08844035
181	0xbdbb3237	-0.09140437
182	0x3ca716e3	0.020396655
183	0x3ca379e6	0.019955587
184	0x3d96c438	0.073616445
185	0x3dbd5059	0.09243841
186	0x3db23cc7	0.087029986
187	0xbca6938b	-0.020334026
188	0x3da07c98	0.07836264
189	0x3d20f58c	0.03929667
190	0x3d1977d6	0.0374678
191	0xbc734779	-0.014848583
192	0x3da6d46a	0.081459835
193	0xbc0071bc	-0.007839616
194	0xbd1b2a30	-0.03788203
195	0x3cdef6dd	0.027217323
196	0x3d689514	0.056782797
197	0x3d9b70de	0.07589887
198	0xbc4f87ff	-0.012666701
199	0x3d83d735	0.06437532
200	0xbdd0680c	-0.10176095
201	0x3d42881a	0.047493078
202	0x3dd268cf	0.10273897
203	0xbdc60171	-0.09668244
204	0xbc93d353	-0.018045103
205	0xbd0d204f	-0.03445464
206	0xbddf46d4	-0.10902181
207	0xbc993692	-0.018702779
208	0xbdba6a63	-0.09102323
209	0xbde4a2ff	-0.111639015
210	0x3da0f8a1	0.07859922
211	0x3dcb014b	0.09912356
212	0xbddc3614	-0.10752502
213	0xbda6aae6	-0.08138065
214	0xbc105e0c	-0.008811485
215	0x3d2c849a	0.042118646
216	0xbd10f3a1	-0.035388593
217	0x3dae51e4	0.08511713
218	0xbcfa5b18	-0.030561015
219	0x3cc6a91d	0.024250561
220	0x3deeaaf7	0.11653703
221	0x3cd62f34	0.026145555
222	0xbda93110	-0.08261311
223	0xbdb1b3db	-0.08676883
224	0xbd5d7b7b	-0.05407284
225	0xbdd4e051	-0.103943475
226	0xbbdb37d0	-0.006690003
227	0xbdc0e01c	-0.094177455
228	0xbc976897	-0.01848249
229	0xbdea8602	-0.11451341
230	0x3de12190	0.1099273
231	0x3cbbd9c2	0.022930983
232	0xbdb6ee47	-0.089321665
233	0xbcff9c15	-0.031202355
234	0x3d180b6f	0.03712028
235	0xbcf12f5d	-0.02944153
236	0x3d895a3d	0.06706665
237	0x3d1427a3	0.036170613
238	0xbddd660c	-0.108104795
239	0x3d41ecf0	0.0473451
240	0xbdad1f38	-0.0845322
241	0xbc7688c5	-0.015047257
242	0x3cf49feb	0.029861411
243	0xbdc07316	-0.09396951
244	0xbdd3ad12	-0.10335745
245	0x3d5f916f	0.054582056
246	0xbdb78900	-0.089616776
247	0xbd627015	-0.05528267
248	0xbd9b962c	-0.075970024
249	0xbce719b5	-0.0282105
250	0x3c2e0562	0.010621401
251	0x3ccc71b7	0.024956567
252	0x3c3c5804	0.011495594
253	0xbc157e45	-0.009124343
254	0xbdad22fa	-0.08453937
255	0xbd4fb890	-0.050713122

encoder.encBlocks.1.conv2.bias f4 [8]
0	0xbc8ed82f	-0.017437069
1	0x3caf5bcc	0.021406077
2	0xbd2b630b	-0.0418425
3	0x3d5bea0c	0.05369
4	0x3dd77c14	0.10521713
5	0x3d118189	0.035523925
6	0xb99104c7	-0.00027660115
7	0xbd9e39df	-0.07725882

encoder.encBlocks.2.conv1.weight f4 [16, 8, 3, 3]
0	0xbd14f645	-0.036367673
1	0xbdd1360d	-0.102153875
2	0xbb8ac374	-0.0042347256
3	0xbda2f674	-0.079571635
4	0xbd276bf0	-0.04087442
5	0xbdecc9d0	-0.1156193
6	0xbdd8c563	-0.105845235
7	0x3cebc50b	0.02878048
8	0xbd7aa2f9	-0.06119058
9	0xbd4d33e8	-0.05009833
10	0x3d401968	0.04689923
11	0xbd6638a1	-0.05620635
12	0xbdbeca9d	-0.09315989
13	0xbda2c6f7	-0.07948106
14	0xbde43f08	-0.11144835
15	0x3dead5f4	0.114665896
16	0xbd806658	-0.062695205
17	0xbd9c34c2	-0.0762725
18	0xbd1b7059	-0.03794894
19	0x3dd3473f	0.103163235
20	0xbca85e32	-0.020552728
21	0xbda1d22b	-0.079014145
22	0x3dd3b932	0.103380576
23	0x3dd4a77b	0.10383507
24	0xb9f94116	-0.00047541474
25	0x3b0c1ded	0.0021380142
26	0xbc7cee53	-0.01543768
27	0xbd269e15	-0.040678103
28	0xbd1ffdc3	-0.039060365
29	0xbb8f840b	-0.0043797544
30	0x3c3257f4	0.0108852275
31	0xbdd68e0d	-0.10476313
32	0xbda9ddb6	-0.08294241
33	0x3dc5b4d0	0.09653628
34	0xbd92082f	-0.07130467
35	0x3c9862ef	0.018601863
36	0x3ba88d41	0.005143792
37	0x3cf5f882	0.030025724
38	0x3c577117	0.013149521
39	0xbc98d4fe	-0.01865625
40	0x3c976ecd	0.018485451
41	0x3d6f8e04	0.058485046
42	0x3d7e6e51	0.062116925
43	0xbde1b780	-0.11021328
44	0x3cfaf22f	0.03063306
45	0xbd2a5358	-0.04158339
46	0xbd9b157f	-0.075724594
47	0x3cfbfccb	0.03076019
48	0xbdb8481e	-0.0899813
49	0x3d104854	0.035225227
50	0x3deabb7f	0.11461543
51	0xbdb1bc06	-0.08678441
52	0x3d2ad9d7	0.041711655
53	0xbd164d8e	-0.036695056
54	0xbd965aa3	-0.07341506
55	0xbd9aff5b	-0.075682364
56	0xbd4c102e	-0.049820118
57	0x3d809d7c	0.06280038
58	0xbd0c9b60	-0.034327865
59	0x3d230133	0.039796066
60	0x3ba72d64	0.0051018465
61	0x3dace35a	0.08441801
62	0xbd8fc98c	-0.07020864
63	0x3dd1272a	0.10212548
64	0xbd4a8fcb	-0.049453538
65	0xbd1f0d67	-0.03883114
66	0xbd8cfe86	-0.06884484
67	0xbde48f57	-0.111601524
68	0xbde4103b	-0.11135908
69	0x3ce7c1cb	0.02829065
70	0xba295271	-0.0006459123
71	0x3d94cd9a	0.07265778
72	0x3c1c1096	0.009525439
73	0x3ca29801	0.019847872
74	0xbda3dc96	-0.08001058
75	0xbdd428a3	-0.10359313
76	0xbd80256e	-0.06257139
77	0x3dbac42b	0.09119447
78	0x3cfff85a	0.031246353
79	0x3a229524	0.0006202033
80	0x3dd2f79f	0.10301136
81	0xbd2d36ce	-0.042288594
82	0xbd930072	-0.07177819
83	0xbd21f83e	-0.039543383
84	0x3d85a447	0.06525474
85	0xbc8fdb51	-0.017560633
86	0xbd81f794	-0.0634605
87	0x3d6df18b	0.05809168
88	0xbda93557	-0.08262127
89	0x3a14a7e8	0.0005670772
90	0x3cacf25b	0.021111658
91	0x3dae769c	0.08518717
92	0xbde033d4	-0.109473854
93	0x3d1afc8b	0.0378385
94	0xbd41fdfb	-0.047361355
95	0x3cc36855	0.02385346
96	0x3d42f49d	0.047596563
97	0xbd76f439	-0.060291503
98	0xbdd33809	-0.10313422
99	0x3d9a670c	0.07539186
100	0x3db3e366	0.08783607
101	0x3d39d375	0.045367677
102	0xbdd18b79	-0.102316804
103	0xbda614b6	-0.08109419
104	0x3b9bdae8	0.0047563203
105	0x3da4e8a0	0.08052182
106	0x3c49417a	0.012283677
107	0x3d03fc97	0.03222331
108	0xbd5359eb	-0.051599424
109	0x3d319dc4	0.043363348
110	0xbd425894	-0.047447756
111	0xbdad5883	-0.08464148
112	0x3d08611e	0.033295743
113	0xbb900d3a	-0.004396108
114	0xbcd03beb	-0.025419196
115	0xbdb58417	-0.08863085
116	0x3d942c55	0.07235018
117	0x3c8e9a1e	0.017407473
118	0x3da6c525	0.08143071
119	0xbcf01cef	-0.029310672
120	0xbd27f71d	-0.04100715
121	0x3a6be24d	0.000899826
122	0xbd093c23	-0.033504616
123	0x3d7cf191	0.061753813
124	0xbdda082d	-0.10646091
125	0x3d3f5eeb	0.04672138
126	0xbdd392a9	-0.103307076
127	0x3d9a4071	0.075318225
128	0x3d9299f1	0.07158268
129	0x3d7a2905	0.061074276
130	0x3d80addb	0.0628316
131	0xbd6d9229	-0.058000717
132	0x3d8944e7	0.06702595
133	0x3d449153	0.047990154
134	0x3dd6a795	0.104811825
135	0x3bd5f923	0.0065299436
136	0xbcf9f722	-0.03051335
137	0xbcc4dbdb	-0.024030617
138	0xbdb28041	-0.08715869
139	0xbc80017b	-0.015625706
140	0x3c371f0f	0.011176839
141	0xbdc4e455	-0.096138634
142	0xba626221	-0.0008635838
143	0xbd760e57	-0.06007227
144	0x3d9a2693	0.07526889
145	0xbd2060bc	-0.039154753
146	0x3dd668b7	0.104691915
147	0xbda91751	-0.082564004
148	0x3dc1992f	0.094530456
149	0x3cac476d	0.021030152
150	0xbdc6d5b4	-0.097087294
151	0x3dc31377	0.09525197
152	0x3d73303a	0.059372164
153	0x3de95df5	0.11394874
154	0xbdb39ab3	-0.08769741
155	0xbc9d4970	-0.019200057
156	0x3d81a439	0.06330151
157	0x3dca1d5c	0.09868881
158	0xbd619e06	-0.055082344
159	0xbdcf0d66	-0.101099774
160	0xbd5281d8	-0.05139336
161	0xbc8e754e	-0.01738992
162	0xbde405b2	-0.11133899
163	0x3d2421b5	0.040071208
164	0xbd805d23	-0.062677644
165	0x3db67851	0.08909667
166	0xbda0b1c5	-0.07846407
167	0x3d3297b5	0.04360171
168	0x3c85aa80	0.016316652
169	0xbdca0e68	-0.09866029
170	0xbdcb65df	-0.0993154
171	0x3d7d5ffc	0.061859116
172	0xbd91c470	-0.071175456
173	0xbdb834c2	-0.08994438
174	0xbdc82ef0	-0.097745776
175	0x3ca45881	0.020061733
176	0x3d4253ad	0.04744308
177	0xbddfd611	-0.10929502
178	0xbdd9d38d	-0.10636053
179	0x3d1d8868	0.038460165
180	0x3d657184	0.05601646
181	0xbdd6c893	-0.10487475
182	0xbd40d1fd	-0.04707526
183	0xbb0c630f	-0.0021421348
184	0xbd8cbbe0	-0.06871772
185	0x3d59fc01	0.053218845
186	0xbce89bf5	-0.028394679
187	0x3d45acc8	0.04826048
188	0x3a9872ad	0.0011630856
189	0xbde37073	-0.11105432
190	0xbd8c85be	-0.06861447
191	0xbdcb4069	-0.09924395
192	0xbd6e9e08	-0.05825618
193	0x3dcf44fe	0.10120581
194	0x3cefe360	0.029283226
195	0xbd71bf30	-0.05902022
196	0x3dac5987	0.084155135
197	0x3d646fba	0.055770613
198	0x3d7f1519	0.06227598
199	0x3dabe14b	0.083925806
200	0x3d5ad110	0.053422034
201	0x3dcc8bc8	0.09987599
202	0x3beafb7e	0.0071710935
203	0xbd6a1ddc	-0.057157382
204	0x3bf014a3	0.007326679
205	0x3dd10508	0.10206038
206	0x3d6a8db7	0.057264056
207	0xbded6d92	-0.115931645
208	0x3d950477	0.07276242
209	0x3dea835a	0.114508346
210	0x3d107bc1	0.03527427
211	0xbd0af614	-0.033926085
212	0x3c4c07e2	0.012453051
213	0x3c476bae	0.012171669
214	0x3d86ed9e	0.06588291
215	0xbd4939d5	-0.04912742
216	0x3deaec18	0.114708126
217	0xbcd964d7	-0.026537342
218	0xbc096d73	-0.008387911
219	0xbc719654	-0.014745314
220	0xbd87d2c1	-0.06631995
221	0x3d9ac516	0.075571224
222	0xbbb2d985	-0.0054580593
223	0xbd4e2cfc	-0.05033587
224	0xbd98ec13	-0.074669026
225	0xbd9e07a0	-0.07716298
226	0x3db70301	0.0893612
227	0xbdedb443	-0.11606648
228	0xbd5ddc92	-0.05416543
229	0x3c423458	0.0118533
230	0xbd19e5c1	-0.037572626
231	0xbcc44359	-0.023957895
232	0x3da044e6	0.07825641
233	0x3dd34fd9	0.10317964
234	0x3c9c66d5	0.019092003
235	0x3dacd0a9	0.08438236
236	0xbcc10930	-0.023563951
237	0xbd99adb1	-0.07503832
238	0xbde90fd0	-0.11379969
239	0x3dbfcad8	0.09364861
240	0xbde5c033	-0.112183
241	0xbdb6b286	-0.089207694
242	0x3da27d1c	0.07934019
243	0x3d63aef6	0.055586778
244	0x3ddd0f22	0.10793902
245	0xbd74e876	-0.059792005
246	0x3b107eca	0.0022048228
247	0x3db55544	0.08854154
248	0xbdc819f8	-0.09770578
249	0x3cf2fe9a	0.02966242
250	0x3d426acd	0.047465134
251	0xbdd4a3d4	-0.1038281
252	0xbd47e0d7	-0.04879841
253	0xbaa38406	-0.0012475259
254	0x3d80fde3	0.06298425
255	0x3da1b7b0	0.07896364

encoder.encBlocks.2.conv1.bias f4 [16]
0	0x3d8dcb92	0.069235936
1	0x3d9e66ac	0.07734427
2	0xbdd69bf3	-0.10478964
3	0xbdeae402	-0.1146927
4	0x3d1f43f4	0.038883165
5	0x3da1802e	0.078857765
6	0x3dba5ddf	0.09099936
7	0x3cc4fb8c	0.024045728
8	0xbcf5ce58	-0.030005619
9	0xbb8a59cd	-0.004222131
10	0x3db8425a	0.089970306
11	0xbdbf46dc	-0.09339687
12	0x3dc99aa8	0.098439515
13	0x3de0d154	0.10977426
14	0x3c544b94	0.012957472
15	0x3daee8f6	0.085405275

encoder.encBlocks.2.conv2.weight f4 [16, 16, 3, 3]
0	0x3d9c2ce4	0.0762575
1	0xbb970f90	-0.0046100095
2	0xbd6b2db3	-0.05741663
3	0xbd9a0076	-0.07519619
4	0x3d8898e0	0.066697836
5	0xbd661b32	-0.05617828
6	0x3ce4bc82	0.027921919
7	0x3d7f2ace	0.06229668
8	0x3cdb436a	0.026765544
9	0x3d762abe	0.060099356
10	0xbd493a73	-0.049128007
11	0x3d91373f	0.070906155
12	0x3d657870	0.05602306
13	0xbc43c1b7	-0.011948041
14	0xbbcd8764	-0.0062722433
15	0xbd5425e3	-0.051793944
16	0xbd824a2a	-0.06361802
17	0xbd89b3c2	-0.06723739
18	0xbc47328c	-0.012158047
19	0x3c976ca4	0.018484421
20	0xbcbc5c01	-0.02299309
21	0xbc8894ea	-0.01667257
22	0x3d95f92a	0.07322915
23	0xbd483e06	-0.048887275
24	0x3ccdf35b	0.025140455
25	0x3d28b7d5	0.04119094
26	0x3da09e6c	0.078427166
27	0x3c022eb6	0.007945707
28	0x3d80c1f0	0.06286991
29	0xbd10332e	-0.03520506
30	0x3d0b17f6	0.033958398
31	0x3d88f667	0.066876225
32	0x3d95595c	0.072924346
33	0xbd34c906	-0.044137023
34	0x3bec3c2b	0.007209321
35	0xbd2f4926	-0.04279437
36	0x3d974b1b	0.07387372
37	0xbb8692d7	-0.00410686
38	0xbd61d0e8	-0.05513087
39	0xbd81a56e	-0.06330381
40	0xbd88e0e4	-0.066835195
41	0x3d7f5c38	0.062343806
42	0x3d22ef60	0.039779067
43	0xbce7acef	-0.028280703
44	0x3cc57d7e	0.02410769
45	0xbd34c166	-0.04412975
46	0x3c07d492	0.008290427
47	0xbd0374d6	-0.032093845
48	0x3d6cea30	0.057840526
49	0xbda6fc4c	-0.081535906
50	0x3d9d77fa	0.07688899
51	0xbc1ba5db	-0.009499992
52	0xbcfb9fd0	-0.030715853
53	0x3d5bbd2b	0.0536472
54	0x3d8c977f	0.06864833
55	0xbd7ecb8e	-0.062205844
56	0x3d36263e	0.044470064
57	0xbd42f840	-0.04760003
58	0xbd4174d3	-0.047230553
59	0x3ceeb978	0.029141173
60	0xbd23ab23	-0.03995813
61	0x3d06b07e	0.03288316
62	0x3c29114a	0.010319063
63	0x3da1959e	0.07889865
64	0xbd8bc80a	-0.06825264
65	0xbb28dd67	-0.0025766732
66	0xbbdf2d95	-0.0068108537
67	0x3cbcc224	0.023041792
68	0x3d377db7	0.044797625
69	0x3cd257b3	0.025676584
70	0x3d8b2ed2	0.0679604
71	0xbd89fcce	-0.06737672
72	0xbd39c8ab	-0.045357388
73	0xbcfa1d61	-0.030531587
74	0xba5a3517	-0.0008323951
75	0x3d9e82b7	0.07739776
76	0xbd9f687b	-0.077836
77	0x3d75bc27	0.05999389
78	0xbd3599f5	-0.044336278
79	0xbd7685bc	-0.060186133
80	0xbd49cc7a	-0.04926727
81	0x3c296e35	0.010341217
82	0xbd9ca2d0	-0.076482415
83	0x3d959748	0.07304245
84	0xbd6c5441	-0.05769754
85	0xbd2d2864	-0.042274848
86	0xbbff4275	-0.0077899047
87	0x3d94a65a	0.072582915
88	0xbd741373	-0.05958886
89	0xbd04a390	-0.032382548
90	0xbc8bec3b	-0.017080417
91	0xbd058020	-0.032592893
92	0xbd975566	-0.07389335
93	0xbdaa90a8	-0.08328372
94	0x3c627b10	0.013823286
95	0x3d471fac	0.04861419
96	0x3d9cbb6f	0.076529376
97	0xbd56d19a	-0.052445985
98	0x3d9d990c	0.07695207
99	0xbd31329a	-0.043261148
100	0x3ca884e7	0.020571185
101	0x3d3771fb	0.044786435
102	0xbcbba63e	-0.022906419
103	0xbd12419c	-0.0357071
104	0xbd16fcbb	-0.036862116
105	0xbcdcfa0a	-0.026974697
106	0x3da4425e	0.08020471
107	0xbd8d684e	-0.0690466
108	0x3cb836f6	0.022487145
109	0x3d23ecd6	0.040020786
110	0xbd1061d6	-0.035249554
111	0xbd2ecb9e	-0.042674653
112	0xbd2a9b58	-0.041652054
113	0x3d992624	0.07477978
114	0x3d42a1a6	0.04751744
115	0xbd712cd3	-0.05888064
116	0x3cf13e6d	0.029448712
117	0xbccaf25d	-0.024773771
118	0xbd909159	-0.07058973
119	0x3d55b0f1	0.052170698
120	0xbc4156ef	-0.011800512
121	0x3cf9609a	0.030441571
122	0xbd56ed4c	-0.052472398
123	0x3daa605d	0.08319161
124	0x3d8214f0	0.0635165
125	0x3d03e09a	0.03219662
126	0xbd3bfcd8	-0.045895427
127	0xbc200ee4	-0.009769175
128	0xbd62d3fb	-0.05537794
129	0x3d38389e	0.04497587
130	0xbd2236a1	-0.03960288
131	0x3d3af3be	0.045642607
132	0xbd6d5912	-0.057946272
133	0x3d80dd8a	0.06292255
134	0x3d225a50	0.03963691
135	0x3d907136	0.07052843
136	0xbd9ad300	-0.07559776
137	0x3b10d1ab	0.0022097628
138	0x3d5d8ad8	0.05408749
139	0x3bc7a46b	0.006092598
140	0x3cc3c6b6	0.023898464
141	0x3d29b94e	0.041436486
142	0x3cd57720	0.02605778
143	0xbd08e910	-0.03342539
144	0x3d7248a8	0.05915132
145	0xbb789812	-0.0037932438
146	0x3d8799e0	0.06621146
147	0xbd7362a3	-0.05942024
148	0xbcab043a	-0.020876039
149	0xbd1c36b8	-0.03813812
150	0xbd7ea52b	-0.062169235
151	0x3d9e0c93	0.07717242
152	0x3d979d3f	0.07403039
153	0x3c24f0d5	0.010067184
154	0x3d16f371	0.036853258
155	0xbd43d91b	-0.04781447
156	0x3d14a9e6	0.03629484
157	0xbda07f7b	-0.07836815
158	0x3d885260	0.06656337
159	0x3b916371	0.004436903
160	0xbd9ad1f8	-0.075595796
161	0x3da35b0b	0.079763494
162	0xbd17d48c	-0.037067935
163	0xbd2372f8	-0.039904565
164	0xbd99e041	-0.07513476
165	0xbba67ed6	-0.005081038
166	0x3d8eb2a0	0.06967664
167	0xbda67021	-0.08126856
168	0xbd4e88b7	-0.05042335
169	0x3d882e4b	0.06649455
170	0x3d6b2dbc	0.057416663
171	0xbd2f11a8	-0.042741448
172	0xbcf77ff6	-0.030212384
173	0xbc384eab	-0.011249225
174	0x3d95ac30	0.07308233
175	0xbd7e0cae	-0.06202381
176	0xbb7b7bc6	-0.0038373335
177	0x3d8e9794	0.06962505
178	0x3ac44c38	0.0014976328
179	0x3d9be89c	0.07612726
180	0x3d63a5df	0.05557811
181	0x3d99f215	0.075168766
182	0x3da07e74	0.07836619
183	0xbb997b5a	-0.004683894
184	0xbcd758f0	-0.026287526
185	0x3d6f0a86	0.058359645
186	0x3d186d83	0.037213814
187	0x3d6bc266	0.05755844
188	0x3d47c849	0.04877499
189	0x3bcc7171	0.006239109
190	0xbc3f2ea3	-0.011668834
191	0xbc8623f8	-0.016374573
192	0x3d0f3dff	0.034971233
193	0xbc81d825	-0.015850136
194	0xbd34eec8	-0.044173032
195	0xbd94fedb	-0.07275172
196	0x3d7877e8	0.060661227
197	0xbd8ed84b	-0.06974848
198	0x3d6c86a3	0.057745587
199	0xbd13d023	-0.036087167
200	0x3cb5ca66	0.022191238
201	0x3d8388ec	0.064226
202	0xbd5729e0	-0.05253017
203	0xb99c884a	-0.00029856182
204	0xbc92b9db	-0.017910888
205	0xbc7d5dfb	-0.015464301
206	0x3d0634c8	0.03276518
207	0x3a92f70f	0.0011212545
208	0xbbe60e73	-0.0070207654
209	0xbcd0daa6	-0.025494885
210	0x3c34fd8d	0.011046779
211	0xbcd5100c	-0.026008628
212	0x3d5a7f57	0.053344097
213	0x3d6e8b41	0.05823827
214	0xbd055121	-0.032548074
215	0xbc492429	-0.012276688
216	0x3d9ca3ff	0.07648467
217	0x3d02f4b5	0.031971652
218	0xbc87a59e	-0.016558465
219	0x3c30ba2b	0.010786573
220	0x3da1e452	0.07904877
221	0xbd93850f	-0.07203113
222	0xbd73b191	-0.059495512
223	0x3d01883d	0.031624068
224	0x3b1cd8d8	0.002393296
225	0xbd36e4bc	-0.04465173
226	0x3d842854	0.064530045
227	0xbb7ac91f	-0.003826685
228	0xbd1892e4	-0.03724946
229	0xbd823c98	-0.063592136
230	0xbc3bae1e	-0.011455087
231	0xbd44c86d	-0.048042703
232	0x3d9c3564	0.07627371
233	0x3d1b0ef3	0.037856054
234	0xbd907b63	-0.07054784
235	0x3da88d10	0.082300305
236	0x3c781faf	0.015144273
237	0xbd40b339	-0.04704592
238	0xb91e1d77	-0.0001507903
239	0xbd6c173a	-0.057639338
240	0xbd8bc518	-0.06824702
241	0x3c5856c7	0.013204283
242	0xbd31f158	-0.043443054
243	0xbd821897	-0.063523464
244	0x3d1f86ff	0.0389471
245	0xbcd05b98	-0.0254343
246	0x3d33ed2a	0.04392735
247	0x3d8d492a	0.068987206
248	0x3d890723	0.06690814
249	0x3cddc0d6	0.02706949
250	0x3d707745	0.058707494
251	0x3d9be4eb	0.07612022
252	0xbd7e17fb	-0.06203459
253	0xbd64146f	-0.05568355
254	0x3d77fd92	0.060544558
255	0xbd4bff4c	-0.049804017

encoder.encBlocks.2.conv2.bias f4 [16]
0	0xbaf63f1d	-0.001878712
1	0xbcdbbb51	-0.026822718
2	0xbd67a1e8	-0.05655089
3	0xbd3f9fce	-0.04678326
4	0x3d796122	0.06088365
5	0xbd0a7d56	-0.033810936
6	0xbc567fcd	-0.0130919935
7	0x3bb5f862	0.005553291
8	0xbb941300	-0.0045188665
9	0x3b5dbd3b	0.0033834714
10	0x3d9ab6b8	0.07554382
11	0xbd3ac538	-0.04559824
12	0x3bade65e	0.005307003
13	0x3da79efe	0.08184622
14	0x3c48963c	0.01224285
15	0x3d2da4a6	0.04239335

encoder.encBlocks.3.conv1.weight f4 [32, 16, 3, 3]
0	0x3d16da73	0.036829423
1	0x3c60ede9	0.013728597
2	0xbd592476	-0.053013287
3	0x3d44f9d3	0.048089813
4	0xbcb09e71	-0.021559926
5	0xbd888e9e	-0.06667827
6	0xbd4cb2b0	-0.049975097
7	0xbd9e43e6	-0.07727794
8	0x3d1e0658	0.03858027
9	0xbd806d5c	-0.06270859
10	0xbd3a3f50	-0.045470536
11	0x3c9bb00b	0.019004842
12	0xbd4627b7	-0.04837772
13	0x3d2290e9	0.03968898
14	0x3d8283c3	0.06372788
15	0xbd4da015	-0.050201494
16	0x3cc3a05f	0.023880182
17	0xbdaa77e2	-0.08323647
18	0xbccb791c	-0.024838023
19	0x3d026f2e	0.03184431
20	0xbcf3bca0	-0.02975303
21	0x3b8126f4	0.003941411
22	0xbcdba376	-0.026811343
23	0xbd763bfe	-0.060115807
24	0x3d59cfcb	0.053176682
25	0xbc9ef983	-0.019406086
26	0xbcec9f99	-0.028884696
27	0xbc6fe8b4	-0.014642883
28	0x3c9c7e0c	0.019103073
29	0xbd25b249	-0.04045323
30	0xbd8920b0	-0.06695688
31	0x3d91fef7	0.07128709
32	0x3d93b1dc	0.07211658
33	0xbcd4c470	-0.025972575
34	0x3d457fff	0.04821777
35	0xbd7913cf	-0.060809907
36	0xbcc86fa6	-0.0244673
37	0xbd0c431b	-0.034243684
38	0xbcdd2bf8	-0.026998505
39	0x3cd1682b	0.025562366
40	0xbd1e3f50	-0.0386346
41	0x3d3d2976	0.04618212
42	0xbd81191f	-0.063036196
43	0x3d228350	0.03967601
44	0x3cdec3e6	0.027193021
45	0x3d08fbc6	0.033443235
46	0xbcf93fd0	-0.030425936
47	0x3d831dbf	0.06402158
48	0x3ba53ad8	0.005042415
49	0x3cbd37b3	0.023097849
50	0x3d946c10	0.07247174
51	0x3da0bfce	0.07849084
52	0xbd605c53	-0.054775547
53	0xbcd47797	-0.025935931
54	0xbd9c8a53	-0.07643571
55	0x3cf0c383	0.029390102
56	0x3b7ca643	0.0038551248
57	0xbc24115c	-0.010013904
58	0xbd92dd3f	-0.071711056
59	0x3c9a2dec	0.018820725
60	0xbd7265d0	-0.059179127
61	0xbd83b3c2	-0.064307705
62	0x3da11313	0.07864966
63	0xbd668fdb	-0.056289535
64	0x3d8d6a82	0.069050804
65	0xbd6565c3	-0.05600525
66	0x3bbab54c	0.005697882
67	0x3d4bbb23	0.049739014
68	0xbd006946	-0.031350397
69	0xbbe16069	-0.006877948
70	0x3d16aa3e	0.03678345
71	0x3d8e018e	0.0693389
72	0xbda94466	-0.08264999
73	0x3d4210e8	0.047379404
74	0xbd16ef48	-0.03684929
75	0xbcbc115b	-0.022957494
76	0xbcd19f40	-0.025588632
77	0x3d93a4b6	0.072091505
78	0x3d6bf00b	0.05760197
79	0xbd3d2023	-0.046173226
80	0x3d045df3	0.03231616
81	0xbd5a30ce	-0.0532692
82	0x3b83427c	0.0040057283
83	0xbd1795f6	-0.03700825
84	0x3d8a5d32	0.06756057
85	0x3d89515e	0.06704973
86	0x3d90c864	0.070694715
87	0xbd34147b	-0.043964844
88	0x3d7cae48	0.061689645
89	0x3d77d890	0.060509264
90	0x3d1eb11b	0.03874312
91	0xbcb30087	-0.021850837
92	0x3d59217d	0.053010453
93	0x3c91951c	0.017771296
94	0x3d7f1642	0.062277086
95	0x3da26b8e	0.07930671
96	0xbda39d6b	-0.079890095
97	0x3d737985	0.059442062
98	0xbd993324	-0.074804574
99	0xbc829671	-0.015940877
100	0x3d90e1f3	0.070743464
101	0x3d0d2ec3	0.034468424
102	0xbd4cf74d	-0.050040532
103	0xbd2214db	-0.03957067
104	0x3d1812f5	0.037127454
105	0xbd834830	-0.06410253
106	0xbd30b92f	-0.043145355
107	0xbb5356c1	-0.0032247754
108	0xbd356d18	-0.044293493
109	0x3d02bdc8	0.03191927
110	0xbcbe42eb	-0.023225268
111	0xbd7c9dee	-0.06167405
112	0x3c81a186	0.01582409
113	0xbd1567d3	-0.036475968
114	0x3c8686e0	0.016421735
115	0xbd571a0b	-0.05251507
116	0xbc7b522b	-0.015339415
117	0x3d86a2c6	0.06574015
118	0xbc86b7d3	-0.016445076
119	0x3d6cfea9	0.05786005
120	0xbce37ec6	-0.027770411
121	0x3d906bf2	0.07051839
122	0x3ab6fdcb	0.0013961134
123	0xbc146829	-0.009058037
124	0xb9518895	-0.00019982674
125	0x3da12774	0.07868853
126	0x3d6b7333	0.05748291
127	0xbc8a4a7f	-0.016881226
128	0x3bd76fb5	0.006574596
129	0x3d093693	0.03349931
130	0xbd365e55	-0.044523556
131	0x3d902b97	0.07039564
132	0x3d416547	0.047215726
133	0xbcd6fa8e	-0.02624252
134	0xbd143500	-0.036183357
135	0xbda3a37a	-0.07990165
136	0xbd158e40	-0.036512613
137	0x3cc51cf0	0.02406165
138	0x3d3f7b16	0.046748243
139	0xbd82b534	-0.06382218
140	0x3bea5061	0.007150695
141	0x3d889766	0.06669502
142	0xbba291e6	-0.00496124
143	0x3cd4ae80	0.025962114
144	0x3b8391c0	0.0040151775
145	0x3d6838ee	0.056694917
146	0x3b1c6056	0.0023861132
147	0x3cfad20b	0.030617734
148	0xbd0c7d03	-0.034298908
149	0xbc56ec76	-0.0131179
150	0x3c86e160	0.016464889
151	0xbcb5011b	-0.022095254
152	0xbd54887e	-0.05188798
153	0xbb6bd2e9	-0.0035983867
154	0xbd6d9966	-0.05800762
155	0xbd65f3b8	-0.05614063
156	0xbd146348	-0.036227494
157	0xbc76b58b	-0.015057932
158	0xbd415370	-0.047198713
159	0x3d8903d4	0.06690183
160	0x3d891b7a	0.06694694
161	0xbda1585a	-0.0787818
162	0xbb073c54	-0.0020635324
163	0x3d5581c3	0.052125704
164	0xbd221468	-0.039570242
165	0x3b05336a	0.0020324835
166	0xbda7030e	-0.081548795
167	0xbad41010	-0.0016179103
168	0x3d2c8a40	0.042124033
169	0xbd780146	-0.06054809
170	0xbca62e16	-0.020285647
171	0xbd907757	-0.07054012
172	0xbd913043	-0.07089283
173	0xbcf24e20	-0.029578269
174	0x3d8fecda	0.07027598
175	0xbd5640f0	-0.052308023
176	0xbda52eb6	-0.0806555
177	0xbc8345c0	-0.01602447
178	0xbd39a25b	-0.04532085
179	0x3d1a61e8	0.037691027
180	0x3d404703	0.046942722
181	0xbd312fab	-0.04325835
182	0xbd143d58	-0.036191314
183	0x3d8241e8	0.06360227
184	0xbce7c390	-0.028291494
185	0xbd9d1bff	-0.076713555
186	0x3d311010	0.04322821
187	0x3cee56eb	0.02909418
188	0x3c2bc420	0.010483772
189	0x3d816404	0.063179046
190	0xbd865f87	-0.06561189
191	0xbb80f15f	-0.0039350237
192	0xbd4e711b	-0.050400835
193	0xbd9ddc47	-0.0770803
194	0x3d09e1d0	0.033662617
195	0xbd13e41e	-0.03610622
196	0x3d481130	0.048844516
197	0x3d5c9490	0.053852618
198	0xbd98a5c0	-0.07453489
199	0x3d99326f	0.074803226
200	0x3da4b3eb	0.08042129
201	0x3d60bf1b	0.054869752
202	0xbb4af63b	-0.0030969519
203	0xbac63a81	-0.0015123637
204	0xbd250b2b	-0.040293854
205	0x3d54b10b	0.051926654
206	0x3d2ef940	0.042718172
207	0xbd5ae116	-0.053437315
208	0xbd12dd4e	-0.035855584
209	0xbd1786a3	-0.036993634
210	0xbd7d72e6	-0.061877154
211	0xbd968cdc	-0.073510855
212	0x3d0ca118	0.03433332
213	0x3ca9e44b	0.020738741
214	0x3cbba796	0.02290706
215	0x3c8438bb	0.016140332
216	0xbd058660	-0.032598853
217	0x3c5c354b	0.01344044
218	0x3d8c0bb7	0.06838172
219	0x3d0c0cf6	0.034192048
220	0xba957d32	-0.0011405109
221	0x3d9f278f	0.07771217
222	0x3ba99040	0.0051746666
223	0x3c468deb	0.012118797
224	0xbd09a328	-0.033602864
225	0xbc18d556	-0.009328207
226	0xbc98d7e0	-0.018657625
227	0x3d7d13f8	0.06178662
228	0xbb80fd47	-0.003936443
229	0xbd72c12e	-0.05926626
230	0xbd176330	-0.036959827
231	0x3c97ba0b	0.01852133
232	0x3d0e9a2b	0.034814995
233	0xbcf0c0d0	-0.029388815
234	0x3c713ecc	0.014724445
235	0x3d9b9c88	0.07598215
236	0xbd95ab13	-0.073080204
237	0x3d220ebe	0.03956484
238	0x3d683c16	0.056697927
239	0x3d30a626	0.0431272
240	0x3d06edbe	0.032941572
241	0x3cfeba70	0.03109476
242	0x3d710623	0.058843743
243	0x3d6ac233	0.05731411
244	0x3d724b53	0.059153866
245	0xbcd28826	-0.025699686
246	0xbc911106	-0.017708313
247	0xbd209e4e	-0.03921347
248	0x3c2bdf11	0.010490195
249	0x3ce928fb	0.028461924
250	0xbb8e757b	-0.004347501
251	0xbd4e304b	-0.050339025
252	0xbd1cfeb8	-0.038328856
253	0x3b9a8e96	0.0047167046
254	0xbda4e3ff	-0.08051299
255	0x3d99e9ce	0.07515298

encoder.encBlocks.3.conv1.bias f4 [32]
0	0xbb2c1723	-0.0026258908
1	0x3da43254	0.08017412
2	0xbd9747ca	-0.073867396
3	0xbd81746e	-0.06321035
4	0x3c2d01eb	0.010559539
5	0x3d84602e	0.06463657
6	0x3d9db79a	0.07701035
7	0xbba6a900	-0.0050860643
8	0x3c36c48b	0.011155258
9	0x3b93ffc0	0.0045165718
10	0x3cc4020b	0.023926755
11	0x3c3aad96	0.011393925
12	0xbd4df0f0	-0.050278604
13	0xbd1ed0c8	-0.038773328
14	0xbce5a05b	-0.028030565
15	0x3d43605e	0.047699325
16	0x3d49da00	0.049280167
17	0xbd7cd4d6	-0.061726414
18	0x3ca2257b	0.019793263
19	0xbd8f54f8	-0.069986284
20	0xbc500a40	-0.012697756
21	0xbcae3110	-0.02126363
22	0x3da1bf73	0.07897844
23	0x3d36d513	0.044636797
24	0x3ca29d6b	0.019850453
25	0x3d8b108e	0.06790267
26	0xbd46a91e	-0.048501126
27	0x3d8a942f	0.06766545
28	0xbd186f78	-0.03721568
29	0x3d47b3b8	0.048755378
30	0xbda7004b	-0.08154353
31	0xbc238b16	-0.009981891

encoder.encBlocks.3.conv2.weight f4 [32, 32, 3, 3]
0	0x3ccb0f07	0.024787439
1	0xbbf477bb	-0.007460562
2	0xbd5f41a5	-0.054505963
3	0x3d00636f	0.031344827
4	0x3bb84ee5	0.0056246393
5	0xbd3b7e23	-0.04577459
6	0xbd059820	-0.03261578
7	0x3c8c58ba	0.017132152
8	0xbbfe909a	-0.0077687027
9	0xbc623a05	-0.013807778
10	0x3ca52c44	0.020162709
11	0xbc48a3d3	-0.01224609
12	0xbcaa1e84	-0.020766504
13	0xbd585537	-0.052815642
14	0x3c6da26e	0.014504058
15	0xbd14e3f9	-0.036350224
16	0xbd1489b1	-0.036264125
17	0xbce0e5d8	-0.027453348
18	0xbd005d76	-0.03133913
19	0x3c050d37	0.008120826
20	0xbd26a55f	-0.040685054
21	0x3cdc7e7e	0.026915785
22	0xbd208f2b	-0.039199036
23	0xbcf4be0d	-0.02987578
24	0x3d3d68a2	0.046242364
25	0xbc96773f	-0.018367408
26	0xbd341f5d	-0.043975223
27	0x3cfb2cd4	0.030661024
28	0x3a1379a1	0.0005625729
29	0xbc2511c3	-0.0100750355
30	0xbd3697fe	-0.044578545
31	0xbd312a45	-0.043253202
32	0x3d01a202	0.031648643
33	0xbb2319f3	-0.0024887293
34	0xbcc28460	-0.023744762
35	0x3d298155	0.041383106
36	0xbb02cc19	-0.0019958077
37	0xbd6744bd	-0.05646204
38	0xbc908112	-0.01763967
39	0x3c512d6f	0.01276718
40	0xbd28a1e8	-0.04117003
41	0xbbb7ced5	-0.005609373
42	0xbb6a990e	-0.0035796794
43	0x3ce72835	0.028217414
44	0x3d2dd829	0.042442475
45	0xbd378db7	-0.044812884
46	0xbd140d03	-0.03614522
47	0x3d0b2ecb	0.033980172
48	0x3d48ddd8	0.04903969
49	0x3c4a8512	0.012360828
50	0x3c8f14c8	0.017465964
51	0x3d0926b8	0.03348419
52	0xbcf7ee28	-0.030264929
53	0x3d5b98e8	0.05361262
54	0xbcaf94dd	-0.021433288
55	0x3d1970ec	0.037461206
56	0x3cdf3e7a	0.02725147
57	0x3d5a5a4f	0.05330878
58	0xbd272525	-0.04080691
59	0xbcba0171	-0.022705765
60	0x3c40b091	0.011760847
61	0x3c08a064	0.008339021
62	0xbcc02abb	-0.023457875
63	0xbcdc6b81	-0.02690673
64	0x3b990a7d	0.0046704398
65	0xbc80c0d3	-0.015716946
66	0xbd683495	-0.05669077
67	0xbc3a9c57	-0.011389813
68	0x3b90f39c	0.0044235718
69	0x3ce993c0	0.028512836
70	0xbc77cd59	-0.015124642
71	0x3c17d0d4	0.009266097
72	0x3ce27019	0.027641343
73	0x3b339d63	0.0027407042
74	0xbce5651e	-0.028002318
75	0x3c692c99	0.014231824
76	0xbc86c0f8	-0.016449437
77	0x3d64570a	0.05574707
78	0x3c766aa5	0.0150400745
79	0x3d67cd78	0.056592435
80	0xbd663149	-0.056199346
81	0x3cfdca6a	0.030980308
82	0x3c955e95	0.018233577
83	0xbc77ec1c	-0.015131976
84	0xbd49f3aa	-0.04930464
85	0x3bc2908b	0.005937641
86	0x3d15ddd5	0.03658851
87	0x3cd2d8f4	0.025738217
88	0x3d3f6753	0.046729397
89	0x3d0690ee	0.03285306
90	0xbc1d7f6b	-0.009612898
91	0xbd4439eb	-0.047906797
92	0x3d52801d	0.05139171
93	0xbcc8e2be	-0.024522182
94	0x3d256ee1	0.040388945
95	0xbc8344c7	-0.016024007
96	0x3d6a7b70	0.057246625
97	0x3d41159c	0.04713975
98	0xbd2975b0	-0.041372
99	0x3c3c02be	0.011475263
100	0x3d46e799	0.048560712
101	0x3bb0be7b	0.005393801
102	0xbd65eb5b	-0.056132656
103	0x3c93a0d7	0.01802103
104	0xbd1e55d4	-0.03865607
105	0xbcf214ff	-0.029551027
106	0x3d6ff210	0.05858046
107	0xbd6a57f3	-0.05721278
108	0x3c423b6f	0.01185499
109	0xbb38cfdd	-0.0028200068
110	0x3d21ffec	0.039550707
111	0xbd464053	-0.048401188
112	0xbd40bdf1	-0.047056142
113	0xbd5aa094	-0.053375795
114	0x3b2aed88	0.002608152
115	0x3cad27ca	0.021137137
116	0xbd5b099f	-0.053475972
117	0xbd2d7393	-0.04234655
118	0x3c76ac77	0.015055767
119	0xbcf43892	-0.029812131
120	0x3c524b6d	0.012835366
121	0x3cd60cd0	0.026129156
122	0xbc60a73c	-0.013711747
123	0x3d32ac27	0.04362121
124	0x3d63bc14	0.055599287
125	0x3d3c5670	0.04598087
126	0x3d68f29f	0.056872007
127	0x3ca65e97	0.020308776
128	0x3d0d1849	0.03444699
129	0xbb05ad10	-0.0020397343
130	0x3d5f7593	0.054555487
131	0x3c1de14a	0.009636233
132	0xbb88db07	-0.0041765007
133	0xbd6297df	-0.055320617
134	0x3afb0f70	0.0019154381
135	0xbd16337d	-0.036670197
136	0xbc0bb503	-0.008527043
137	0xbd16a0be	-0.03677439
138	0x3d449a81	0.04799891
139	0x3d0bed73	0.034161996
140	0x3ccc6755	0.024951616
141	0x3d090463	0.03345145
142	0xbc60f62f	-0.01373057
143	0x3d4c31b5	0.04985209
144	0xbd6468f5	-0.055764157
145	0xbd30e6f1	-0.043188993
146	0x3c87d208	0.016579643
147	0xbc8f5458	-0.017496273
148	0xbc3c3695	-0.011487623
149	0xbcade583	-0.021227604
150	0xbd02ab3a	-0.031901576
151	0xbbf77238	-0.0075514577
152	0xbd0f9ccf	-0.035061654
153	0x3d0139c9	0.03154925
154	0x3d3d4866	0.046211623
155	0x3caf7fcb	0.021423241
156	0xbb7a1852	-0.0038161469
157	0xbd3e0ce3	-0.04639901
158	0x3c424210	0.011856571
159	0xbc9d8fae	-0.01923355
160	0x3bbf4a29	0.005837698
161	0xbd1eded5	-0.038786728
162	0xbc70d41e	-0.01469901
163	0x3cceca3a	0.025242914
164	0x3d4cc00d	0.04998784
165	0xbab7d1e5	-0.0014024345
166	0x3bfc4c40	0.0076995194
167	0x3d09cd2d	0.033642936
168	0x3ca948c0	0.020664573
169	0x3c9822c0	0.018571258
170	0x3d562aac	0.05228679
171	0x3cb1282e	0.021625604
172	0xbca54342	-0.020173673
173	0x3baf0bd5	0.0053419867
174	0x3d1ee3e6	0.03879156
175	0xbc8a093c	-0.016850106
176	0xbc8657fb	-0.016399374
177	0xbd112e6b	-0.03544466
178	0x3d2ca108	0.04214576
179	0x3d39b4f6	0.045338593
180	0xbd420628	-0.047369152
181	0xbcf5e0f4	-0.030014493
182	0xbcab0956	-0.020878475
183	0x3d1720b7	0.036896434
184	0x3d408910	0.047005713
185	0x3d413aae	0.047175102
186	0xbbb31095	-0.005464623
187	0xbd1e1e07	-0.038602855
188	0x3d62d004	0.05537416
189	0x3d1dc791	0.0385204
190	0xbd4166e5	-0.04721727
191	0xbd2edc49	-0.04269055
192	0x3ce52bc8	0.027974978
193	0x3d11ea02	0.035623558
194	0xbb9210cf	-0.00445757
195	0x3cca8638	0.024722204
196	0xbd14ff4d	-0.036376286
197	0xbc20fe22	-0.009826215
198	0xbd0fa1b3	-0.035066318
199	0xbcf728c1	-0.0301708
200	0x3d209fab	0.03921477
201	0xbd546c0e	-0.05186086
202	0x3c73b143	0.014873805
203	0xbc413697	-0.0117928
204	0xbd04d725	-0.03243174
205	0x3c3e56ba	0.011617357
206	0x3d4fd5da	0.050741054
207	0xbd07bbd3	-0.033138108
208	0x3d0305a2	0.031987794
209	0x3cd54f81	0.026038887
210	0xbc78aa1e	-0.015177278
211	0xbd56e123	-0.0524608
212	0xbd6c40b5	-0.057678897
213	0xbc275c58	-0.010214888
214	0x3b3aea48	0.002852099
215	0x3d31dd9b	0.04342423
216	0xbd3c25e8	-0.045934588
217	0x3d54c36b	0.051944178
218	0x3cf4a8de	0.029865678
219	0xbd1e78c0	-0.038689375
220	0x3c5ed422	0.013600381
221	0x3c9a048e	0.018801
222	0x3d1ae586	0.037816547
223	0xbd5a5418	-0.053302854
224	0x3b352799	0.002764201
225	0xbd37640f	-0.044773158
226	0xbbf1182b	-0.0073576174
227	0xbd488d27	-0.04896274
228	0x3c4cee87	0.012508041
229	0xbd57d75d	-0.05269562
230	0x3d2c6ccb	0.04209594
231	0x3d377086	0.044785045
232	0x3d3835e9	0.044973288
233	0x3d17585b	0.036949497
234	0x3d2546b9	0.04035065
235	0xbd69ca29	-0.05707756
236	0x3c9aef90	0.01891306
237	0x3c3bee6b	0.0114704175
238	0xbd44f908	-0.048089057
239	0xbd4eda5e	-0.05050122
240	0xbc9e5d6d	-0.019331658
241	0x3d47a2e3	0.048739325
242	0x3d2da2ef	0.042391714
243	0x3ce0ceb3	0.027442312
244	0xbcfad52d	-0.030619228
245	0x3c07a409	0.008278855
246	0x3cab1330	0.020883173
247	0xbd43b0cf	-0.04777604
248	0x3c6f4acf	0.014605238
249	0xbd3e5843	-0.04647089
250	0xbd2d67b3	-0.042335223
251	0x3b9036df	0.0044010724
252	0x3caec231	0.021332832
253	0x3c8128d8	0.015766546
254	0x3d143ffd	0.036193836
255	0xbd64971e	-0.05580818

encoder.encBlocks.3.conv2.bias f4 [32]
0	0x3c58b42e	0.013226552
1	0x3d16cc28	0.036815792
2	0xbc62d30d	-0.013844264
3	0x3d1221c9	0.03567675
4	0xbd7106e4	-0.058844462
5	0x3c9fd7b2	0.019512031
6	0xbcf7c386	-0.0302446
7	0x3ca4b31d	0.02010494
8	0x3d17f792	0.037101336
9	0x3bb7a2c8	0.005604122
10	0x3c85afce	0.016319182
11	0x3d6b5ae0	0.057459712
12	0x3d2ef2f1	0.042712156
13	0x3d18bda1	0.03729022
14	0xbc142b92	-0.009043591
15	0xbaa128dc	-0.0012295502
16	0x3d42365f	0.047415134
17	0xbd31ae3e	-0.04337906
18	0x3d50009c	0.05078183
19	0x3b5aa456	0.0033362112
20	0xbd1b3e93	-0.037901472
21	0xbcf52cd1	-0.029928597
22	0x3d49dbd8	0.049281925
23	0xbd1f7868	-0.038933188
24	0xbce25af6	-0.027631264
25	0x3d35177a	0.044211842
26	0xbc91cc40	-0.01779759
27	0xba9a92b6	-0.0011792991
28	0xbcaae6d1	-0.020862015
29	0xbcb60a36	-0.022221666
30	0xbcc89956	-0.024487179
31	0x3b58e30b	0.0033094313
